models/amazon-comp_uc.pt (torch, 318155 bytes, 8 tensors)

layers.0.bias f4 [48]
0	0xbcb75849	-0.022380965
1	0x3cd05473	0.025430894
2	0xbcf91173	-0.030403828
3	0x3d42217a	0.047395207
4	0x3c0a5666	0.008443451
5	0xbcda748f	-0.026666908
6	0x3ce279e8	0.02764602
7	0x3cfea2b8	0.03108345
8	0xbb9d2810	-0.0047960356
9	0xbd86a1f7	-0.06573861
10	0xbcc98248	-0.024598256
11	0x3a142c14	0.000565232
12	0x3d20d95b	0.039269786
13	0xbbd154a1	-0.0063882624
14	0xbd12d3ed	-0.03584664
15	0x3d443766	0.047904395
16	0x3d696893	0.056984495
17	0xbbd4db6d	-0.006495884
18	0xbcb0903f	-0.021553157
19	0x3c5e6127	0.013572968
20	0x3ddec4d4	0.10877386
21	0xbc8ebce5	-0.017424056
22	0xbbe6c461	-0.007042453
23	0xbdef97f0	-0.11698902
24	0xbd4a395f	-0.04937112
25	0xbd9d4faf	-0.07681214
26	0x3d8fee98	0.0702793
27	0x3b993204	0.004675152
28	0x3d8a548e	0.06754409
29	0xba84b840	-0.0010125712
30	0xbc6b63c3	-0.014367047
31	0xbb9a0e22	-0.004701392
32	0x3c053450	0.008130148
33	0xbdb58af1	-0.088643916
34	0xbd90b9c6	-0.070666835
35	0x3d74ad6c	0.0597357
36	0xbc839c87	-0.016065849
37	0xbd6f35f1	-0.058401052
38	0x3d2f51eb	0.042802732
39	0x3d80fcbe	0.06298207
40	0x3c4a0dc8	0.012332387
41	0xbd130149	-0.035889897
42	0x3b0a44ff	0.0021098254
43	0x3d53f294	0.051745012
44	0x3d1dcf76	0.03852793
45	0x3b6e0cbd	0.003632351
46	0x3d5a4af6	0.053294145
47	0xbd4e6788	-0.050391704

layers.0.fc_self.weight f4 [48, 767]
0	0x3cc41f4b	0.023940703
1	0x3e295dd1	0.16539694
2	0xbdbb13c0	-0.091346264
3	0x3c9b34fa	0.01894616
4	0x3b243e35	0.0025061492
5	0x3d674620	0.05646336
6	0xbdc819d1	-0.09770549
7	0xbe1bea1b	-0.15226023
8	0x3d567be3	0.05236424
9	0x3dd856cb	0.105634294
10	0xbdc58d46	-0.096460864
11	0xbdbed845	-0.09318594
12	0x3d9dbf34	0.07702485
13	0xbe079701	-0.13241197
14	0x3da60200	0.0810585
15	0x3dcdc553	0.10047402
16	0xbe01dfac	-0.1268298
17	0xbd77a79c	-0.06046258
18	0x3d55f375	0.05223413
19	0xbdb4ecbe	-0.088342175
20	0xbb139698	-0.002252018
21	0xbe12b308	-0.14326108
22	0x3d213dcf	0.039365586
23	0xbcf5ec24	-0.030019827
24	0xbdb7ce5b	-0.08974906
25	0x3d4a3623	0.049368035
26	0x3df8b56e	0.1214398
27	0xbd324986	-0.04352715
28	0xbd83ec18	-0.06441516
29	0x3cfcae2b	0.030844769
30	0xbe019696	-0.126551
31	0x3e034ab1	0.12821461
32	0x3e1892fd	0.14899822
33	0x3df4518b	0.119296156
34	0x3cb19fed	0.021682704
35	0x3c3b6d2f	0.011439606
36	0xbdd11984	-0.10209945
37	0x3dd3d643	0.103436016
38	0xbdf5440a	-0.11975868
39	0xbd45a3af	-0.048251804
40	0x3b22edeb	0.0024861048
41	0x3d1dd5b8	0.038533896
42	0x3d35164c	0.044210717
43	0xbd806d47	-0.06270843
44	0xbdd237ab	-0.10264524
45	0xbca2bc14	-0.019865073
46	0xbd498870	-0.049202383
47	0x3cf50aef	0.02991244
48	0xbd023852	-0.031791992
49	0x3dc4383b	0.095810376
50	0x3d2c8d3a	0.04212687
51	0x3e251180	0.16119957
52	0x3df1b869	0.118027516
53	0x3d1ba45f	0.037998553
54	0x3dba2b81	0.09090329
55	0xbe19699f	-0.14981697
56	0x3cff8d77	0.031195385
57	0xbafaee6e	-0.0019144544
58	0xbdb1e180	-0.08685589
59	0x3c0c4409	0.008561143
60	0xbd34e6da	-0.04416547
61	0x3cf88735	0.03033791
62	0xbda646c3	-0.081189655
63	0xbdc968be	-0.09834431
64	0x3c2a81a7	0.010406888
65	0x3d001da6	0.031278275
66	0xbd26d24c	-0.0407279
67	0x3cc39a06	0.023877155
68	0x3dad6cc4	0.08468011
69	0xbdfb5d20	-0.122736216
70	0x3d7720c2	0.060333975
71	0xbd29c469	-0.041447077
72	0xbdb7fa2a	-0.08983262
73	0x3d170189	0.0368667
74	0x3dcaf882	0.0991068
75	0x3d806f9c	0.06271288
76	0xbe21bfaa	-0.1579577
77	0x3d86d9b4	0.06584492
78	0xbe1385b5	-0.14406474
79	0xbc261275	-0.010136236
80	0xbde389ce	-0.111102685
81	0xbe27aa43	-0.16373543
82	0xbe2bfcc6	-0.16795644
83	0x3c9714d4	0.018442549
84	0xbd2e14fe	-0.04250049
85	0x3db06ed3	0.08614888
86	0xbcfde4f6	-0.030992966
87	0x3d4ff974	0.050775006
88	0x3c71e649	0.014764377
89	0xbdcbd17b	-0.099520646
90	0x3d07b210	0.033128798
91	0x3d52f45c	0.05150257
92	0xbc763de3	-0.015029403
93	0x3c8ab6f1	0.016932936
94	0xbd5598ab	-0.05214755
95	0xbd446110	-0.04794413
96	0x3da0f2fa	0.07858844
97	0xbd55a07a	-0.052154996
98	0x3dc19b08	0.09453398
99	0xbde9dc9c	-0.11419031
100	0x3c62d85c	0.013845529
101	0x3d455714	0.048178747
102	0x3d161bf5	0.036647756
103	0x3cc10c14	0.02356533
104	0xbda96579	-0.082713075
105	0xbdbe9417	-0.0930559
106	0x3c98009a	0.018554974
107	0x3ddb2a1a	0.107013896
108	0x3b7b5f39	0.0038356318
109	0xbdbc310c	-0.091890424
110	0x3d7ccaa4	0.06171669
111	0x3dcc87ef	0.09986865
112	0xbc8857a6	-0.016643357
113	0xbd0f44e3	-0.034977805
114	0x3d7f6cef	0.062359747
115	0x3d1184df	0.035527106
116	0x3c1475da	0.009061301
117	0xbe1b6bfa	-0.15177909
118	0x3db2766f	0.08713996
119	0xbc1a3404	-0.009411816
120	0x3da6877a	0.08131309
121	0xbd8131e9	-0.06308348
122	0xbdb06b3b	-0.086142026
123	0x3d9e646b	0.07733997
124	0xbd702940	-0.05863309
125	0xbdabf213	-0.08395781
126	0x3d369292	0.044573374
127	0x3d0ca017	0.03433236
128	0x3d5a2c68	0.053265005
129	0xba82a735	-0.0009968044
130	0x3e2c1392	0.1680434
131	0xbd19a492	-0.037510462
132	0x3d8bf266	0.06833343
133	0xbd5d5633	-0.054037284
134	0x3d8533a0	0.06503987
135	0xbd5b48de	-0.05353629
136	0x3ccd8434	0.025087453
137	0xbccc7780	-0.024959326
138	0xbc423062	-0.011852356
139	0xbd0632d2	-0.03276331
140	0xbc44d45d	-0.012013522
141	0x3cb764f7	0.022387011
142	0x3d2907ea	0.041267313
143	0x3ddf80f7	0.1091327
144	0xbdf9eb07	-0.12203031
145	0x3e0007dc	0.12502998
146	0x3d80fa68	0.06297761
147	0x3cea178f	0.028575687
148	0x3d017618	0.031606764
149	0x3d4672c1	0.04844928
150	0xbd6ccd8d	-0.057813216
151	0x3e062e5c	0.13103622
152	0xbdf72f6a	-0.120695904
153	0xbd47fda3	-0.04882587
154	0xbd16acd2	-0.036785908
155	0xbd5c68a0	-0.053810716
156	0x3e0068c2	0.12539962
157	0xbd4d41bb	-0.050111514
158	0xbdf8d86b	-0.121506535
159	0x3d949b08	0.07256132
160	0xbd8ca9b0	-0.06868303
161	0x3da41c14	0.08013168
162	0xbca272d8	-0.019830152
163	0xbdda0a0f	-0.1064645
164	0x3e1c5485	0.15266617
165	0x3ca78c5b	0.020452669
166	0x3d4643a6	0.04840436
167	0x3e0e2e50	0.13884854
168	0xbe38d670	-0.18050551
169	0x3df10fc9	0.11770589
170	0x3d2e744c	0.042591378
171	0xbdf3eeda	-0.11910792
172	0xbb1fb1d8	-0.0024367478
173	0x3c277527	0.010220802
174	0xbc0cb727	-0.008588589
175	0xbc58ed76	-0.013240209
176	0xbda2c703	-0.07948115
177	0x3e155dc3	0.14586549
178	0xbd8c05e6	-0.068370625
179	0x3dbac007	0.091186576
180	0xbdf973dc	-0.121803015
181	0x3d0fe87a	0.035133816
182	0x3d6381aa	0.05554358
183	0xbdabfbe0	-0.08397651
184	0x3d59262f	0.05301493
185	0x3ddb0604	0.10694507
186	0x3bb4a30c	0.0055126008
187	0x3dc4799a	0.09593506
188	0x3cb2da9b	0.021832755
189	0xbda8ba41	-0.0823865
190	0x3d82b531	0.06382216
191	0x3bd99ca7	0.006640989
192	0xbd9d222e	-0.07672535
193	0x3bb4bc71	0.005515628
194	0x3cfed9ff	0.031109808
195	0x3d37d99e	0.04488527
196	0x3dcb6991	0.099322446
197	0xbe013ef1	-0.12621666
198	0x3db45ba8	0.088065445
199	0xbd727250	-0.05919105
200	0xbd5bbf2b	-0.05364911
201	0x3d41c268	0.04730454
202	0xbdf147f4	-0.11781302
203	0xbd994bd0	-0.07485163
204	0x3dcb8f5f	0.09939455
205	0xbdece2c6	-0.11566691
206	0x3ce31228	0.027718619
207	0xbe0bdf0a	-0.13659301
208	0x3decbd9d	0.11559603
209	0x3d2a5a57	0.04159006
210	0xbd29f811	-0.04149634
211	0xbde3c36c	-0.11121258
212	0xbd6c6e30	-0.05772227
213	0x3d219bc6	0.039455198
214	0x3aaa68e0	0.0013001226
215	0xbe0c400e	-0.1369631
216	0xbd1b8af0	-0.037974298
217	0xbded57b3	-0.11588993
218	0x3d25e792	0.040504046
219	0xbdb2b45e	-0.087258086
220	0xbc7bc464	-0.015366647
221	0xbdb649f9	-0.08900828
222	0xbc15d46a	-0.009144882
223	0x3d99d3f9	0.07511134
224	0xbdfe0509	-0.12403304
225	0x3dc0b68f	0.0940982
226	0xbd8df7a7	-0.069320016
227	0xbd723e28	-0.059141308
228	0x3d613681	0.05498362
229	0x3be92740	0.0071152747
230	0xbe055db6	-0.13024029
231	0x3e224394	0.15846092
232	0x3d8020de	0.06256269
233	0x3d330aa4	0.04371132
234	0x3d84b430	0.064796805
235	0xbd917318	-0.071020305
236	0xbd5292fa	-0.0514097
237	0xbdce0bda	-0.10060854
238	0x3d4673da	0.04845033
239	0x3d3bdb1f	0.045863267
240	0x3d22089f	0.039559003
241	0xb9e77b3e	-0.00044151576
242	0xbda09a30	-0.07841909
243	0x3d43bca0	0.04778731
244	0xbdcd139d	-0.100135066
245	0x3d74a211	0.05972487
246	0x3da1d450	0.079018235
247	0x3ca96cc4	0.020681746
248	0x3ded8c92	0.11599077
249	0x3b882fbe	0.004156082
250	0xbd55d813	-0.052208018
251	0xbd478ac4	-0.04871632
252	0x3d03f07d	0.03221177
253	0x3db8a195	0.09015194
254	0xbd8aa3aa	-0.06769498
255	0x3d11e588	0.03561929

layers.0.fc_neigh.weight f4 [48, 767]
0	0xbc8cfee5	-0.017211387
1	0xbb97d23b	-0.0046332157
2	0x3d593888	0.053032428
3	0x3de50a72	0.11183633
4	0x3dc325f0	0.095287204
5	0x3df0d399	0.11759109
6	0xbd6f5778	-0.058433026
7	0xbdd2eb30	-0.10298765
8	0xbdce2803	-0.100662254
9	0xbd51c039	-0.05120871
10	0xbce5515e	-0.0279929
11	0x3dad2ce4	0.08455828
12	0x3d89b009	0.06723029
13	0x3dba55a9	0.0909837
14	0xbda4bdbd	-0.08044002
15	0x3e0199bd	0.12656303
16	0x3bcbd11f	0.0062199975
17	0xbc8d1e67	-0.017226411
18	0xbdfddb63	-0.1239536
19	0x3c82dbc5	0.015973935
20	0xbd35fbf3	-0.04442973
21	0x3dd56114	0.10418907
22	0xbcd6360f	-0.026148824
23	0xbd8f19c1	-0.06987334
24	0xbd8c20da	-0.068422034
25	0xbd68a339	-0.056796286
26	0xbcfb9dd3	-0.030714905
27	0xbb76d823	-0.0037665449
28	0x3db0fb14	0.08641639
29	0xbdbc16a8	-0.09184009
30	0xbdfdaf4f	-0.12386953
31	0xbbac0c3d	-0.0052504824
32	0x3dc7d965	0.097582616
33	0x3dcd07c1	0.100112446
34	0xbd0e50e3	-0.03474511
35	0xbdc2e177	-0.0951566
36	0xbdc1aafc	-0.09456441
37	0xbd3eaa37	-0.04654905
38	0xbcdaba1f	-0.026700078
39	0x3deb68a4	0.11494568
40	0x3d37b675	0.04485174
41	0x3d49235f	0.049105998
42	0xbc63ed89	-0.013911613
43	0x3d225284	0.039629474
44	0x3db7f348	0.08981949
45	0xbd999a0c	-0.07500085
46	0xbcb24603	-0.0217619
47	0x3ddaae92	0.10677828
48	0x3de9145f	0.113808386
49	0x3d956c7a	0.07296081
50	0xbc8a45e5	-0.016879031
51	0xbd385cbe	-0.04501032
52	0xbd81ff43	-0.063475154
53	0x3e023c7c	0.12718385
54	0xbdede191	-0.11615289
55	0xbdebda49	-0.11516244
56	0x3d14fce7	0.036374
57	0xbdfe1128	-0.12405616
58	0xbdde59aa	-0.10856946
59	0xbd7bd1cc	-0.061479375
60	0x3d300bc6	0.042979978
61	0xbc66c2c3	-0.014084521
62	0xbdb7f5c7	-0.08982425
63	0xbd092855	-0.03348573
64	0x3c0cae04	0.00858641
65	0xbc8c40f8	-0.017120823
66	0x3d836a7e	0.06416796
67	0xbda72691	-0.08161653
68	0xbd678b5c	-0.056529388
69	0x3c8831e6	0.016625356
70	0xbc57f053	-0.013179856
71	0xbd5405ca	-0.051763333
72	0x3ae8e9e2	0.0017769898
73	0x3d87b6e1	0.06626678
74	0x3bed7dd3	0.0072476654
75	0x3c3e4f4f	0.011615588
76	0x3d93c390	0.07215035
77	0x3b1662f0	0.0022947155
78	0xbdd14966	-0.10219078
79	0x3da50d0d	0.0805913
80	0xbdf0ebe7	-0.11763745
81	0x3d760279	0.06006095
82	0x3da38858	0.0798499
83	0x3d86902d	0.06570468
84	0xbd6f3621	-0.05840123
85	0x3d83bf14	0.0643293
86	0xbe11164a	-0.14168659
87	0x3d9ee2f9	0.07758135
88	0xbd21e518	-0.03952512
89	0x3dd4ee2f	0.103969924
90	0xbdade7f1	-0.08491505
91	0x3ce94684	0.028476007
92	0xbda6751f	-0.08127808
93	0xbcf3c895	-0.02975873
94	0xbd93ca50	-0.072163224
95	0xbce7299e	-0.028218087
96	0x3cc5384c	0.024074696
97	0x3c59e4dd	0.013299194
98	0x3b698346	0.0035631224
99	0x3d92cf09	0.07168395
100	0xbdccca5b	-0.09999534
101	0x3d8781ac	0.0661653
102	0x3cbc428c	0.02298095
103	0xbe143169	-0.14471973
104	0x3b997c1e	0.0046839854
105	0x3753cb0c	1.2623856e-05
106	0xbbc5215d	-0.00601594
107	0x3d23b26e	0.039965086
108	0x3dd11941	0.10209895
109	0xbc5b0868	-0.013368703
110	0xbdab19b8	-0.08354515
111	0x3d8cc747	0.06873947
112	0xbd8ddceb	-0.069269024
113	0xbda743b9	-0.08167214
114	0xbd477873	-0.048698854
115	0xbd8bafec	-0.06820664
116	0x3d274f7a	0.04084728
117	0x3d2f2481	0.042759422
118	0xbd96401c	-0.07336447
119	0x3cc09da5	0.02351267
120	0x3df2aeee	0.118497714
121	0xbd4698cc	-0.048485562
122	0x3de79ae4	0.1130884
123	0xbcc5284c	-0.024067067
124	0x3d096b7b	0.033549767
125	0x3c8b839d	0.017030532
126	0x3d6461fe	0.055757515
127	0xbd6e4565	-0.05817165
128	0xbdf8059d	-0.12110446
129	0x3e089458	0.13337839
130	0x3da98ca7	0.082787804
131	0xbdae1379	-0.08499808
132	0x3d854c94	0.06508747
133	0x3df14173	0.117800616
134	0xbd5795d3	-0.052633118
135	0x3ddcd7d1	0.10783351
136	0x3d5ae5c2	0.05344177
137	0x3c61fa38	0.013792567
138	0x3d7632ac	0.06010692
139	0x3d27099c	0.04078065
140	0xbde275f2	-0.110576525
141	0x3df63375	0.120215334
142	0x3d85d3c6	0.06534533
143	0x3df78fed	0.120879985
144	0xbd5f99a4	-0.054589882
145	0x3dcdd59a	0.10050507
146	0x3d7c7c6c	0.061642095
147	0x3dd51ec8	0.10406262
148	0xbde29648	-0.1106382
149	0xbc34ccf0	-0.011035189
150	0xbd4f0389	-0.05054048
151	0xbc93e19c	-0.018051915
152	0xbda13100	-0.07870674
153	0xbdca4e1e	-0.09878181
154	0x3c861fa5	0.016372511
155	0x3d3af243	0.045641195
156	0x3c8a533a	0.016885389
157	0x3dbdb1be	0.09262417
158	0xbcec204d	-0.028823996
159	0x3abb4184	0.0014286493
160	0xbd78bfa9	-0.060729656
161	0xbd4bab98	-0.04972419
162	0xbca53fbb	-0.02017199
163	0x3d5e438e	0.054263644
164	0xbc76e17b	-0.015068407
165	0x3defc24f	0.11706983
166	0xbd8b30a2	-0.06796385
167	0xbdaf8293	-0.08569827
168	0x3cd78e50	0.026312977
169	0x3c532b46	0.012888735
170	0x3d1d6380	0.03842497
171	0xbd429671	-0.047506753
172	0xbd9df91b	-0.07713529
173	0x3d878432	0.06617011
174	0x3d51594d	0.051110554
175	0xbd7dcc95	-0.061962683
176	0x3d3a6413	0.045505594
177	0x3da3ee53	0.08004441
178	0xbda16486	-0.078805014
179	0x3e0397b1	0.12850834
180	0x3dc86335	0.09784547
181	0x3d3355f4	0.043783143
182	0xbad9853c	-0.0016595493
183	0x3d9d6d7d	0.07686899
184	0x3cbb7730	0.022883981
185	0x3c627d24	0.013823781
186	0xbd8bdfb9	-0.06829781
187	0xbdcc9629	-0.09989578
188	0xbd562d11	-0.052289072
189	0xbddfb465	-0.109230794
190	0x3de5527a	0.11197372
191	0x3dd15ade	0.1022241
192	0x3def6068	0.1168831
193	0xbd30c97b	-0.043160897
194	0xbca7e6b4	-0.02049575
195	0x3db866de	0.09003995
196	0x3dcc840d	0.09986124
197	0xbd111487	-0.035419967
198	0x3d46d0ff	0.048539158
199	0x3cfbd677	0.030741913
200	0x3dbba5c2	0.09162475
201	0xbd2bfeac	-0.04199092
202	0xbdb9982a	-0.09062226
203	0xbdcd2ffc	-0.10018918
204	0x3dd7e8ca	0.10542448
205	0xbd232157	-0.039826717
206	0x3d8a1171	0.06741608
207	0xbd9d60ee	-0.076845035
208	0x3d9bd6e9	0.0760935
209	0x3d258299	0.04040775
210	0xbca5fc26	-0.020261835
211	0x3cecc8f2	0.028904412
212	0xbd03595f	-0.032067653
213	0x3d55d351	0.05220348
214	0x3c53c877	0.0129262125
215	0xbc73f194	-0.01488914
216	0x3d2f3096	0.042770945
217	0x3d222015	0.039581377
218	0x3da73754	0.0816485
219	0x3d08fe2a	0.033445515
220	0xbe0a6a73	-0.1351717
221	0xbcc67c54	-0.024229206
222	0xbd40535d	-0.0469545
223	0xbd870856	-0.06593387
224	0x3da1ec35	0.07906381
225	0x3d6cd00f	0.057815608
226	0x3d8e12ef	0.06937205
227	0x3dc3fd97	0.09569853
228	0x3cc35e72	0.023848746
229	0xbd34720c	-0.044054076
230	0xbc5d0a5a	-0.013491238
231	0x3cc1cb56	0.023656528
232	0xbd8fd727	-0.07023459
233	0xbde49492	-0.1116115
234	0x3dc76d0c	0.09737596
235	0xbce10988	-0.027470365
236	0x3d8a0ffc	0.0674133
237	0xbd9f86c8	-0.07789379
238	0x3ddfc886	0.10926919
239	0x3d6e9897	0.05825099
240	0xbdde14de	-0.10843824
241	0xbd714137	-0.058900084
242	0x3e02bc33	0.12767105
243	0xbd075071	-0.0330357
244	0xbdbe660d	-0.092968084
245	0x3db3ed81	0.08785535
246	0xbcb42826	-0.0219918
247	0xbd72a1de	-0.0592364
248	0xbe02a7a0	-0.12759256
249	0x3dfbc4e3	0.122934125
250	0x3d913403	0.070899986
251	0x3b129aea	0.0022370168
252	0xbd8eca18	-0.0697214
253	0xbd562bb9	-0.05228779
254	0x3d69deeb	0.057097357
255	0xbc01fa93	-0.007933277

layers.1.bias f4 [48]
0	0xbd12790c	-0.03575997
1	0xbd3d612e	-0.046235256
2	0x3dd225da	0.10261126
3	0x3cd8b738	0.026454553
4	0xbdd1535d	-0.102209784
5	0xbcdd8754	-0.027042069
6	0x3d862586	0.06550126
7	0xbc9d3cc5	-0.019194016
8	0xbc1afc50	-0.00945957
9	0xbbe67438	-0.0070328973
10	0x3d95b020	0.07308984
11	0xbd1262ec	-0.03573887
12	0xbd425774	-0.047446683
13	0xbde36849	-0.11103875
14	0x3df01c3e	0.11724137
15	0xbdd9333b	-0.106054746
16	0xbda76992	-0.08174433
17	0x3b68c24c	0.00355162
18	0x3d332f6f	0.043746408
19	0x3db20038	0.08691448
20	0x3c0aa347	0.00846178
21	0xbda9688e	-0.08271895
22	0xbce17c0a	-0.027524967
23	0xbd0b1e7d	-0.033964623
24	0x3d8f2ec9	0.069913454
25	0xbda1af97	-0.07894819
26	0xbc079319	-0.008274817
27	0x3d2f1da6	0.042752884
28	0xbcb81b4e	-0.022473957
29	0x3d8f605d	0.07000802
30	0x3d6ff920	0.058587193
31	0xbd4f36cc	-0.050589368
32	0xbdce7d8b	-0.10082539
33	0x3de3ac0c	0.111168
34	0x3bcb0cce	0.006196595
35	0xbd6fa5f7	-0.058507886
36	0x3da5903f	0.080841534
37	0x3d745df3	0.05965991
38	0x3d6fc436	0.05853673
39	0xbc692bbf	-0.014231621
40	0xbc3b0356	-0.01141437
41	0xbd063daf	-0.03277367
42	0x3d919099	0.07107658
43	0x3da84ea9	0.08218128
44	0xbd433171	-0.047654573
45	0x3cafd48b	0.021463653
46	0x3d37337a	0.044726826
47	0xbcfb9a8f	-0.030713348

layers.1.fc_self.weight f4 [48, 48]
0	0xbe8a8c7b	-0.27060303
1	0x3e1a4f54	0.15069324
2	0x3e8149ec	0.2525171
3	0xbe81fc24	-0.2538768
4	0x3e67e445	0.22645672
5	0xbecb0926	-0.39655417
6	0xbe5e8dc1	-0.21733762
7	0xbeb18679	-0.34672907
8	0xbe4a37d5	-0.1974786
9	0xbea3e1e6	-0.32008284
10	0x3d4d03ef	0.05005258
11	0xbe6ff976	-0.23435006
12	0x3e47e4cb	0.19520871
13	0xbcf68569	-0.030092912
14	0xbda95112	-0.08267416
15	0xbe338e14	-0.17534667
16	0xbe5cab4b	-0.21549718
17	0x3d846ccf	0.06466066
18	0xbe407cf8	-0.18797672
19	0xbd4507b2	-0.048103042
20	0xbe6a681e	-0.2289128
21	0xbe00c485	-0.12574966
22	0x3e8c8106	0.27442187
23	0xbe440b5e	-0.19144961
24	0xbe983876	-0.29730576
25	0xbdebbd20	-0.11510682
26	0xbe9fa088	-0.31177163
27	0x3d3cbb9d	0.04607736
28	0x3e865e26	0.26243705
29	0xbdbfbf33	-0.0936264
30	0x3e5affdf	0.2138667
31	0x3eb751a6	0.3580448
32	0x3e50cc49	0.20390429
33	0xbc8cf53d	-0.017206782
34	0xbe0e50b4	-0.13897973
35	0xbec0f4d9	-0.37686804
36	0xbdb42ad2	-0.0879723
37	0xbd36c100	-0.044617653
38	0x3e4a107e	0.19732854
39	0xbea2c635	-0.31791845
40	0x3e863f6a	0.26220256
41	0xbd1b29ad	-0.037881542
42	0xbe1c9047	-0.15289412
43	0xbe773327	-0.24140607
44	0xbe915688	-0.2838633
45	0xbec7310b	-0.38904604
46	0x3e0586e5	0.1303974
47	0x3db54ec8	0.08852917
48	0x3ed9f711	0.4257131
49	0xbe16478e	-0.14675733
50	0x3df2b93d	0.11851738
51	0x3e729c6a	0.2369248
52	0xbe6676b9	-0.22506227
53	0xbe2ed3da	-0.17073002
54	0xbe0de005	-0.13854988
55	0x3e10be5e	0.1413512
56	0x3e5dd995	0.21665032
57	0x3e8b5959	0.27216604
58	0x3e3ffc4d	0.18748589
59	0xbe0e62b1	-0.13904835
60	0xbea9fca7	-0.3320057
61	0x3c7a7007	0.015285498
62	0xbe1727de	-0.14761302
63	0x3ecbd4e0	0.39810848
64	0xbe6fb255	-0.23407872
65	0xbea28afd	-0.31746665
66	0x3dd8b5d4	0.10581556
67	0xbc5237c9	-0.012830683
68	0x3daf8408	0.08570105
69	0xbd91971d	-0.07108901
70	0xbde4880d	-0.11158762
71	0x3d35c985	0.044381637
72	0xbeb181d1	-0.34669355
73	0xbcc91c45	-0.024549613
74	0xbd991a2a	-0.074756935
75	0xbe99256d	-0.29911366
76	0xbe8650b2	-0.2623344
77	0x3d8757b3	0.06608524
78	0xbe58ad4a	-0.21159855
79	0x3d8aade5	0.06771449
80	0x3e6dc79b	0.23220675
81	0x3e7665f0	0.24062324
82	0x3e4d1e9a	0.20031205
83	0x3de067f3	0.10957327
84	0xbdfcaeb6	-0.12338011
85	0xbe1d90e0	-0.15387297
86	0x3e77ad04	0.24187094
87	0xbda1953a	-0.07889791
88	0xbe92b276	-0.2865178
89	0x3e266f21	0.1625333
90	0x3e36dac4	0.1785689
91	0xbe6646c8	-0.22487938
92	0xbd390cb1	-0.04517812
93	0x3e7be7a1	0.24600078
94	0xbcf6fe44	-0.03015054
95	0xbec857d0	-0.39129496
96	0x3ea5c903	0.32379922
97	0x3e309026	0.17242488
98	0xbe4e0ce2	-0.20122102
99	0xbe07b90d	-0.13254185
100	0xbe99b1b0	-0.30018377
101	0x3e59e7db	0.21279852
102	0xbd5e1f29	-0.054228935
103	0x3e67202a	0.22570863
104	0x3b7eeda2	0.0038898964
105	0x3ea08bdc	0.31356704
106	0x3e0644da	0.13112202
107	0xbeb087f8	-0.34478736
108	0x3ed7969e	0.421071
109	0xbdbfae69	-0.09359438
110	0xbe880d5a	-0.26572686
111	0x3e95951c	0.29215324
112	0x3e9e954b	0.30973276
113	0x3b93abb9	0.004506555
114	0x3c557491	0.01302828
115	0xbe9defde	-0.30847067
116	0xbd30459f	-0.043035146
117	0x3e81c216	0.25343388
118	0xbe67e2e3	-0.22645144
119	0xbec2e991	-0.38068822
120	0xbebadde9	-0.3649743
121	0xbe1195d2	-0.14217308
122	0x3e88d0d1	0.26721814
123	0xbe823575	-0.2543141
124	0x3e27372f	0.16329645
125	0xbeaffb38	-0.34371352
126	0x3ab1b0ad	0.0013556682
127	0x3e736e5b	0.23772566
128	0xbe91187b	-0.2833899
129	0x3d610b78	0.054942578
130	0xbc5a951d	-0.013341215
131	0xbccc353a	-0.024927724
132	0xbe90a2ef	-0.28249308
133	0xbe1de64e	-0.15419886
134	0x3e08649d	0.13319631
135	0x3e2dc236	0.16968617
136	0xbe43dd65	-0.19127424
137	0xbe9b87e4	-0.30377114
138	0xbe993e30	-0.29930258
139	0x3d41ce7c	0.04731606
140	0xbd174982	-0.036935337
141	0xbe6064ab	-0.21913402
142	0xbe7aa7b4	-0.24478036
143	0x3e950b07	0.29109976
144	0x3d407992	0.04699094
145	0xbe4fee34	-0.20305711
146	0xbe8e6753	-0.27813205
147	0xbe44a84b	-0.19204824
148	0x3e212fe1	0.1574092
149	0xbe03e3c2	-0.12879851
150	0x3d42e5b4	0.047582343
151	0x3e8fa357	0.28054306
152	0x3e79ef19	0.24407615
153	0xbcf71deb	-0.030165633
154	0x3edcbec5	0.43114296
155	0x3e99d33b	0.3004397
156	0x3e66f1ea	0.2255322
157	0xbe48038a	-0.195326
158	0x3e071f37	0.13195501
159	0xbe80582d	-0.25067273
160	0xbeb8320a	-0.35975677
161	0xbea977b4	-0.3309914
162	0x3c1c6a4b	0.009546827
163	0x3e3f65ff	0.18691252
164	0xbb903e49	-0.004401956
165	0x3e5c7dd2	0.21532372
166	0xbe99f448	-0.30069184
167	0x3d0d83d7	0.03454956
168	0xbdf8e76d	-0.12153516
169	0x38f955eb	0.00011889249
170	0xbe173b07	-0.14768611
171	0x3e65630c	0.22401065
172	0x3e2c8cad	0.16850539
173	0xbeb19cbc	-0.3468989
174	0xbe816668	-0.25273442
175	0x3e260c73	0.16215687
176	0x3e43a96f	0.19107603
177	0x3eb524bf	0.35379598
178	0xbe8193fb	-0.25308213
179	0xbe1db6e9	-0.15401806
180	0x3afb87cf	0.0019190254
181	0xbd87901c	-0.066192836
182	0xbdb41a1a	-0.08794041
183	0xbc35184d	-0.011053157
184	0xbe2d57be	-0.16928002
185	0xbdc5d2fd	-0.096593834
186	0xbd9dfb1a	-0.077139094
187	0xbeb69c85	-0.3566629
188	0x3e99be0b	0.30027804
189	0x3dd0b576	0.10190861
190	0xbdb3ea64	-0.08784941
191	0x3dd664cc	0.10468444
192	0x3e918f2c	0.28429544
193	0xbe8ec67d	-0.2788581
194	0x3ebab87a	0.3646887
195	0x3b8d6acd	0.00431571
196	0xbe4ac09b	-0.19800036
197	0xbbdfb416	-0.006826888
198	0x3d0a5aed	0.03377812
199	0xbe2f4e4a	-0.17119709
200	0xbec31e98	-0.3810928
201	0x3eb892e0	0.36049557
202	0x3ca8ddfd	0.020613665
203	0x3c8cfb11	0.017209562
204	0x3d98916d	0.07449613
205	0x3dedc54a	0.116098955
206	0xbe4bc49c	-0.1989922
207	0x3e8ce593	0.275189
208	0x3c0ade84	0.008475903
209	0xbd94dc59	-0.072685905
210	0xbcef379d	-0.029201323
211	0x3ca7daaf	0.020490019
212	0x3e65f5b1	0.22457005
213	0xbdaf34f7	-0.08555024
214	0xbdd2f31d	-0.103002764
215	0xbea49793	-0.32146892
216	0x3e905259	0.28187826
217	0xbe90e631	-0.28300622
218	0xbc734511	-0.01484801
219	0x3d161a7a	0.036646344
220	0x3e928ae7	0.286216
221	0xbeb59dcc	-0.35471952
222	0x3e537dd1	0.20653464
223	0xbe823842	-0.25433546
224	0xbd85372d	-0.065046646
225	0x3e8f0c06	0.2793886
226	0xbd9eda2f	-0.07756459
227	0xbeb71ebd	-0.3576564
228	0x3e803e88	0.25047708
229	0x3d986796	0.074416324
230	0xbebf8b02	-0.37410742
231	0xbe0df001	-0.13861085
232	0x3e5c44e4	0.21510655
233	0xbe6dcc8f	-0.23222564
234	0xbe7074a3	-0.23481993
235	0xbeb2fdcb	-0.34959254
236	0x3d7754f2	0.060383745
237	0xbc3e5ccb	-0.011618803
238	0xbecca86c	-0.39972246
239	0xbe829a75	-0.25508466
240	0x3e810925	0.2520229
241	0x3dac42b7	0.08411162
242	0x3d2743e1	0.04083622
243	0x3de7f2fc	0.113256425
244	0x3e7ee991	0.24893786
245	0x3cc18b20	0.02362591
246	0xbe67de0f	-0.22643302
247	0x3e8362d7	0.25661346
248	0x3dc68958	0.09694165
249	0x3eb4f211	0.35340932
250	0xbe85cf43	-0.2613469
251	0xbe934509	-0.28763607
252	0xbe9c9f0a	-0.30590087
253	0x3d3cf040	0.046127558
254	0xbe867631	-0.26262048
255	0xbcd2940d	-0.025705362

layers.1.fc_neigh.weight f4 [48, 48]
0	0xbe326718	-0.1742214
1	0x3e9862c2	0.29762846
2	0xbd1340d3	-0.035950493
3	0xbe96bf4e	-0.2944283
4	0xbecb9389	-0.39760998
5	0xbc8fdb63	-0.017560666
6	0x3d4ed06c	0.050491735
7	0x3e47aab5	0.19498713
8	0xbe004e60	-0.12529898
9	0xbe09b1b3	-0.13446693
10	0x3e0074bf	0.12544535
11	0xbe82b656	-0.25529736
12	0xbe6d8e0d	-0.2319872
13	0xbe74c294	-0.2390235
14	0x3eb38c73	0.35068092
15	0x3e2cb0f8	0.16864383
16	0xbc5b8e66	-0.01340065
17	0xbea16ae2	-0.31526858
18	0xbdd61e69	-0.10455019
19	0x3e801f6a	0.25023967
20	0xbdee924e	-0.11648999
21	0x3d8e64ff	0.06952857
22	0x3e7a78f1	0.24460198
23	0xbe4692af	-0.19391893
24	0xbdcba28f	-0.09943115
25	0xbe1ede6c	-0.15514535
26	0xbea81755	-0.328303
27	0xbd2debeb	-0.042461317
28	0xbe676f8a	-0.22601143
29	0xbeb42b9b	-0.35189518
30	0xbde80f58	-0.113310516
31	0xbdb0f14b	-0.08639773
32	0x3e58d322	0.21174291
33	0x3e953b7b	0.29146942
34	0xbd82270b	-0.06355103
35	0xbddafbb6	-0.10692541
36	0xbe8d5d67	-0.27610323
37	0x3d5879bd	0.052850474
38	0xbe1a0781	-0.15041925
39	0xbe833336	-0.25625008
40	0x3e08dab3	0.13364677
41	0xbe8b6b00	-0.27230072
42	0xbeae8ed5	-0.34093347
43	0xbde3054a	-0.11084993
44	0xbe4052da	-0.18781605
45	0xba187a0f	-0.0005816528
46	0xbeb2e22d	-0.34938183
47	0x3b9a90dd	0.004716976
48	0xbe152ad1	-0.14567114
49	0xbbe7b2f9	-0.0070708958
50	0xbe07b3bb	-0.13252155
51	0x3e8002f8	0.25002265
52	0x3e1991e9	0.14997067
53	0xbdbc6998	-0.09199828
54	0xbe2be921	-0.1678815
55	0x3d62012e	0.055176906
56	0xbeaa0f4e	-0.33214802
57	0x3d1da640	0.038488626
58	0xbca52bcd	-0.020162487
59	0x3ddb4272	0.10706033
60	0xbe9e515e	-0.30921453
61	0xbe50bc07	-0.20384227
62	0x3e6f63e5	0.2337795
63	0x3e0947db	0.13406317
64	0xbe18c5e4	-0.1491924
65	0x3e66faa2	0.22556546
66	0xbe9b8c14	-0.3038031
67	0x3e909ca0	0.28244495
68	0xbdcfcbd1	-0.10146297
69	0x3e533f93	0.2062972
70	0x3cb6b7b9	0.022304403
71	0xbe080332	-0.13282469
72	0x3e7e6b93	0.24845724
73	0xbd3f4451	-0.04669601
74	0x3eb79bc7	0.35861036
75	0xbea42792	-0.3206144
76	0xbe0d5aba	-0.1380414
77	0xbe9e8fc8	-0.3096907
78	0x3e4c1e17	0.19933353
79	0x3da51030	0.08059728
80	0xbe78884f	-0.24270748
81	0xbe956ba1	-0.29183677
82	0xbdd064a5	-0.101754464
83	0x3e2d5975	0.16928656
84	0xbe6896e8	-0.22713816
85	0x3e4c9cf0	0.19981742
86	0xbe3d628a	-0.18494621
87	0xbe9e9469	-0.30972603
88	0xbdb094d8	-0.0862214
89	0x3db04713	0.08607306
90	0xbe90260c	-0.28154027
91	0x3e82ebc2	0.25570494
92	0xbe7af1ad	-0.24506254
93	0x3e90cf8e	0.28283352
94	0x3e53c45a	0.20680371
95	0xbea8624c	-0.32887495
96	0xbe5c2bb1	-0.21501042
97	0xbe916d23	-0.28403577
98	0xbdb1c240	-0.08679628
99	0x3d843afa	0.064565614
100	0xbcbefd80	-0.023314238
101	0x3df8e843	0.121536754
102	0x3dd41c37	0.10356944
103	0x3e85e97b	0.26154694
104	0x3e8d1114	0.27552092
105	0xbe72556b	-0.23665397
106	0x3ea3875b	0.31939206
107	0x3d222b59	0.03959212
108	0x3e9a408b	0.30127367
109	0xbddd0089	-0.10791118
110	0x3e6838ce	0.2267792
111	0x3e124ddc	0.14287513
112	0x3e28ffd8	0.16503847
113	0x3e08df9e	0.13366553
114	0xbe98b2ef	-0.29824015
115	0x3e0e2597	0.13881527
116	0x3e2088f9	0.15677251
117	0xbd770a89	-0.06031278
118	0x3e3497b0	0.17635989
119	0x3e61bd9a	0.22044984
120	0x3d8e6bc1	0.06954146
121	0xbe3c2293	-0.18372564
122	0xbd8188f5	-0.063249506
123	0xbe3cab35	-0.18424685
124	0xbd67bfda	-0.05657945
125	0xbeba8199	-0.36427
126	0x3ddaccb0	0.10683572
127	0x3e88e9ff	0.26741025
128	0x3e2bda8a	0.16782585
129	0x3d54ab37	0.051921096
130	0x3ead8cb9	0.33896425
131	0x3e96c284	0.2944528
132	0xbdf3dbc1	-0.11907149
133	0xbea3fa7e	-0.32027048
134	0x3ea8958b	0.32926592
135	0xbe9e071e	-0.30864805
136	0x3e90b07d	0.2825965
137	0xbe504ff8	-0.20343006
138	0x3e395e11	0.1810229
139	0x3e97bf76	0.2963826
140	0xbc39e4bc	-0.011346038
141	0xbe97dad9	-0.29659155
142	0xbeabd65e	-0.33561987
143	0xbe722c75	-0.23649772
144	0xbb6432a0	-0.0034820214
145	0xbe6397ff	-0.2222595
146	0x3e7c0bb0	0.24613833
147	0x3c4f023c	0.01263481
148	0x3e9134b9	0.28360537
149	0xbe8fc35b	-0.28078732
150	0xbe4c5278	-0.19953334
151	0xbdb367c1	-0.08760024
152	0x3ea1fa1a	0.31636125
153	0xbeac4bc7	-0.33651564
154	0x3eb12bee	0.34603828
155	0x3ea1bdcc	0.31590116
156	0x3d7da6d9	0.061926696
157	0x3ec777de	0.3895864
158	0x3e0b5371	0.13606049
159	0x3e7291b0	0.23688388
160	0xbd9abf63	-0.07556035
161	0x3d5da839	0.054115508
162	0x3e590032	0.21191481
163	0xbe5409a9	-0.2070681
164	0xbd84c86b	-0.06483539
165	0xbe352515	-0.17689927
166	0xbd1bead5	-0.03806575
167	0xbc313ddf	-0.010817974
168	0xbdef66c0	-0.1168952
169	0xbd3d9e81	-0.04629374
170	0x3e72e3b5	0.23719676
171	0x3e34ef92	0.17669514
172	0x3e07ec6d	0.13273783
173	0xbe87db35	-0.2653443
174	0x3e7f3abc	0.24924749
175	0x3e9e1094	0.30872023
176	0x3e1dd7e3	0.15414385
177	0xbe88bc3c	-0.2670611
178	0x3ebc943f	0.36831853
179	0x3ea2de2a	0.31810123
180	0xbeafe226	-0.34352225
181	0xbe456de2	-0.19280198
182	0x3dd8af91	0.10580362
183	0xbe44b2da	-0.19208851
184	0x3de918d9	0.113816924
185	0x3e8b6401	0.27224734
186	0x3d963ab3	0.07335415
187	0xbdfafd66	-0.12255363
188	0xbe7cced1	-0.24688269
189	0xbe9845a6	-0.29740638
190	0xbdbd6ced	-0.092492916
191	0xbd0fc6e5	-0.03510179
192	0x3e3a6bc8	0.18205178
193	0xbe645f7e	-0.22302052
194	0xbe5628e9	-0.20914043
195	0x3cdd2861	0.026996793
196	0xbca5466c	-0.020175181
197	0xbd5f04c1	-0.054447893
198	0xbe039c3a	-0.12852564
199	0x3e013a65	0.12619932
200	0xbe6f4e2a	-0.23369661
201	0xbdabfd03	-0.083978675
202	0xbd3bff7d	-0.04589795
203	0xbd5af735	-0.05345841
204	0xbdfbac90	-0.12288773
205	0xbe7aab34	-0.24479371
206	0x3e952fe5	0.29138103
207	0xbe415639	-0.18880548
208	0xbe5c6a83	-0.21525006
209	0x3e2c0ae5	0.16801031
210	0x3e2f1838	0.17099082
211	0xbe58c6e5	-0.21169622
212	0x3e915a86	0.28389376
213	0x3e6c4fa4	0.23077255
214	0x3eb0246d	0.3440279
215	0x3c4c73e8	0.012478806
216	0xbe500c8e	-0.20317289
217	0x3e901884	0.28143704
218	0x3e0becae	0.13664505
219	0xbe0696da	-0.13143483
220	0xbe057a9c	-0.13035053
221	0xbd42891a	-0.04749403
222	0x3d767dd2	0.060178585
223	0x3db72e87	0.08944421
224	0xbe7502bd	-0.23926826
225	0x3c91060f	0.017703084
226	0x3e76540f	0.24055503
227	0xbdfac4b0	-0.122445464
228	0xbe832cb7	-0.25620052
229	0x3e629ff2	0.22131327
230	0xbea44807	-0.32086203
231	0xbe60f85a	-0.21969739
232	0xbd14249d	-0.03616773
233	0x3d0ec8af	0.034859356
234	0xbd5074da	-0.05089269
235	0xbea5ade0	-0.3235922
236	0xbe981cae	-0.2970938
237	0xbe59d009	-0.21270765
238	0x3e9276f5	0.28606382
239	0xbe9a18f8	-0.30097175
240	0x3dd574d4	0.10422674
241	0xbea2de48	-0.31810212
242	0xbeb77e0e	-0.3583836
243	0x3e496e5b	0.19671004
244	0xbdcbb03e	-0.09945725
245	0x3e114ea8	0.14190161
246	0x3e356997	0.1771606
247	0x3c40bf56	0.011764368
248	0x3e0cf8e7	0.13766824
249	0xbea60b3b	-0.32430443
250	0xbe5d2b8f	-0.21598648
251	0x3e952b30	0.29134512
252	0xbe113bc0	-0.14182949
253	0x3ea09a47	0.31367704
254	0xbdab4bd2	-0.08364071
255	0x3d83dcf6	0.06438629

fc1.weight f4 [10, 48]
0	0xbd3aed29	-0.04563633
1	0xbe04f740	-0.12984943
2	0xbd334cb4	-0.04377432
3	0xbdcf9e63	-0.10137632
4	0x3d5b046d	0.053471018
5	0x3e01cc4a	0.12675586
6	0xbc71e351	-0.014763669
7	0xbdede4ee	-0.116159305
8	0x3cf9ced2	0.030494127
9	0x3d8adc18	0.06780261
10	0xbc5e327f	-0.013561844
11	0xbe12cb2d	-0.14335318
12	0x3ccda359	0.025102304
13	0x3de2803d	0.11059616
14	0x3b592c92	0.0033138138
15	0x3e11e4d5	0.14247449
16	0x3dd4a60a	0.10383232
17	0x3d826630	0.06367147
18	0x3e006137	0.12537085
19	0xbd39156c	-0.045186445
20	0xbdceda8f	-0.101002805
21	0x3d55fc4d	0.052242566
22	0x3e5c5d09	0.21519865
23	0xbca5f7a7	-0.020259691
24	0x3e31ce9c	0.17363971
25	0x3df0f76c	0.11765942
26	0xbcb3478f	-0.021884708
27	0x3e063409	0.13105787
28	0x3e00916f	0.12555479
29	0xbe17c920	-0.14822817
30	0x3e38a821	0.18032886
31	0x3e19ab9f	0.15006875
32	0x3d9ae9ea	0.07564147
33	0xbe287348	-0.16450226
34	0x3cae5bbc	0.021283977
35	0xbd7cbf67	-0.061705973
36	0xbdfe33c5	-0.12412218
37	0x3d081180	0.033219814
38	0xbc419783	-0.011815908
39	0x3db68f91	0.08914102
40	0xbdc01c4c	-0.09380397
41	0x3e1d8c9b	0.15385668
42	0xbc65f40f	-0.014035239
43	0xbda2e37b	-0.07953545
44	0x3cff19c2	0.031140212
45	0xbd8f9740	-0.070112705
46	0x3dddd63c	0.108318776
47	0xbd294d91	-0.04133374
48	0xbdf96169	-0.12176783
49	0x3d265b14	0.040614203
50	0x3dc109fd	0.09425733
51	0xbe414f88	-0.18877995
52	0xbda1a791	-0.07893289
53	0x3d983b91	0.074332364
54	0x3bcfbb30	0.006339453
55	0x3d9fa6dc	0.07795498
56	0xbdbbce33	-0.09170189
57	0x3d3e75fe	0.046499245
58	0xbdadf3c0	-0.08493757
59	0xbde3ec52	-0.11129059
60	0xbd38ac24	-0.04508604
61	0xbe29d332	-0.16584471
62	0xbc3be56d	-0.011468274
63	0xbe33fbe0	-0.17576551
64	0xbd713c5c	-0.058895454
65	0x3cb4b213	0.022057569
66	0x3da272f6	0.07932083
67	0xbc46dffc	-0.012138363
68	0x3d6e2d6a	0.05814878
69	0xbcf98c79	-0.03046249
70	0x3df2ad36	0.118494436
71	0xbd5fa9f5	-0.054605443
72	0x3cf08924	0.029362269
73	0xbd135824	-0.03597273
74	0xbdeba3dd	-0.11505864
75	0x3da30417	0.079597645
76	0xbe164f47	-0.1467868
77	0xbd666e1b	-0.05625735
78	0x3b80d345	0.0039314353
79	0xbda69a54	-0.081349045
80	0xbd8050e6	-0.0626543
81	0x3df6b535	0.12046281
82	0xbdb58b4b	-0.08864459
83	0x3d98407f	0.07434177
84	0xbce3818c	-0.027771734
85	0x3be9474f	0.0071190963
86	0xbc79aa2a	-0.015238324
87	0x3e09ace2	0.13444856
88	0xbe2e403b	-0.1701669
89	0xbc2d8193	-0.010589975
90	0xbbc40c33	-0.0059828996
91	0x3e394bca	0.18095317
92	0x3abb31bb	0.0014281789
93	0x3e0984ba	0.13429537
94	0x3d940622	0.07227732
95	0xbe1b405b	-0.15161268
96	0xbd1db985	-0.038507003
97	0x3c6f7e7f	0.014617561
98	0x3de5b421	0.112159975
99	0x3e2e6444	0.17030436
100	0xbc2e08f3	-0.010622251
101	0xbe1bbc3a	-0.15208521
102	0x3e101cfb	0.14073555
103	0x3de83261	0.11337734
104	0xbd85468a	-0.06507595
105	0xbc851727	-0.016246391
106	0x3e067057	0.13128792
107	0x3d05c580	0.032659054
108	0x3e02beb0	0.12768054
109	0x3b9d95bd	0.00480911
110	0xbe2d09d3	-0.16898279
111	0x3e418e8f	0.18902038
112	0x3dd7e226	0.10541181
113	0xbca6b3e1	-0.020349445
114	0xbd3e2e58	-0.046430916
115	0xbd4d3a3d	-0.05010437
116	0xbd6a55a7	-0.05721059
117	0x3dec2d98	0.11532134
118	0x3cb1093f	0.021610854
119	0xbd935ed2	-0.0719582
120	0x3deefeba	0.11669679
121	0x3de99d4b	0.114069544
122	0xbcd7cfdc	-0.026344232
123	0x3c9ac32a	0.01889189
124	0x3dd2e90c	0.102983564
125	0xbd53c502	-0.051701553
126	0xbe0836aa	-0.13302103
127	0xbdb0fdee	-0.08642183
128	0xbd7757a7	-0.060386326
129	0xbdd001cd	-0.101565935
130	0xbe22bed0	-0.15893102
131	0x3db9d330	0.09073484
132	0xbb481ea1	-0.0030535834
133	0x3c491dee	0.012275202
134	0x3d7ae41d	0.061252702
135	0xbdb733aa	-0.08945401
136	0xbd001e77	-0.031279054
137	0x3d7174f9	0.058949444
138	0xbd6606b2	-0.05615873
139	0xbd9c2f38	-0.07626194
140	0x3da91fcd	0.08258019
141	0x3d8e6837	0.06953471
142	0xbdf41ccd	-0.11919556
143	0xbe3e5a17	-0.18589054
144	0xbd613648	-0.054983407
145	0xbdf57e45	-0.119869746
146	0x3c38b34d	0.011273217
147	0x3dcc31b0	0.09970415
148	0xbe25251c	-0.16127437
149	0x3c86c976	0.016453486
150	0x3c57e88c	0.013178002
151	0xbbf829ea	-0.007573356
152	0x3bc7e41d	0.0061001913
153	0xbe06b0ad	-0.13153334
154	0xbcd836d6	-0.026393335
155	0x3dfab820	0.1224215
156	0xbdbfa25b	-0.09357139
157	0xbd794fee	-0.060867243
158	0x3cfdd2bf	0.03098428
159	0x3e00a0ba	0.12561312
160	0xbe092f4b	-0.13396947
161	0x3d93d5f7	0.07218545
162	0xbde2b690	-0.11069977
163	0x3d6bd133	0.057572555
164	0xbd7b0759	-0.061286304
165	0xbd4efca6	-0.050533913
166	0xbe350f94	-0.17681724
167	0xbdf36ffc	-0.11886594
168	0xbaebb947	-0.0017984294
169	0x3e2df9f5	0.16989882
170	0x3e276312	0.16346386
171	0xbd7844ca	-0.060612477
172	0xbda371ec	-0.07980713
173	0x3dc2755a	0.09495039
174	0x3d87fa92	0.06639589
175	0x3dd4a6b6	0.1038336
176	0x3e1849b4	0.14871866
177	0x3c8fac1d	0.017538125
178	0xbe42a4a7	-0.19008122
179	0xbce9212e	-0.028458204
180	0xbd5f41c2	-0.05450607
181	0xbdb8e244	-0.09027532
182	0xbde4bc77	-0.11168759
183	0x3dd1619d	0.102236964
184	0x3dbacef5	0.09121505
185	0xbd8057a2	-0.06266715
186	0xbd86b9e2	-0.06578423
187	0xbdede37a	-0.11615653
188	0xbe05b56e	-0.13057491
189	0xbd466c2f	-0.048443016
190	0xbdd44487	-0.10364633
191	0x3e0d9216	0.13825259
192	0x3e0f11e8	0.13971674
193	0xbe2444e2	-0.16041902
194	0x3dc39fb8	0.09551948
195	0x3db772e1	0.08957458
196	0xbdc5c83b	-0.096573316
197	0xbbe69e8e	-0.007037944
198	0x3de7468d	0.11292753
199	0xbde1ab67	-0.110190205
200	0x3e2ccfcd	0.16876145
201	0x3d171dd8	0.036893696
202	0x3e05d6bb	0.13070194
203	0xbd724d04	-0.05915548
204	0x3d5dcd56	0.0541509
205	0xbdd2edd5	-0.10299269
206	0x3e3428ee	0.17593738
207	0xbe095170	-0.13409972
208	0xbdfacb12	-0.12245764
209	0xb903cfd8	-0.00012570561
210	0x3c9d87ab	0.01922973
211	0x3d9066ac	0.07050833
212	0xbdc80a99	-0.09767646
213	0xbcf6461d	-0.03006273
214	0xbd6b9b7f	-0.05752134
215	0xbcc09fe3	-0.02351374
216	0x3d9eb65d	0.07749627
217	0xbd3e7c65	-0.04650535
218	0xbd718626	-0.058965825
219	0x3d591c6e	0.05300563
220	0x3d85f3f8	0.06540674
221	0x3d847bfd	0.064689614
222	0x3dc16d03	0.094446205
223	0x3d96f131	0.07370222
224	0xbe1ba39e	-0.15199134
225	0x3c39ee19	0.011348271
226	0x3bdf23c6	0.0068096844
227	0xbdac76a7	-0.08421069
228	0x3d10917c	0.035294995
229	0x3e02cec0	0.12774181
230	0x3e0b36db	0.13595144
231	0xbddd381b	-0.10801717
232	0x3dfd2d73	0.123621844
233	0x3d223038	0.039596766
234	0x3e4df949	0.20114626
235	0x3e28aacd	0.16471405
236	0xbca17f0d	-0.019713903
237	0x3bf362a1	0.007427529
238	0x3c41a39d	0.011818794
239	0xbdc03fe3	-0.093871854
240	0x3ddaab58	0.106772125
241	0xbe09452b	-0.13405292
242	0xbe20a63c	-0.15688413
243	0x3dca3582	0.09873487
244	0x3dc89d93	0.0979568
245	0x3d8636ce	0.06553422
246	0xbe084b90	-0.13310075
247	0x3e385318	0.18000448
248	0x3d806c75	0.062706865
249	0x3d162063	0.03665198
250	0xbdfae038	-0.122497976
251	0x3df74e10	0.12075436
252	0x3e2b28da	0.16714802
253	0x3dfac61b	0.12244817
254	0xbd5c81a5	-0.053834576
255	0xbde0ed99	-0.10982818

fc1.bias f4 [10]
0	0xbd39fbf6	-0.045406304
1	0x3d5e06c1	0.05420566
2	0xbe10057d	-0.14064594
3	0xbd9df66f	-0.07713019
4	0x3e214fb1	0.15753056
5	0x3d88ef38	0.06686252
6	0xbe15a0c0	-0.14612103
7	0xbe07c61e	-0.1325917
8	0x3e029fde	0.12756297
9	0x3d2cdc2d	0.042202163
