models/cora_map.pt (torch, 576011 bytes, 8 tensors)

layers.0.bias f4 [48]
0	0x3d102728	0.035193592
1	0xbd1b2299	-0.03787479
2	0xbc46822f	-0.012115999
3	0xbd09b8ee	-0.03362363
4	0x3d2ea0c3	0.042633783
5	0x3b8473ae	0.0040421104
6	0xba398ae6	-0.00070778874
7	0xbc194626	-0.009355104
8	0xbd036119	-0.03207502
9	0x3c8761c8	0.016526118
10	0x3c906d26	0.017630171
11	0x3cbfcb76	0.023412447
12	0x3cf9450b	0.03042843
13	0xbd0f171a	-0.03493414
14	0x3cebeaa5	0.02879841
15	0xbd0b5aea	-0.03402225
16	0xbb133b65	-0.0022465822
17	0xbbc95760	-0.006144449
18	0xbcec205b	-0.028824022
19	0x3c8f2938	0.01747571
20	0xbc5f6654	-0.013635237
21	0x3b7c3f39	0.0038489832
22	0x3d30426c	0.043032095
23	0x399b96bd	0.00029676213
24	0x3c019a9e	0.007910399
25	0x3d10dcd0	0.035366833
26	0x3c004685	0.007829313
27	0x3c433096	0.011913439
28	0x3bfa7be4	0.0076441634
29	0xbd49f1ce	-0.04930287
30	0x3d35fde9	0.0444316
31	0x3b1c1345	0.0023815196
32	0xbcf49125	-0.029854367
33	0x3bf526ec	0.0074814465
34	0xbd1bb557	-0.038014736
35	0x3d0c338d	0.03422885
36	0x3b5bc6f4	0.0033535333
37	0x3c404bb9	0.011736804
38	0x3cd7386d	0.026272023
39	0xbc9594bf	-0.018259404
40	0xbc29cdf7	-0.010364047
41	0xbd538bd1	-0.05164701
42	0x3d0632dc	0.032763347
43	0xbc7194e7	-0.014744974
44	0x3c89dce2	0.016828958
45	0x3c668602	0.014070036
46	0xbc3532fb	-0.011059518
47	0x3d2fe7f4	0.042945817

layers.0.fc_self.weight f4 [48, 1440]
0	0x3ca0b1c4	0.019616015
1	0xbd772e51	-0.060346905
2	0x3a72cebb	0.00092623726
3	0x3d648c92	0.05579812
4	0xbc9bba22	-0.019009653
5	0xbc1e8c06	-0.009676939
6	0x3c252990	0.01008071
7	0xbc2b73c6	-0.010464614
8	0x3cace115	0.021103421
9	0xbda28f99	-0.07937545
10	0x3d96dae1	0.073659666
11	0xbdc2ad31	-0.0950569
12	0x3873bd52	5.8112033e-05
13	0x3c0b6626	0.008508241
14	0xbccbad1a	-0.024862815
15	0xbd17b5da	-0.03703866
16	0x3c9f70bb	0.019462934
17	0x3da9b9e9	0.08287413
18	0x3d80634e	0.06268941
19	0x3cd408ef	0.025883166
20	0xbc89abe1	-0.016805591
21	0xbdc730ab	-0.097260796
22	0x3d1bf711	0.038077418
23	0x3d07f3e7	0.033191588
24	0x3cca6a48	0.024708882
25	0x3db556d4	0.08854452
26	0xbcb12fcf	-0.021629242
27	0x3c78b8db	0.015180792
28	0x3d826d63	0.0636852
29	0xbd229984	-0.039697185
30	0xbd33fd75	-0.043942887
31	0xbd3c2ff3	-0.045944165
32	0xbd058d9c	-0.032605752
33	0x3b2c2e40	0.0026272684
34	0x3d14d162	0.036332496
35	0x3d697d5f	0.05700433
36	0x3db37636	0.08762781
37	0x3ba82339	0.005131152
38	0xbcc360d2	-0.023849878
39	0x3db4f534	0.08835831
40	0x3b6cf43c	0.0036156317
41	0xbe124353	-0.14283495
42	0x3dd16c1f	0.102257006
43	0xbd4a2f82	-0.049361713
44	0xbd1d61fa	-0.038423516
45	0xbb3da4f0	-0.0028937422
46	0xbc3cf931	-0.011534021
47	0xbd68915f	-0.05677926
48	0xbca6b9f2	-0.020352338
49	0x3cb8b16e	0.022545543
50	0x3db582ed	0.08862863
51	0xbd0cec01	-0.03440476
52	0x3d8a492a	0.06752236
53	0x3d5dc534	0.054143146
54	0xbd8956b9	-0.06705994
55	0x3d6afd80	0.057370663
56	0x3d4f7e00	0.050657272
57	0xbd3de6a3	-0.04636253
58	0xbd18f6d0	-0.037344754
59	0x3d6a6185	0.057221908
60	0x3d2c456e	0.0420584
61	0x3d7af63e	0.06126999
62	0x3d81724c	0.063206285
63	0xbdafa2e5	-0.085759915
64	0x3c5267db	0.012842144
65	0x3c8801f7	0.0166025
66	0xbdc4a721	-0.0960219
67	0xbcd0373a	-0.02541696
68	0x3d138b9d	0.036021817
69	0xbd3fd7b7	-0.04683658
70	0x3c827a12	0.015927348
71	0xbc32666b	-0.010888676
72	0x3dc29583	0.09501173
73	0x3c9cccf6	0.019140702
74	0x3d4e4353	0.050357174
75	0x3db6be88	0.0892306
76	0x3d089ddf	0.033353683
77	0x3d80ee55	0.06295458
78	0x3d043631	0.032278243
79	0x3d512dc2	0.05106903
80	0xbd93cb89	-0.072165556
81	0x3d88c0e0	0.06677413
82	0x3c3d468c	0.011552464
83	0xbda5d999	-0.08098144
84	0x3d9ce7cd	0.076614
85	0x3c4935fc	0.012280937
86	0xbd6f0272	-0.05835194
87	0x3c3d8413	0.0115671335
88	0x3d8c67f5	0.06855766
89	0xbd7f2c9e	-0.06229841
90	0xbd4c6bb2	-0.049907394
91	0xbd3b0544	-0.04565932
92	0x3d245245	0.04011752
93	0xbcf8cb06	-0.030370247
94	0xbc8e311d	-0.017357403
95	0x3da8d27d	0.082432725
96	0x3c958ce5	0.01825566
97	0x3d74f705	0.05980589
98	0xbdb30835	-0.087418
99	0xbe050ce3	-0.12993197
100	0x3d7c1897	0.06154689
101	0x3dca83af	0.09888398
102	0x3d9566dc	0.072950095
103	0x3c4c771a	0.012479568
104	0xbdcfef20	-0.10153031
105	0x3c2a6324	0.0103996135
106	0x3d1016ec	0.03517811
107	0x3d792519	0.060826395
108	0xbd0d619e	-0.034516923
109	0x3d895c4b	0.067070566
110	0x3d8a6952	0.067583695
111	0x3b8308fe	0.0039988747
112	0x3db89b01	0.0901394
113	0x3cdaddfa	0.026717175
114	0x3ca121ee	0.0196695
115	0xbd929cba	-0.071587995
116	0xbd636547	-0.055516507
117	0x3d6f41db	0.058412414
118	0x3cd84d98	0.026404187
119	0x3bba3710	0.0056828335
120	0xbce32096	-0.0277255
121	0xbd0c89d2	-0.034311123
122	0x3dcdebc1	0.10054732
123	0xbd68c59a	-0.056829073
124	0xbd55874e	-0.05213099
125	0x3d91d8b4	0.07121411
126	0xbc6026d4	-0.013681132
127	0x3da2560c	0.079265684
128	0x3d359bae	0.04433792
129	0x3da8a2e1	0.08234192
130	0x3d0b1472	0.033955045
131	0x3d80ee87	0.062954955
132	0xbc33be8d	-0.010970724
133	0xbdb9f174	-0.09079257
134	0xbd8c5d31	-0.06853712
135	0xbb0acaee	-0.0021178084
136	0x3dbd24bf	0.092355244
137	0x3c4441cb	0.011978577
138	0x3d790d2c	0.060803577
139	0x3db4646a	0.08808215
140	0x3a441a9b	0.0007480771
141	0xbd8ce289	-0.06879146
142	0x3d366c38	0.0445368
143	0x3cb0df87	0.021590961
144	0xbd9686c8	-0.07349926
145	0x3d5835e0	0.052785754
146	0x3c4acee9	0.012378433
147	0x3d23cdd8	0.03999123
148	0x3d9bcc14	0.07607284
149	0xbd9088e1	-0.070573576
150	0x3b85303e	0.004064589
151	0xbb28afe0	-0.0025739595
152	0x3ca465eb	0.02006813
153	0x3b255344	0.0025226632
154	0x3bae181c	0.0053129327
155	0xbd3043dc	-0.043033466
156	0xbbf04cc7	-0.0073333713
157	0xbd3d5f7a	-0.04623363
158	0x3dc94a5d	0.09828637
159	0x3db6394b	0.088976465
160	0xbd3b839d	-0.045779813
161	0xbc9141cb	-0.017731568
162	0x3e110fdf	0.1416621
163	0xbbacbd43	-0.005271585
164	0xbdaf7bfa	-0.085685685
165	0xbba37c4f	-0.004989184
166	0xbd3da0a6	-0.046295784
167	0xbda61ab6	-0.081105635
168	0xbd2992b5	-0.041399676
169	0xbda50089	-0.08056743
170	0xbd81c7df	-0.063369505
171	0x3c92eb4c	0.017934464
172	0x3d954d76	0.07290165
173	0x3d0f00a6	0.034912728
174	0xbd58fbae	-0.052974395
175	0x3d1f06b9	0.03882477
176	0xbd46764e	-0.048452668
177	0xbd8dab52	-0.069174424
178	0x3ce5d348	0.028054848
179	0x3d4a2b13	0.049357485
180	0xbdab91d9	-0.083774276
181	0xbd9e7374	-0.07736865
182	0x3cf8620d	0.030320192
183	0x3dd46e78	0.10372633
184	0xbc8afb64	-0.016965576
185	0x3da54b1b	0.08070966
186	0xbd9eb8b0	-0.0775007
187	0xbd9b6cbe	-0.075891
188	0xbd34899a	-0.04407654
189	0xbd47e841	-0.04880548
190	0xbdb21138	-0.086946905
191	0xbcd0b256	-0.025475662
192	0xbd187847	-0.03722408
193	0x3d8ecf85	0.06973175
194	0x3d9b2c53	0.075768135
195	0xbd6d5995	-0.05794676
196	0x3d060fe9	0.032730017
197	0xbcec2cb7	-0.028829915
198	0xbc309748	-0.010778256
199	0xbd1cb38d	-0.03825717
200	0x3cd0ca4a	0.025487084
201	0x3d9b4528	0.0758155
202	0xbc401372	-0.011723386
203	0x3dbb4189	0.09143359
204	0xbd0791de	-0.033098094
205	0xbdb79eed	-0.089658596
206	0xbb98e15d	-0.0046655373
207	0x3cb733a8	0.022363499
208	0x3c1d0f09	0.009586104
209	0xbd8b5373	-0.06803026
210	0xbe05a1f3	-0.1305006
211	0xbbdc22c9	-0.006718014
212	0x3cd667ef	0.026172606
213	0xbd2db144	-0.04240538
214	0x3dbc571f	0.091963045
215	0x3ca7942f	0.020456402
216	0x3d02c91b	0.03193007
217	0xbc989c65	-0.018629262
218	0x3d6e1fd3	0.05813582
219	0x3c0b9188	0.008518584
220	0x3d249b8b	0.0401874
221	0xbd7ac43b	-0.061222296
222	0x3c8fba84	0.017544992
223	0xbd51e91c	-0.0512477
224	0x3d80253e	0.062571034
225	0x3d8be094	0.06829944
226	0xbcd83e2f	-0.026396839
227	0xbd0eb0b1	-0.034836475
228	0xbcb611a1	-0.022225203
229	0x3d823a4a	0.06358774
230	0x3da170ce	0.07882844
231	0xbc0c711c	-0.008571889
232	0xbd927838	-0.07151836
233	0xbd43909d	-0.047745336
234	0xbcc51e78	-0.02406238
235	0x3d7d3d6d	0.06182616
236	0xbcb56dfa	-0.022147167
237	0x3d1a4688	0.03766492
238	0x3d14b4d0	0.03630525
239	0xbc88c40b	-0.016695043
240	0xbce54601	-0.027987482
241	0xbdbdf5c5	-0.092753924
242	0xbccf38b1	-0.025295587
243	0xbd5f473b	-0.05451129
244	0x3c6f0ffc	0.014591213
245	0xbcdf316e	-0.02724525
246	0xbd716a46	-0.05893924
247	0x3c83226a	0.01600762
248	0x3c5c9722	0.013463767
249	0xbd06af29	-0.03288189
250	0xbd39c344	-0.045352235
251	0xbd9a3717	-0.07530039
252	0xbd8da25f	-0.069157355
253	0xbdaa324b	-0.08310374
254	0x3d8c5154	0.068514496
255	0x3d77f90e	0.06054025

layers.0.fc_neigh.weight f4 [48, 1440]
0	0xbce96278	-0.028489336
1	0xbd2ddbd6	-0.04244598
2	0x3d8ae505	0.06781963
3	0xbce8bb01	-0.028409483
4	0x3d392303	0.045199405
5	0x3ce305b9	0.02771269
6	0xbd349985	-0.04409172
7	0xbdc62fdc	-0.09677097
8	0x3d4c7c07	0.04992297
9	0xbd17f845	-0.037102003
10	0xbd57ec74	-0.052715734
11	0x3c69c09e	0.014267115
12	0xbd19dfb5	-0.03756686
13	0x3d829f05	0.06377987
14	0x3d075124	0.033036366
15	0x3c97a9a5	0.01851351
16	0xbce8edc9	-0.028433697
17	0xbd84612d	-0.06463847
18	0x3b33a5ad	0.0027411983
19	0x3d3a9440	0.04555154
20	0x3daf367a	0.085553125
21	0x3d00f5f2	0.03148455
22	0x3d8f5e11	0.070003636
23	0x3d6ba12b	0.05752675
24	0x3b1d8780	0.0024037063
25	0xbc7641eb	-0.0150303645
26	0xbd371a84	-0.04470302
27	0xbd80c572	-0.0628766
28	0x3c310e2e	0.010806603
29	0x3ce07cd6	0.027403276
30	0x3d7e85dd	0.06213938
31	0xbdaabd76	-0.08336918
32	0xbcca15b8	-0.02466856
33	0xbd45f2a0	-0.04832709
34	0x3d975446	0.07389121
35	0x3d29b274	0.04142995
36	0xbd445a79	-0.047937844
37	0x3dbed6cd	0.09318314
38	0xbd83d8e6	-0.064378545
39	0xbb7d0245	-0.003860609
40	0x3d47c5be	0.048772566
41	0xbd8a0135	-0.067385115
42	0x3db253e6	0.087074086
43	0xbd4ed4d2	-0.05049593
44	0x3cfffb2f	0.031247703
45	0xbb192eee	-0.002337392
46	0x3da067f3	0.07832327
47	0x3d6e6622	0.05820287
48	0xbd0b8c50	-0.03406936
49	0xbdeae6d8	-0.11469811
50	0x3da6416a	0.081179455
51	0xbd12c8c2	-0.03583599
52	0xbd897880	-0.06712437
53	0x3d9963de	0.07489751
54	0x3bd06efd	0.006360887
55	0xbd8d3877	-0.068955354
56	0xbd8d3f25	-0.068968095
57	0x3cc2bd4c	0.023771904
58	0xbd3d8989	-0.046273742
59	0xbc0c17a8	-0.008550562
60	0xbdf81bce	-0.12114678
61	0x3db15f3b	0.08660742
62	0x3baf6862	0.0053530196
63	0xbd3ac9de	-0.04560267
64	0xbdc068dd	-0.09395001
65	0xbdc312f0	-0.095250964
66	0xbdc1c44d	-0.094612695
67	0xbb8f74b8	-0.0043779276
68	0xbc670117	-0.014099381
69	0xbd178262	-0.036989577
70	0x3d60b810	0.054863036
71	0x3d855d41	0.065119274
72	0xbceb23f7	-0.028703673
73	0xbc016a14	-0.007898826
74	0xbc296c99	-0.010340833
75	0x3dd5d736	0.10441439
76	0x3d5a9423	0.05336393
77	0x3d21911b	0.039445024
78	0xbd5452b2	-0.051836677
79	0x3bb71548	0.0055872537
80	0xb97b6c75	-0.00023977629
81	0xbd489a0e	-0.048975043
82	0xbc1778c9	-0.009245106
83	0xbd966bc3	-0.07344773
84	0x3ceba28b	0.02876403
85	0x3d236eba	0.03990052
86	0x3d8683c6	0.065681025
87	0x3d5dd295	0.054155905
88	0xbd86d7e5	-0.06584147
89	0xbc4d488b	-0.012529503
90	0xba8fcdc6	-0.001097136
91	0xbd9a13c0	-0.07523298
92	0x3c1b622a	0.009483853
93	0xbd8fdc48	-0.07024437
94	0x3d38970c	0.045065925
95	0xbc2e42b7	-0.010636023
96	0x3bbeb1bf	0.005819529
97	0x3c410eaa	0.011783281
98	0x3c151213	0.0090985475
99	0x3d24088c	0.040047213
100	0x3caa6fcc	0.020805262
101	0x3dd31a96	0.10307805
102	0xbd872111	-0.06598104
103	0xbd8c2a70	-0.06844032
104	0xbb836086	-0.004009309
105	0x3db58ea8	0.088651
106	0xbda38503	-0.07984354
107	0xbdcb8165	-0.099367894
108	0xbd4fc830	-0.050728023
109	0x3bf3bbb4	0.0074381474
110	0x3d89f9ce	0.067370996
111	0xbc22ad6e	-0.009929044
112	0x3d653fc1	0.055969004
113	0x3d9862d3	0.07440724
114	0x3a618d8a	0.000860416
115	0x3d86ba71	0.065785296
116	0x3cc2c5ac	0.023775898
117	0xbd7640cf	-0.0601204
118	0xbd00df29	-0.031462822
119	0xbd82bf63	-0.0638416
120	0x3cc6757f	0.024225948
121	0x3d99246d	0.07477651
122	0x3d995b43	0.0748811
123	0xbd0e5410	-0.034748137
124	0xbd91af48	-0.0711351
125	0x3d8fa499	0.070138164
126	0x3dba8fb3	0.0910944
127	0x3ccb7f53	0.024840986
128	0x3d957c3c	0.072990865
129	0x3dbd58e5	0.09245471
130	0xbcd5aa09	-0.026082056
131	0xbcd7bb7a	-0.026334513
132	0xbc8125ef	-0.015765158
133	0xbd33f51e	-0.043934934
134	0xbd11f35b	-0.035632472
135	0xbd4da85c	-0.050209388
136	0x3d094c5c	0.033520088
137	0x3d561619	0.052267168
138	0xbc3ffb6c	-0.0117176585
139	0xbd8befbb	-0.06832834
140	0xbcdbb1ec	-0.026818238
141	0x3cc96664	0.024584956
142	0x3c8cd1d8	0.017189905
143	0x3b58fbd5	0.0033109088
144	0xbd69e864	-0.05710639
145	0xbd103a0d	-0.03521161
146	0x3d18d6fc	0.0373144
147	0xbdc914bc	-0.09818408
148	0x3d1336c2	0.035940893
149	0x3d97a710	0.074049115
150	0xbd906f3d	-0.07052467
151	0x3dd8113f	0.105501644
152	0xbd65f1d7	-0.05613884
153	0x3d8a4ded	0.067531444
154	0x3d9334db	0.07187816
155	0x3cef4696	0.029208463
156	0xbd535f79	-0.05160472
157	0x3c1b83a9	0.009491839
158	0x3e01fb49	0.12693514
159	0x3d6118a6	0.054955147
160	0x3d60b4d8	0.054859966
161	0xbd084cb3	-0.03327627
162	0xbd2198b6	-0.039452277
163	0x3c822529	0.01588686
164	0xbd36b824	-0.044609204
165	0x3d3f7560	0.046742797
166	0x3cfc0e55	0.030768553
167	0x3cb6ecac	0.02232965
168	0xbc101307	-0.008793599
169	0xbd0364ff	-0.03207874
170	0x3cd0e487	0.025499595
171	0x3d08bb22	0.03338159
172	0x3dc83667	0.097760014
173	0x3ce5fa87	0.028073562
174	0x3d8ce38d	0.06879339
175	0x3d8061a9	0.06268627
176	0xbcedea64	-0.02904243
177	0x3d695965	0.05697002
178	0xbdb22223	-0.08697917
179	0xbd9ad6bb	-0.07560488
180	0x3c40bbbd	0.01176351
181	0xbc595e58	-0.013267122
182	0xbcd61ba0	-0.02613622
183	0xbd49b5b7	-0.049245562
184	0xbcf31fcc	-0.029678248
185	0x3de70945	0.11281065
186	0xbd9a9833	-0.07548561
187	0xbdc0c0d7	-0.09411781
188	0x3c28ae58	0.010295473
189	0x3a70fb00	0.00091926754
190	0x3d803011	0.06259168
191	0x3b3ad4b8	0.0028508138
192	0xbd886603	-0.06660082
193	0x3d87a328	0.066229165
194	0x3c556f8a	0.013027081
195	0xbcebad66	-0.028769206
196	0xbda0a738	-0.078443944
197	0xbd4ec3e1	-0.050479773
198	0x3d787a78	0.06066367
199	0xbbff1ff0	-0.0077857897
200	0x3d64e40f	0.055881556
201	0xbd507537	-0.050893035
202	0xbc8c8b96	-0.017156404
203	0x3cdaa9cc	0.026692294
204	0x3c39a95f	0.011331885
205	0xbdae6777	-0.08515828
206	0xbd3c7696	-0.04601153
207	0x3c60b2ea	0.013714531
208	0xbb8c4ad0	-0.0042813793
209	0x3d9d0699	0.07667274
210	0x3d73081f	0.059333917
211	0x3d44affa	0.048019387
212	0xbb1e2d0d	-0.002413574
213	0xbc69c765	-0.014268731
214	0x3da63000	0.08114624
215	0x3dae81a2	0.08520819
216	0x3cf75282	0.03019071
217	0x3b17d897	0.002316987
218	0xbd4861f2	-0.048921533
219	0x3c9d527a	0.019204367
220	0x3d65c1e8	0.056093127
221	0xbc677887	-0.014127857
222	0xbbea9e6e	-0.0071599996
223	0xbcf269ca	-0.02959146
224	0x3d367a30	0.04455012
225	0xbd53f2e5	-0.051745314
226	0x3d6e6af5	0.05820747
227	0xbc51ffeb	-0.012817363
228	0x3d7e5fb1	0.062102977
229	0xbc50c90c	-0.012743246
230	0x3d86c9f1	0.06581486
231	0xbd93d2fe	-0.07217978
232	0x3c9d723e	0.019219514
233	0xbd0ebceb	-0.034848135
234	0xbdd8448c	-0.10559949
235	0x3d800592	0.062510625
236	0xbdb06c24	-0.08614376
237	0x3d480447	0.048832204
238	0x3ba6c041	0.0050888364
239	0xbd27cbe3	-0.040965926
240	0xbe026fb2	-0.12737921
241	0xbd4817a9	-0.04885069
242	0x3d83f591	0.064433224
243	0xbd44b82e	-0.04802721
244	0x3ce22ac6	0.027608287
245	0x3db35fea	0.087585285
246	0xbd1d1f83	-0.03836013
247	0xbcc5a0bc	-0.024124496
248	0x3db49411	0.08817304
249	0x3bea7d78	0.0071560703
250	0x3dcb5ddb	0.09930011
251	0xbd92fac6	-0.071767375
252	0xbd511c23	-0.051052224
253	0x3b68f028	0.0035543535
254	0xbd4faa97	-0.050699797
255	0xbd59d185	-0.05317833

layers.1.bias f4 [48]
0	0x3cec2c0d	0.028829599
1	0x3d2bfda0	0.041989923
2	0x3d020b6f	0.031749185
3	0x38604512	5.347009e-05
4	0x3c90386c	0.017605029
5	0xbab6a306	-0.0013934083
6	0xbd13a547	-0.036046293
7	0xbaf14743	-0.0018408078
8	0xbcddab2f	-0.027059166
9	0xbc7109ea	-0.014711836
10	0xbcc93513	-0.02456144
11	0x3c5fa348	0.013649769
12	0xbb2ceec9	-0.0026387444
13	0xbc976756	-0.018481892
14	0x3d109a5c	0.03530346
15	0x3cb8030a	0.022462387
16	0xbc7be414	-0.015374202
17	0x3d17360c	0.036916777
18	0xbc465810	-0.012105957
19	0xbd532e18	-0.05155763
20	0xbd371011	-0.044693056
21	0xbb8ae1cd	-0.0042383433
22	0xbd0e57c1	-0.034751657
23	0x3ce38e0c	0.027777694
24	0xbc8bc484	-0.01706148
25	0xbc5120b5	-0.012764146
26	0xbc08f948	-0.0083602145
27	0x3d312d02	0.043255813
28	0x3d0b8044	0.03405787
29	0x3ce2a43f	0.02766621
30	0x3cee8097	0.02911405
31	0x3d3964fb	0.045262318
32	0x3c3011e4	0.010746453
33	0xbc3c6f63	-0.011501166
34	0x3d08d709	0.0334082
35	0xbd20f486	-0.039295696
36	0x3ba232da	0.0049499096
37	0xbcff90e1	-0.031197013
38	0xbb5eb8b9	-0.0033984615
39	0x3c826aa7	0.015919996
40	0x3d2339e7	0.03985014
41	0xbb864337	-0.004097368
42	0x3c8985a2	0.016787354
43	0x3ca3e1c8	0.020005122
44	0x3c39b51e	0.011334686
45	0xbd22296e	-0.03959029
46	0xbb9074a8	-0.0044084378
47	0x3d1a91ce	0.037736706

layers.1.fc_self.weight f4 [48, 48]
0	0x3e9d0109	0.30664852
1	0xbeb52f37	-0.35387585
2	0x3de9bd09	0.11413009
3	0xbdc9ced7	-0.09853905
4	0xbea4dd47	-0.3220007
5	0x3ec0d81e	0.37664884
6	0x3e620fe3	0.22076373
7	0xbe155d13	-0.14586286
8	0xbdcce0c5	-0.10003809
9	0x3d3d7e8b	0.04626326
10	0x3e8f8137	0.2802827
11	0x3e9f3295	0.3109328
12	0x3e28459e	0.16432807
13	0xbe7a9010	-0.24469018
14	0xbe3ecedb	-0.18633597
15	0xbd66d936	-0.056359492
16	0xb90c55fe	-0.00013383475
17	0x3e134c99	0.14384688
18	0xbee27597	-0.4423034
19	0x3cf7f8a9	0.030269938
20	0x3bc3d392	0.005976149
21	0xbe477968	-0.19479907
22	0xbde7b73e	-0.113142475
23	0x3ed76dd5	0.42075983
24	0xbd71d58f	-0.059041556
25	0x3e8752f9	0.2643049
26	0xbe6756c4	-0.22591692
27	0x3e3d490f	0.18484901
28	0xbe56b33c	-0.2096681
29	0xbe8ff6fd	-0.28118125
30	0x3b466f0c	0.0030278591
31	0x3bd36d65	0.00645225
32	0xbd62e320	-0.055392385
33	0x3d3ddc70	0.046352804
34	0xbe9da8a1	-0.30792716
35	0xbe892982	-0.2678948
36	0xbebd4da4	-0.36973298
37	0x3e1e4c22	0.1545873
38	0x3e5b021f	0.21387528
39	0xbd629eaa	-0.055327095
40	0xbe63c6a0	-0.22243738
41	0x3e8ee3fb	0.2790831
42	0xbe84eb49	-0.25960758
43	0xbdc85c0b	-0.09783181
44	0xbe744811	-0.23855616
45	0xbe9ce809	-0.3064578
46	0xbe96c4ee	-0.2944712
47	0x3e9a9c80	0.30197525
48	0x3ece28aa	0.402654
49	0xbe18e225	-0.14930017
50	0xbdef7ef8	-0.11694139
51	0xbc8ca7b7	-0.017169816
52	0x3cea6bf3	0.028615927
53	0x3e4d9e09	0.20079817
54	0xbedbfc3e	-0.42965883
55	0xbe3108be	-0.17288491
56	0xbe980b21	-0.2969599
57	0xbda29133	-0.07937851
58	0x3e51499a	0.20438233
59	0x3e3e3e1a	0.18578377
60	0x3e6d58af	0.23178361
61	0xbeb358b1	-0.35028604
62	0xbd5f60f6	-0.05453583
63	0xbdbab1f0	-0.0911597
64	0xbdad425f	-0.08459925
65	0x3dd0ebfa	0.10201259
66	0xbea199f8	-0.3156278
67	0x3e1f5c1c	0.1556248
68	0x3d6c8b2e	0.05774992
69	0xbd913028	-0.07089263
70	0xbe116c60	-0.14201498
71	0x3e9b1e50	0.30296564
72	0x3cfa920c	0.030587219
73	0x3e08ab69	0.13346638
74	0x3ea38477	0.31937
75	0x3dae2ac9	0.08504254
76	0x3e33a8a4	0.175448
77	0xbed9ab4f	-0.4251351
78	0x3de7a650	0.113110185
79	0x3ec083c6	0.37600535
80	0x3e513092	0.20428684
81	0x3cbe455b	0.02322643
82	0xbed543a6	-0.41653174
83	0x3d43eed3	0.047835182
84	0x3e684db0	0.22685885
85	0x3e1d10e2	0.15338472
86	0xbdfc0384	-0.12305358
87	0xbe9de8be	-0.3084163
88	0xbe47b7cb	-0.19503705
89	0xbe9ae898	-0.3025558
90	0x3e85a4d0	0.26102304
91	0x3dca16ba	0.09867616
92	0x3ec139d5	0.37739435
93	0x3eb0d7f9	0.34539774
94	0xbe8022cf	-0.25026557
95	0x3eb8343c	0.35977352
96	0x3e46482f	0.19363473
97	0x3d9d5789	0.07682712
98	0x3d2a914c	0.041642472
99	0xbe7abbe5	-0.24485739
100	0x3ea09afa	0.31368238
101	0x3e089c50	0.13340878
102	0x3c7024f9	0.0146572525
103	0xbda3d93d	-0.08000419
104	0x3d971a6a	0.07378085
105	0x3e8116c8	0.25212693
106	0x3eaf7932	0.34272152
107	0xbcdbec95	-0.02684621
108	0x3e129b29	0.14317001
109	0xbe35d579	-0.17757215
110	0x3c95a99c	0.018269353
111	0xbdfed1fd	-0.12442396
112	0xbd042ce3	-0.03226937
113	0xbe0743b7	-0.13209425
114	0xbea5e057	-0.3239772
115	0xbeaaa52d	-0.33329144
116	0xbe8bee3d	-0.273302
117	0x3da5a702	0.08088495
118	0xbdda5761	-0.106611975
119	0xbe98fb09	-0.29879025
120	0xbee03d1e	-0.4379663
121	0xbe7d3217	-0.24726139
122	0xbea12262	-0.31471545
123	0xbed1d6b7	-0.40984127
124	0xbd2fe10a	-0.042939223
125	0xbe9eb6d3	-0.3099886
126	0xbd00cd6a	-0.031445898
127	0xbcb45c65	-0.022016713
128	0xbe173530	-0.14766383
129	0xbd1ba9c5	-0.0380037
130	0xbd193a28	-0.037408978
131	0x3e6341a5	0.2219301
132	0xbe9eb900	-0.3100052
133	0xbc76d4a4	-0.015065346
134	0x3ed5232f	0.41628405
135	0x3e20589a	0.15658799
136	0x3e925f20	0.285882
137	0x3c7580d0	0.014984325
138	0x3ed69cd8	0.41916537
139	0xbebf6135	-0.3737885
140	0xbe16b8eb	-0.14718978
141	0x3e0d7a53	0.13816194
142	0x3df97579	0.12180609
143	0x3e725644	0.2366572
144	0x3e8695fc	0.26286304
145	0xbe3cf244	-0.18451792
146	0x3e9956f2	0.29949147
147	0xbbc54df7	-0.006021257
148	0xbe9495d7	-0.2902057
149	0x3e03f9f1	0.12888314
150	0xbeb5e80f	-0.3552861
151	0x3edcc21a	0.43116838
152	0x3e5cd89a	0.21567002
153	0xbe8f5968	-0.279979
154	0xbe9fe286	-0.3122751
155	0xbec1d28b	-0.37855944
156	0xbec32ddc	-0.38120925
157	0x3d4e855a	0.050420143
158	0x3e49fb8d	0.19724865
159	0x3ec2ec8e	0.38071102
160	0xbe0b5443	-0.13606362
161	0xbeb48ce4	-0.3526374
162	0x3e8d0013	0.2753912
163	0xbe219f38	-0.15783393
164	0xbedc2439	-0.42996386
165	0x3e3712f4	0.17878324
166	0x3ece91ae	0.4034552
167	0x3eb01bcd	0.3439621
168	0x3e56173b	0.20907299
169	0x3d06bec4	0.032896772
170	0x3ec81cfa	0.39084607
171	0x3e1ea526	0.15492687
172	0xbd3722e4	-0.04471101
173	0xbd9c3d65	-0.076288976
174	0xbecc1372	-0.39858586
175	0xbeb01fc8	-0.34399247
176	0xbd0f5d34	-0.035000995
177	0x3e5c94cf	0.21541141
178	0xbed38c20	-0.41317844
179	0xbc2d2f51	-0.010570363
180	0x3e2f7565	0.17134626
181	0x3dc3ba67	0.09557038
182	0xbe586aa7	-0.21134435
183	0xbea96027	-0.3308117
184	0xbe6fc63b	-0.23415463
185	0x3bb1f8dc	0.0054312777
186	0xbe3e5d4b	-0.18590276
187	0xbe5c9220	-0.21540117
188	0x3d75a215	0.059969027
189	0xbc59ff85	-0.0133055495
190	0xbe751e19	-0.23937263
191	0xbdc98933	-0.09840622
192	0xbea6180d	-0.32440224
193	0x3e431dac	0.19054288
194	0xbe805a8c	-0.25069082
195	0x3de22d4b	0.11043795
196	0x3e4ee1b6	0.2020329
197	0xbedbe3dd	-0.42947283
198	0x3e1db5b8	0.15401351
199	0xbd783c19	-0.06060419
200	0x3e903483	0.28165063
201	0x3ea7fd18	0.32810283
202	0xbe8560a1	-0.26050285
203	0xbe9548bd	-0.29157057
204	0x3e872483	0.26395044
205	0xbd0e098d	-0.034677077
206	0x3ee1e4bc	0.44119823
207	0xbeba4783	-0.36382684
208	0xbd80c616	-0.06287782
209	0x3e26356d	0.16231318
210	0xbe8a1cd2	-0.26975113
211	0xbdab9201	-0.083774574
212	0x3d997ab4	0.07494107
213	0xbe21a391	-0.15785052
214	0x3ee46957	0.44611618
215	0xbecb074f	-0.39654014
216	0xbdac876a	-0.08424266
217	0x3e8dd923	0.27704725
218	0x3e9982a5	0.29982486
219	0x3e7315b0	0.23738742
220	0x3ee3de56	0.44505566
221	0xbe91e3e6	-0.28494185
222	0xbe8522d5	-0.26003137
223	0xbd730abc	-0.05933641
224	0xbe845622	-0.25846964
225	0xbe45c675	-0.19313987
226	0xbe076e77	-0.13225733
227	0x3eb7a855	0.35870615
228	0x3e972d5c	0.29526794
229	0x3e859d4a	0.26096565
230	0xbe1837ba	-0.14865008
231	0xbe6181f8	-0.22022235
232	0xbebe9632	-0.37223965
233	0x3e8d026b	0.27540907
234	0x3ecb36fc	0.39690387
235	0x3e4029be	0.18765923
236	0xbe9835d3	-0.29728565
237	0x3eca4dda	0.3951252
238	0x3cff5eb0	0.03117308
239	0x3e8ef45b	0.27920803
240	0xbeb28947	-0.3487036
241	0xbe8fb70a	-0.28069335
242	0x3e992aca	0.29915458
243	0xbe92072b	-0.28521094
244	0xbd1b078d	-0.037848998
245	0x3e07754e	0.13228342
246	0x3e03db94	0.12876731
247	0x3e66ab35	0.22526248
248	0x3e25e274	0.16199666
249	0x3e843bc3	0.25826845
250	0xbbee5bee	-0.0072741425
251	0x3e86580a	0.26239043
252	0x3e4c539f	0.19953774
253	0xbe60c613	-0.2195056
254	0x3ea25024	0.31701767
255	0x3da5c37b	0.080939256

layers.1.fc_neigh.weight f4 [48, 48]
0	0xbdf445d7	-0.119273834
1	0xbec64164	-0.38721764
2	0xbeb29411	-0.3487859
3	0xbced9ff9	-0.029006945
4	0x3dec298d	0.11531363
5	0x3dced990	0.101000905
6	0x3e948a33	0.29011688
7	0xbe41c056	-0.18921027
8	0x3e7c3c96	0.24632487
9	0xbcc847f0	-0.024448365
10	0xbd1c0799	-0.038093183
11	0xbdac8e34	-0.084255606
12	0x3e935c02	0.28781134
13	0xbdb57cd5	-0.088617004
14	0x3e988535	0.2978913
15	0x3e6abb3b	0.22922985
16	0xbea76870	-0.32696867
17	0x3dba7bbf	0.09105634
18	0x3e95b4c0	0.29239464
19	0x3e9b640e	0.30349773
20	0xbe7f684f	-0.24942134
21	0x3eb8afc3	0.36071596
22	0x3e9f0dff	0.31065366
23	0x3e9e39a7	0.3090336
24	0xbe1e725b	-0.1547331
25	0xbdff78a6	-0.12474184
26	0x3e4b16b2	0.19832876
27	0x3e0d7437	0.13813864
28	0xbe0fc622	-0.14040425
29	0x3e599323	0.21247534
30	0x3dd59d64	0.104304105
31	0xbde6b45a	-0.11264868
32	0xbc926028	-0.017868116
33	0x3b5ee7df	0.0034012718
34	0xbe66e540	-0.2254839
35	0xbed078d2	-0.4071718
36	0x3e349cf0	0.17637992
37	0x3eac3e3a	0.33641225
38	0xbe0dca4d	-0.13846703
39	0x3eb99f56	0.36254376
40	0x3dd45c3f	0.10369157
41	0x3b098119	0.002098149
42	0xbdb268c8	-0.08711392
43	0xbdba96e6	-0.09110813
44	0xbddde711	-0.10835088
45	0xbd77934d	-0.06044321
46	0xbda7b81a	-0.081894115
47	0xbe31a43c	-0.17347807
48	0x3e36e181	0.1785946
49	0xbe76cd93	-0.24101858
50	0x3d0f46ac	0.034979507
51	0xbe8f4800	-0.2798462
52	0x3eb7716d	0.35828725
53	0xbe919d31	-0.2844024
54	0x3de4aca4	0.11165741
55	0x3e995d7e	0.2995414
56	0x3e6cfa40	0.23142338
57	0x3e5378f9	0.20651616
58	0xbeb3236a	-0.34987956
59	0xbdf64944	-0.12025693
60	0x3db73d15	0.08947197
61	0x3e737188	0.23773777
62	0x3c638971	0.013887749
63	0x3eb6e398	0.35720515
64	0x3dd9222e	0.106022224
65	0xbeb32d46	-0.34995478
66	0x3e3482b4	0.17627984
67	0x3e8bb28c	0.27284658
68	0x3e85c54c	0.26127088
69	0xbe7e3e37	-0.2482842
70	0xbdde7b6f	-0.10863387
71	0xbe39be97	-0.1813911
72	0x3ebe76a9	0.37199906
73	0xbe12a758	-0.14321649
74	0xbe0ca6f7	-0.13735567
75	0x3dfa7356	0.1222903
76	0xbd7a9298	-0.06117496
77	0xbbc19cfb	-0.005908606
78	0xbe74bee9	-0.23900951
79	0x3eab60bd	0.33472243
80	0x3d2e7df1	0.042600576
81	0x3e79a2d4	0.2437852
82	0x3cc51405	0.024057398
83	0xbe6c37d7	-0.23068176
84	0x3e7a6ff0	0.24456763
85	0x3e870627	0.2637188
86	0xbe3071c4	-0.17230898
87	0x3defe9a8	0.11714488
88	0xbdc8b130	-0.09799421
89	0xbe9ab49a	-0.30215913
90	0x3e8d31ab	0.27576956
91	0x3e793311	0.24335887
92	0x3ec9bb5a	0.3940075
93	0xbd00c45a	-0.031437255
94	0x3c315141	0.010822595
95	0xbe36d918	-0.17856252
96	0xbe5daaea	-0.2164723
97	0x3db2cda0	0.08730626
98	0x3e29d9ae	0.16586944
99	0x3d4c7dd1	0.049924675
100	0x3d444df6	0.04792591
101	0xbe3d7d82	-0.18504909
102	0x3d9a4885	0.07533363
103	0xbe431f1d	-0.19054838
104	0x3c3f216b	0.011665682
105	0x3ebe6c49	0.3719199
106	0xbe4fc266	-0.20289001
107	0x3d42ae10	0.04752928
108	0xbe5cff31	-0.21581723
109	0xbeaa7c33	-0.3329788
110	0x3e95443e	0.29153627
111	0x3e9896f9	0.29802683
112	0x3e611bd0	0.21983266
113	0xbe6fd3ff	-0.23420714
114	0xbeb624dc	-0.35574996
115	0xbe065d73	-0.13121586
116	0xbe4c4be9	-0.19950832
117	0xbea01302	-0.31264502
118	0x3e9c58a6	0.30536383
119	0x3dcbaa96	0.09944646
120	0x3e0a9e37	0.13536917
121	0x3e982934	0.29718935
122	0xbd41169a	-0.047140695
123	0x3de7a14e	0.11310063
124	0xbc96f305	-0.018426428
125	0x3e2fccf1	0.17168023
126	0xbe367f76	-0.1782206
127	0xbe022901	-0.12710954
128	0xbe9e9c3b	-0.3097857
129	0xbe9630f6	-0.2933423
130	0x3e58a229	0.21155609
131	0xbd8b1a39	-0.06792111
132	0x3db36a93	0.08760562
133	0xbdec0e3c	-0.115261525
134	0x3ecee5da	0.40409738
135	0x3e316bf5	0.17326339
136	0x3e818313	0.25295314
137	0xbc6a6cd8	-0.014308177
138	0x3e5aced6	0.21367964
139	0xbe6b180e	-0.22958395
140	0x3e6471d2	0.22309044
141	0xbdf8e67c	-0.121533364
142	0xbe0895e6	-0.13338432
143	0x3e787583	0.24263577
144	0xbe92b06a	-0.28650218
145	0x3e0c9de2	0.13732103
146	0x3e074b57	0.13212334
147	0x3c574c6b	0.013140778
148	0x3e5ece44	0.21758372
149	0x3e2cb587	0.16866122
150	0x3eb0b3ed	0.34512272
151	0x3e0da028	0.13830626
152	0xbed93a80	-0.42427444
153	0xbeae548e	-0.34048885
154	0x3ea0454e	0.31302875
155	0x3e81e312	0.25368553
156	0xbeb0a5ed	-0.3450159
157	0xbea3a182	-0.31959158
158	0x3ecd7698	0.40129542
159	0x3cb17f2d	0.021667087
160	0xbebf16fa	-0.37322217
161	0xbe576db0	-0.21037936
162	0x3ecd57e9	0.40106133
163	0x3ed1f9f7	0.4101102
164	0x3d02e0ea	0.031952776
165	0x3e85630f	0.26052138
166	0xbd086f03	-0.033308994
167	0x3e226e05	0.15862282
168	0xbe0d9173	-0.13825016
169	0xbe7c3410	-0.24629235
170	0xbdacf707	-0.08445554
171	0x3c350529	0.011048594
172	0x3e2aa1dd	0.16663308
173	0xbea7c6f5	-0.3276898
174	0x3e922409	0.28543118
175	0xbe57a57b	-0.2105922
176	0xbde04350	-0.10950339
177	0x3c94b90d	0.018154645
178	0x3dea9409	0.11454017
179	0xbeb608c8	-0.35553575
180	0x3e22733e	0.15864274
181	0x3c93238c	0.017961286
182	0xbe88987e	-0.26678842
183	0x3eaa33de	0.33242697
184	0x3e8d1674	0.27556193
185	0x3cb798a4	0.022411652
186	0xbe820028	-0.25390744
187	0x3ea57be4	0.32321084
188	0x3d647110	0.055771887
189	0xbe896195	-0.26832262
190	0x3de6258f	0.112376325
191	0x3d623a36	0.055231296
192	0x3e146630	0.14492106
193	0x3ea9a468	0.33133245
194	0x3eafa512	0.34305626
195	0x3c3b6878	0.0114384815
196	0x3e97251f	0.2952051
197	0x3e37ad21	0.17937137
198	0xbe1563ed	-0.145889
199	0xbd9e62d7	-0.07733696
200	0x3d93a9d8	0.072101295
201	0x3dd3e543	0.103464626
202	0xbe573cac	-0.21019238
203	0xbd046571	-0.032323305
204	0x3d2d5db9	0.04232571
205	0xbdcc3b4c	-0.099722475
206	0x3d468bd3	0.04847319
207	0x3df77757	0.12083309
208	0x3e22011a	0.15820733
209	0xbe1d7880	-0.15377998
210	0x3dfb36ce	0.122663125
211	0x3e9b2697	0.3030288
212	0xbe70ef93	-0.2352889
213	0xbebdd257	-0.3707454
214	0xbe91343d	-0.28360167
215	0x3da0fdee	0.07860933
216	0x3eaf8d5e	0.34287542
217	0xbdddb9b9	-0.108264394
218	0x3eb19d7b	0.3469046
219	0x3d1d1ecf	0.03835946
220	0x3e953e62	0.29149157
221	0xbe2712bc	-0.1631574
222	0xbdf13545	-0.117777385
223	0xbea2b352	-0.31777436
224	0xbdef06a5	-0.11671189
225	0x3ea893bd	0.32925215
226	0x3e562067	0.20910798
227	0x3ea5ef7f	0.32409284
228	0x3d96bc4f	0.07360136
229	0xbeac2c56	-0.33627576
230	0xbe2b0761	-0.16702034
231	0xbd795aa3	-0.060877454
232	0xbe9fa2dc	-0.3117894
233	0x3e4ed1b5	0.20197184
234	0xbe3abb37	-0.1823548
235	0x3b0f7ca8	0.002189437
236	0xbd581684	-0.052755848
237	0xbe80239d	-0.2502717
238	0xbeac78d6	-0.3368594
239	0x3e47c87c	0.19510072
240	0xbe5d44ed	-0.21608324
241	0x3eb093cd	0.34487763
242	0x3ea92ff4	0.33044398
243	0xbe15eb19	-0.14640464
244	0xbe33a037	-0.17541586
245	0x3e485838	0.19564903
246	0xbeba47b5	-0.36382833
247	0x3e537b88	0.20652592
248	0x3e36f2d8	0.17866075
249	0xbe4d0006	-0.2001954
250	0xbe4abf6f	-0.19799589
251	0x3da4f5c6	0.0805469
252	0xbd03cae0	-0.0321759
253	0x3e06cd35	0.13164218
254	0xbe8cd673	-0.27507362
255	0xbe78d9f6	-0.24301895

fc1.weight f4 [7, 48]
0	0xbe0df9aa	-0.1386477
1	0xbc19c85c	-0.009386148
2	0x3e538099	0.20654525
3	0xbe918981	-0.2842522
4	0x3dbdc460	0.09265971
5	0xbd159b3a	-0.03652499
6	0xbe419d26	-0.18907604
7	0xbe1126e4	-0.14174992
8	0x3c84c476	0.016206961
9	0x3e229310	0.15876412
10	0x3e756eaf	0.23968004
11	0xbe722dac	-0.23650235
12	0x3e4fcc11	0.20292689
13	0x3e1f4995	0.15555413
14	0x3d6efa9c	0.05834447
15	0xbe662866	-0.22476348
16	0xbda9e60c	-0.08295831
17	0xbe0997a7	-0.13436757
18	0x3d30a21b	0.043123346
19	0xbe73ff6c	-0.23827904
20	0x3e39e763	0.18154673
21	0x3e53bc7c	0.2067737
22	0x3e0e1aa2	0.13877347
23	0x3e6c5129	0.23077835
24	0x3d1494d2	0.03627474
25	0x3e5a1ec4	0.21300799
26	0x3e27263a	0.16323176
27	0xbe0f9dd1	-0.14025046
28	0xbbeadeda	-0.0071676793
29	0xbcf0776b	-0.029353818
30	0xbe1dcaa2	-0.1540933
31	0xbe5c100f	-0.21490501
32	0xbe125b1c	-0.14292568
33	0xbe048e6c	-0.12944955
34	0xbe1f0a30	-0.1553123
35	0x3cadb4a7	0.021204306
36	0x3cc5caa6	0.024144482
37	0x3e0be27f	0.1366062
38	0xbe4cb363	-0.19990306
39	0xbe0c2925	-0.1368757
40	0x3d52aaf6	0.051432572
41	0xbdd7266b	-0.105053745
42	0xbe0a4181	-0.1350155
43	0x3d8a1307	0.067419104
44	0xbe5b4804	-0.2141419
45	0x3e669c7e	0.22520635
46	0x3d916880	0.0710001
47	0x3dacf1d6	0.08444564
48	0x3ba206e8	0.004944671
49	0xbd968fbc	-0.07351634
50	0x3cca8a14	0.024724044
51	0x3e241395	0.16023095
52	0xbe0f33fb	-0.13984673
53	0xbc4629c4	-0.012094919
54	0xbc5f9ebc	-0.013648685
55	0xbe619970	-0.22031188
56	0xbe22f0cb	-0.15912168
57	0xbd005258	-0.03132853
58	0x3d5133eb	0.051074903
59	0x3d4c942b	0.04994599
60	0xbd7ee596	-0.06223067
61	0xbcff27c2	-0.031146888
62	0xbdd959c3	-0.10612824
63	0x3e05d5b0	0.13069797
64	0x3e7d26e3	0.24721865
65	0x3d8d54b4	0.069009215
66	0x3ceec465	0.029146383
67	0x3cbff484	0.023432024
68	0x3c8063c5	0.015672574
69	0x3e69ee90	0.2284491
70	0x3e4c7e49	0.19970049
71	0xbe710e6e	-0.2354066
72	0xba85f814	-0.0010221028
73	0xbd9fcf10	-0.07803166
74	0x3d6d235d	0.057895053
75	0xbe58b01a	-0.21160927
76	0x3e6ccdd1	0.23125388
77	0x3e25aca5	0.1617914
78	0xbe36651e	-0.1781201
79	0xbc372e79	-0.011180514
80	0xbe5b2ac0	-0.21403027
81	0xbe385a50	-0.18003201
82	0x3e07609a	0.13220444
83	0x3e3a2b87	0.18180667
84	0xbd188213	-0.037233423
85	0x3d3db5b3	0.04631586
86	0x3e517c2f	0.20457529
87	0xbde3ba40	-0.11119509
88	0xbe27f868	-0.16403353
89	0x3e58da0d	0.2117693
90	0xbc202ad2	-0.009775834
91	0x3e62a9e8	0.22135127
92	0xbc2fb5d4	-0.010724504
93	0x3e256a77	0.16153894
94	0xbd521dd2	-0.05129797
95	0xbe43c70b	-0.19118898
96	0x3dd3448f	0.10315811
97	0x3e6026ca	0.21889797
98	0x3e8c2df1	0.273788
99	0xbe302d5d	-0.17204805
100	0x3e1b5630	0.15169597
101	0x3e0acd6f	0.13554929
102	0xbe894dfc	-0.2681731
103	0x3d6e8859	0.0582355
104	0xbe2a1d61	-0.1661277
105	0x3bcb3155	0.006200949
106	0xbd2f56fa	-0.042807557
107	0x3e194adb	0.14969961
108	0x3db622be	0.08893345
109	0xbd285b99	-0.04110298
110	0x3e814db6	0.252546
111	0x3e50773f	0.20357989
112	0x3cf9d3c7	0.030496491
113	0x3dc0ddfa	0.09417339
114	0xbe62b9dd	-0.22141214
115	0xbe6b7ac7	-0.22996055
116	0xbc7e7532	-0.015530871
117	0x3d86f53a	0.06589742
118	0xbdd2d14b	-0.10293826
119	0x3e44ad8d	0.1920683
120	0xbe7a5074	-0.24444753
121	0xbdc2d128	-0.0951255
122	0xbdd5b96d	-0.10435758
123	0x3e46106a	0.19342199
124	0x3e7d5d22	0.24742559
125	0x3ce1d227	0.027566029
126	0x3e7c55c8	0.24642098
127	0x3e5dd9ad	0.21665068
128	0x3d9c1f8b	0.07623204
129	0x3d25e756	0.040503822
130	0x3e6dd8c2	0.23227218
131	0xbdf2850f	-0.11841785
132	0xbdd9d566	-0.10636406
133	0xbe0929cb	-0.13394849
134	0x3df1f84d	0.11814938
135	0x3df4f0a0	0.11959958
136	0x3e3beb54	0.1835149
137	0x3e3744d9	0.17897357
138	0xbd7ee27e	-0.06222772
139	0xbae3ed94	-0.0017389529
140	0xbcd8b5da	-0.026453901
141	0xbe40a541	-0.1881304
142	0x3c73d1ad	0.014881534
143	0x3e104c50	0.14091611
144	0x3e306081	0.17224313
145	0x3e64d381	0.22346307
146	0xbd8bbcd9	-0.06823129
147	0x3e79f3c3	0.24409394
148	0xbdc78a25	-0.09743146
149	0xbe7f164d	-0.24910851
150	0x3dd7a78f	0.10530006
151	0x3d426e8d	0.04746871
152	0x3d0e2e75	0.034712274
153	0xbe1047e4	-0.14089924
154	0xbe83dea9	-0.25755814
155	0xbe2f2d1f	-0.17107056
156	0xbda30ad3	-0.07961049
157	0x3db4522d	0.08804736
158	0xbde55c04	-0.11199191
159	0x3d0eda57	0.034876194
160	0xbe89edc4	-0.26939213
161	0x3e34e54b	0.17665593
162	0xbe028ad4	-0.12748271
163	0xbdbcc931	-0.09218062
164	0x3d0dca03	0.03461648
165	0xbe699ab3	-0.2281292
166	0xbe2bc432	-0.16774061
167	0x3e5a63cf	0.21327136
168	0x3e85c346	0.26125544
169	0x3e1622ca	0.14661708
170	0x3d9c5282	0.076329246
171	0x3d1987c0	0.037482977
172	0xbd9a3da8	-0.07531291
173	0x3c91aad2	0.017781649
174	0x3e7bc5b7	0.24587141
175	0x3d8fd6f6	0.070234224
176	0x3dc96ac5	0.09834818
177	0xbdb40c2c	-0.08791384
178	0xbe2a9ed1	-0.16662146
179	0xbe689cd2	-0.22716072
180	0x3dcd2501	0.100168236
181	0x3e6963c0	0.22791958
182	0xbe459e4e	-0.1929867
183	0xbe007146	-0.1254321
184	0x3e1db713	0.15401869
185	0xbe43aabb	-0.19108097
186	0xbd295347	-0.041339185
187	0x3d0351eb	0.032060545
188	0xbd680393	-0.056644034
189	0xbd4248a7	-0.047432568
190	0x3d38e7c5	0.045142908
191	0x3e75e118	0.24011648
192	0xbe881591	-0.26578954
193	0x3dc1d189	0.09463794
194	0xbe4eebf3	-0.20207195
195	0x3dd04d99	0.101710506
196	0x3e7b6259	0.24549235
197	0x3e7af218	0.24506414
198	0x3e4ecb14	0.20194656
199	0x3e51125e	0.20417163
200	0xbe237d25	-0.15965708
201	0x3e398798	0.18118131
202	0x3e08ea07	0.13370524
203	0x3e27dff2	0.16394022
204	0xbd89a806	-0.06721501
205	0x3afbe425	0.0019217773
206	0xbd297f91	-0.041381422
207	0xbd96dd5e	-0.07366441
208	0xbc919f98	-0.017776296
209	0xbd8247db	-0.063613616
210	0xbe4cc2dd	-0.1999621
211	0x3d4e079a	0.05030022
212	0x3e4b3d33	0.19847564
213	0xbe48c391	-0.19605853
214	0x3e6e087a	0.23245421
215	0xbdcd7fd3	-0.10034146
216	0xbd175253	-0.036943745
217	0x3e76e7b9	0.24111833
218	0xbbca05c6	-0.006165239
219	0xbdc8c327	-0.09802847
220	0xbe5302a4	-0.20606476
221	0xbe7f55b1	-0.24935032
222	0xbdbe6dcc	-0.09298286
223	0xbcd964dc	-0.026537351
224	0xbdd8238f	-0.10553657
225	0x3e7a03a8	0.24415457
226	0x3d9df3db	0.07712527
227	0x3e0245b4	0.12721902
228	0x3cc4c65a	0.024020363
229	0x3e0baa57	0.13639198
230	0x3d4681ee	0.048463754
231	0xbe43f0fa	-0.19134894
232	0x3b915583	0.0044352426
233	0x3e028eee	0.12749836
234	0x3dd324d8	0.10309762
235	0xbe751ea7	-0.23937474
236	0x3e0f08e5	0.13968237
237	0x3e1768e2	0.14786103
238	0x3e51b502	0.20479205
239	0x3c0bc674	0.008531202
240	0x3d50b894	0.050957277
241	0xbdf6ce1e	-0.120510325
242	0xbe02e110	-0.12781167
243	0xbd836b9c	-0.06417009
244	0xbe462804	-0.19351202
245	0xbe00ef0b	-0.12591188
246	0x3c99f234	0.01879225
247	0x3e5fbd5b	0.21849577
248	0x3e462b2e	0.19352409
249	0xbe313705	-0.17306145
250	0xbdb4a79b	-0.08821031
251	0x3dc061bf	0.093936436
252	0xba92783d	-0.001117475
253	0x3d657705	0.05602171
254	0xbd957f10	-0.07299626
255	0x3e80d5fa	0.2516325

fc1.bias f4 [7]
0	0x3db55fb0	0.088561416
1	0xbd2dafac	-0.042403862
2	0xbd9ab576	-0.07554142
3	0xbd69911a	-0.057023145
4	0xbe267cc0	-0.16258526
5	0x3ddada4e	0.106861696
6	0x3dffad42	0.12484218
