models/current_checkpoint_cora_map.pt (torch, 576011 bytes, 8 tensors)

layers.0.bias f4 [48]
0.035978433 -0.037846707 -0.011951299 -0.034589853 0.042753648 0.004866764 -0.0010473654 -0.009436786
-0.032335255 0.016727397 0.017750945 0.024074858 0.03085254 -0.03559377 0.02942568 -0.03447962
-0.0024382733 -0.005829997 -0.028835597 0.01733022 -0.013605743 0.0040932605 0.04395239 0.0004497621
0.008224119 0.03584042 0.008045901 0.011787427 0.007672146 -0.04968698 0.044575408 0.002644046
-0.03056591 0.0071579623 -0.038908 0.034379225 0.0037227236 0.011916625 0.026398929 -0.01830043
-0.010477407 -0.05212757 0.033028036 -0.0151261045 0.01680409 0.014278377 -0.011331037 0.043340303
00000000: 1f5e 133d 2605 1bbd 62cf 43bc 17ae 0dbd
00000010: 731e 2f3d 6079 9f3b c047 89ba c09c 1abc
00000020: f971 04bd e507 893c 6e6a 913c a338 c53c
00000030: 77be fc3c c6ca 11bd 200e f13c 813a 0dbd
00000040: 70cb 1fbb 8f09 bfbb a138 ecbc 1bf8 8d3c
00000050: 9fea 5ebc c220 863b 6c07 343d 0cce eb39
00000060: 75be 063c 67cd 123d f4d2 033c 0d20 413c
00000070: a066 fb3b 9384 4bbd b494 363d bb47 2d3b
00000080: 5c65 fabc 578d ea3b ff5d 1fbd 3bd1 0c3d
00000090: f0f8 733b f33d 433c 9142 d83c c9ea 95bc
000000a0: 6ea9 2bbc b883 55bd 6848 073d 7bd3 77bc
000000b0: bba8 893c dbef 693c d0a5 39bc 9a85 313d

layers.0.fc_self.weight f4 [48, 1440]
0.019771991 -0.06030395 0.0011918343 0.055405933 -0.019480616 -0.009726058 0.010267134 -0.01053231
0.021103846 -0.07940438 0.07407285 -0.0950257 -0.0003311222 0.0084788995 -0.024920981 -0.037050776
0.019764606 0.08311053 0.062688746 0.026020957 -0.016792076 -0.09737395 0.038120367 0.033205703
0.024708882 0.0887461 -0.021804195 0.015138785 0.06367389 -0.03975148 -0.043898065 -0.045804847
-0.032560002 0.0026250205 0.036151532 0.056869395 0.087645136 0.0051758667 -0.023760395 0.0888485
0.0035817632 -0.14321566 0.10387937 -0.04952981 -0.038656406 -0.0028788422 -0.010740437 -0.05688378
-0.02064369 0.022506375 0.08915852 -0.03428732 0.0673148 0.05407401 -0.0673973 0.05885375
0.050726477 -0.04591277 -0.03746843 0.056812156 0.0419985 0.061267167 0.06295089 -0.085944004
0.012979335 0.016099302 -0.09623796 -0.02539424 0.036027785 -0.046557453 0.015653063 -0.010917063
0.09501015 0.019158492 0.050346583 0.08948763 0.033359434 0.06289146 0.032181144 0.051181614
-0.07224959 0.066448785 0.011673226 -0.08068686 0.07578545 0.012246007 -0.058221195 0.011583325
0.068293564 -0.0622646 -0.04987789 -0.04601384 0.040250838 -0.030953065 -0.01756252 0.082428195
0.018334355 0.06027312 -0.08775327 -0.13037907 0.061617266 0.098890655 0.07261331 0.012532318
-0.10190877 0.010447479 0.0364915 0.060921744 -0.034490377 0.0676414 0.06764107 0.003953509
0.0907276 0.027639378 0.018600428 -0.07144479 -0.056277476 0.058512438 0.02653298 0.0062273457
-0.027730253 -0.034339093 0.10091722 -0.056720197 -0.052064158 0.07102914 -0.013642839 0.079529844
0.04427174 0.08281291 0.033723798 0.06294894 -0.011494923 -0.09083306 -0.06910007 -0.0020442377
0.09222742 0.011836214 0.060687825 0.08810795 0.0011473785 -0.06885598 0.044460095 0.021611098
-0.07349726 0.05285069 0.012513583 0.0396742 0.07621919 -0.07054298 0.0038571446 -0.0025011876
0.020032581 0.0021242106 0.0056928685 -0.043701585 -0.0075081573 -0.04623593 0.098925 0.0896151
-0.045737207 -0.018880595 0.14194836 -0.005231184 -0.08580329 -0.0050515197 -0.046344545 -0.08137728
-0.04239365 -0.080806814 -0.06335004 0.017934464 0.07302374 0.034893207 -0.05296442 0.03882799
-0.04879363 -0.06905617 0.027876485 0.049467478 -0.084349275 -0.07736865 0.029972266 0.103733644
-0.016965576 0.080732755 -0.077342495 -0.07572605 -0.044066284 -0.04880548 -0.08692251 -0.025413714
-0.036724605 0.07032327 0.07564341 -0.05777613 0.033242423 -0.02853279 -0.010778256 -0.03825717
0.025116593 0.075850524 -0.011368077 0.0913118 -0.032978047 -0.09037718 -0.00494095 0.022621427
0.009431372 -0.06756464 -0.13074969 -0.007192102 0.026358021 -0.042397354 0.092128396 0.021044852
0.03195304 -0.018515063 0.058434427 0.008449163 0.039929483 -0.06110381 0.017564343 -0.051162254
0.062490474 0.06878332 -0.02652284 -0.03474182 -0.022301773 0.06354705 0.07873363 -0.0083726635
-0.071497545 -0.04781485 -0.024350043 0.062006492 -0.022569021 0.037792195 0.036478132 -0.016577842
-0.027825048 -0.09280613 -0.024403177 -0.05474614 0.014447692 -0.027725026 -0.058920432 0.01567927
0.013921658 -0.033859976 -0.045036323 -0.07562735 -0.06997283 -0.08318437 0.06866473 0.06056823
00000000: dff8 a13c 4601 77bd 5337 9c3a 55f1 623d
00000010: d095 9fbc 0b5a 1fbc 7b37 283c b68f 2cbc
00000020: f9e1 ac3c c39e a2bd 82b3 973d d69c c2bd
00000030: 789a adb9 15eb 0a3c 1627 ccbc 8ec2 17bd
00000040: 62e9 a13c db35 aa3d f562 803d e729 d53c
00000050: 898f 89bc fe6b c7bd 1a24 1c3d b402 083d
00000060: 486a ca3c 84c0 b53d b69e b2bc ab08 783c
00000070: 7567 823d 73d2 22bd 75ce 33bd dd9d 3bbd
00000080: a35d 05bd 8908 2c3b a113 143d e2ef 683d
00000090: 4b7f b33d 519a a93b 29a5 c2bc 34f6 b53d
000000a0: 04bc 6a3b 20a7 12be b5be d43d c5df 4abd
000000b0: 2e56 1ebd f5aa 3cbb a8f8 2fbc f7fe 68bd
000000c0: f51c a9bc 4a5f b83c be98 b63d dc70 0cbd
000000d0: 58dc 893d b67c 5d3d 9807 8abd a110 713d
000000e0: 91c6 4f3d 070f 3cbd 7f78 19bd ddb3 683d
000000f0: 9e06 2c3d 48f3 7a3d 65ec 803d 6903 b0bd
00000100: 47a7 543c afe2 833c 6818 c5bd 9507 d0bc
00000110: df91 133d 07b3 3ebd da3a 803c 7bdd 32bc
00000120: ae94 c23d 45f2 9c3c 3838 4e3d 4a45 b73d
00000130: e7a3 083d 3dcd 803d 60d0 033d d0a3 513d
00000140: 98f7 93bd 4d16 883d 0f41 3f3c 273f a5bd
00000150: 6735 9b3d 7aa3 483c 5979 6ebd fdc7 3d3c
00000160: 7fdd 8b3d 2a09 7fbd c24c 4cbd 0279 3cbd
00000170: 10de 243d 4891 fdbc 46df 8fbc 1dd0 a83d
00000180: ee31 963c f2e0 763d fdb7 b3bd 1782 05be
00000190: 6362 7c3d 2f87 ca3d 49b6 943d 5a54 4d3c
000001a0: 8cb5 d0bd e72b 2b3c 1c78 153d 1489 793d
000001b0: c845 0dbd 9387 8a3d 6787 8a3d 708c 813b
000001c0: 64cf b93d fa6b e23c ed5f 983c a551 92bd
000001d0: 3683 66bd bdaa 6f3d b15b d93c c30e cc3b
000001e0: 8e2a e3bc 26a7 0cbd b0ad ce3d 7053 68bd
000001f0: 3a41 55bd ba77 913d 3786 5fbc 8be0 a23d
00000200: 4956 353d d199 a93d f721 0a3d 60eb 803d
00000210: 3455 3cbc af06 babd 5684 8dbd 9ef8 05bb
00000220: bbe1 bc3d aeec 413c cc93 783d f171 b43d
00000230: a263 963a 5d04 8dbd ca1b 363d c209 b13c
00000240: bb85 96bd f779 583d c505 4d3c 6a81 223d
00000250: cf18 9c3d d778 90bd 26c8 7c3b f7ea 23bb
00000260: 5e1b a43c 5736 0b3b 3e8b ba3b 6f00 33bd
00000270: fd06 f6bb e361 3dbd 3199 ca3d 1f88 b73d
00000280: f056 3bbd 7aab 9abc e95a 113e 5a6a abbb
00000290: a3b9 afbd 3887 a5bb c7d3 3dbd 22a9 a6bd
000002a0: f7a4 2dbd 0b7e a5bd aabd 81bd 4ceb 923c
000002b0: 788d 953d 2eec 0e3d 38f1 58bd 190a 1f3d
000002c0: d4db 47bd 526d 8dbd 3a5d e43c 699e 4a3d
000002d0: 50bf acbd 7473 9ebd 6688 f53c 4e72 d43d
000002e0: 64fb 8abc 3757 a53d be65 9ebd 4216 9bbd
000002f0: d97e 34bd 41e8 47bd 6e04 b2bd 6c30 d0bc
00000300: 8a6c 16bd a605 903d efea 9a3d aaa6 6cbd
00000310: 3529 083d 99bd e9bc 4897 30bc 8db3 1cbd
00000320: 50c1 cd3c 8557 9b3d 2c41 3abc ae01 bb3d
00000330: fd13 07bd ac17 b9bd b1e7 a1bb 9250 b93c
00000340: 0b86 1a3c 545f 8abd 3fe3 05be b9ab ebbb
00000350: c7ec d73c d9a8 2dbd d0ad bc3d 4166 ac3c
00000360: 31e1 023d e7ac 97bc f058 6f3d 5c6e 0a3c
00000370: 198d 233d fd47 7abd 19e3 8f3c 838f 51bd
00000380: 03f6 7f3d 45de 8c3d 6d46 d9bc 704d 0ebd
00000390: 35b2 b6bc f524 823d 193f a13d 7f2d 09bc
000003a0: 4e6d 92bd 81d9 43bd be79 c7bc 85fa 7d3d
000003b0: abe2 b8bc fdcb 1a3d 186a 153d 41ce 87bc
000003c0: 5bf1 e3bc 2411 bebd 2ce9 c7bc 7d3d 60bd
000003d0: 03b6 6c3c 981f e3bc 8d56 71bd d071 803c
000003e0: aa17 643c c2b0 0abd 0278 38bd 83e2 9abd
000003f0: ea4d 8fbd 915c aabd 18a0 8c3d 6416 783d

layers.0.fc_neigh.weight f4 [48, 1440]
-0.028245483 -0.042400267 0.06815629 -0.028548662 0.045507148 0.027625721 -0.043955628 -0.09706811
0.05002096 -0.0371474 -0.05168857 0.013714598 -0.03705254 0.06410225 0.033039827 0.018466953
-0.028429128 -0.06451971 0.0028553475 0.045743275 0.085619956 0.031278126 0.06989108 0.05748867
0.0024037063 -0.015087322 -0.04456788 -0.062744886 0.0107884 0.027262617 0.062173944 -0.083865754
-0.024513412 -0.048333924 0.07385876 0.041433495 -0.047903642 0.09305992 -0.064039275 -0.004020744
0.048801504 -0.067306444 0.08737655 -0.050515063 0.03151162 -0.002259598 0.07850528 0.058194917
-0.03408852 -0.11479869 0.08124335 -0.03564975 -0.06703712 0.075141415 0.006599641 -0.068658665
-0.068814665 0.02390939 -0.046657313 -0.008470037 -0.1212136 0.08677832 0.0051818555 -0.045494605
-0.09418851 -0.095542386 -0.0946605 -0.0034366972 -0.014086673 -0.03707302 0.055250086 0.065569356
-0.028576098 -0.007847973 -0.010602034 0.10438455 0.053375825 0.039475046 -0.051751472 0.0062076095
0.00023329405 -0.048822217 -0.009486719 -0.073710136 0.028725041 0.03954372 0.06547989 0.054135393
-0.06604278 -0.012708617 -0.00097222533 -0.07548565 0.009679429 -0.070296586 0.044957254 -0.010496082
0.0058729574 0.012920555 0.009012031 0.040292956 0.020569071 0.10314702 -0.06597085 -0.06832426
-0.0042507676 0.08867872 -0.07954438 -0.09923459 -0.050708223 0.0075493064 0.06759911 -0.01000476
0.055245336 0.0747061 0.00094438 0.06593625 0.023777055 -0.059959833 -0.031292297 -0.06393426
0.024365786 0.07483416 0.07554341 -0.034737512 -0.07106952 0.07004709 0.09097988 0.024577154
0.07255195 0.092727914 -0.026100283 -0.02628241 -0.015585553 -0.04407987 -0.035563886 -0.050081853
0.03373456 0.052118972 -0.01181453 -0.06843633 -0.026410155 0.02428078 0.017061174 0.003508609
-0.057061926 -0.035203815 0.037218843 -0.098285705 0.03612107 0.07407525 -0.07061591 0.10555068
-0.055792153 0.06742511 0.07213251 0.028078392 -0.051882736 0.009553388 0.127163 0.05518292
0.054859966 -0.033706363 -0.039365757 0.015875487 -0.04471522 0.046701364 0.030858733 0.022563642
-0.008332616 -0.032092936 0.025574291 0.03338159 0.097694986 0.02825169 0.068838276 0.06269399
-0.029204858 0.057273895 -0.08725955 -0.07542498 0.011607863 -0.013267122 -0.025985373 -0.04924258
-0.029678248 0.11283121 -0.075450815 -0.094382405 0.010305254 0.00091926754 0.06310542 0.0037872647
-0.06661209 0.066335656 0.012799436 -0.028655425 -0.078556836 -0.050383404 0.06066367 -0.0077857897
0.05594094 -0.050893035 -0.017023498 0.026642842 0.01151697 -0.085469805 -0.04560639 0.013852942
-0.004395407 0.07669297 0.0596341 0.047621652 -0.0020914206 -0.014051813 0.08117064 0.085236475
0.029884111 0.0023079417 -0.04950198 0.019458557 0.056233104 -0.013548283 -0.0070816306 -0.029553693
0.044627126 -0.05162511 0.057989538 -0.012154444 0.06225662 -0.0127954455 0.0656521 -0.07217671
0.019400876 -0.03433257 -0.10573668 0.06295178 -0.086144924 0.04881478 0.0053780647 -0.04087725
-0.12753607 -0.049059924 0.06468392 -0.048660647 0.02776924 0.08727918 -0.038412202 -0.024316927
0.089008294 0.007368259 0.099768355 -0.072060995 -0.05108752 0.0041522617 -0.05072344 -0.052274764
00000000: 1263 e7bc e7ab 2dbd 8695 8b3d e2de e9bc
00000010: b465 3a3d 564f e23c d10a 34bd a5cb c6bd
00000020: c7e2 4c3d df27 18bd 65b7 53bd 31b3 603c
00000030: 67c4 17bd 0a48 833d c554 073d 0248 973c
00000040: 34e4 e8bc e922 84bd c820 3b3b 4d5d 3b3d
00000050: 8459 af3d 7e1d 003d 0e23 8f3d 3d79 6b3d
00000060: 8087 1d3b d130 77bc cf8c 36bd 6480 80bd
00000070: d4c1 303c da55 df3c 1baa 7e3d cfc1 abbd
00000080: 5ad0 c8bc cbf9 45bd 4343 973d 2bb6 293d
00000090: 9c36 44bd 3396 be3d 0627 83bd 72c0 83bb
000000a0: 16e4 473d f6d7 89bd 7af2 b23d e2e8 4ebd
000000b0: 5412 013d c415 14bb 60c7 a03d cb5d 6e3d
000000c0: 67a0 0bbd 931b ebbd ea62 a63d 7905 12bd
000000d0: c24a 89bd bee3 993d cd41 d83b ea9c 8cbd
000000e0: b4ee 8cbd a0dd c33c bd1b 3fbd e9c5 0abc
000000f0: d63e f8bd d5b8 b13d 8ecc a93b 8d58 3abd
00000100: e8e5 c0bd baab c3bd 5ddd c1bd 363a 61bb
00000110: cacb 66bc e1d9 17bd ea4d 623d 3a49 863d
00000120: 6c18 eabc c994 00bc 27b4 2dbc 91c7 d53d
00000130: 9ca0 5a3d 96b0 213d 5af9 53bd 3469 cb3b
00000140: 65a0 7439 cef9 47bd 2f6e 1bbc 57f5 96bd
00000150: c750 eb3c 99f8 213d 521a 863d 13bd 5d3d
00000160: 7041 87bd ce37 50bc f0dc 7eba 3898 9abd
00000170: 7896 1e3c a8f7 8fbd 1925 383d c2f7 2bbc
00000180: f071 c03b bcb0 533c 33a7 133c 3a0a 253d
00000190: 7880 a83c bf3e d33d ba1b 87bd 97ed 8bbd
000001a0: 064a 8bbb 309d b53d 2ae8 a2bd 813b cbbd
000001b0: 6db3 4fbd 2c60 f73b 6771 8a3d 01eb 23bc
000001c0: ef48 623d 83ff 983d 4590 773a 9609 873d
000001d0: 19c8 c23c 7198 75bd 5a2c 00bd f7ef 82bd
000001e0: c29a c73c a742 993d 81b6 9a3d ec48 0ebd
000001f0: e68c 91bd d974 8f3d a953 ba3d 0756 c93c
00000200: 1e96 943d 22e8 bd3d 43d0 d5bc 354e d7bc
00000210: 8c5a 7fbc 188d 34bd 70ab 11bd a122 4dbd
00000220: 402d 0a3d b47a 553d bb91 41bc 5928 8cbd
00000230: 1c5a d8bc 7de8 c63c e0c3 8b3c b1f0 653b
00000240: c4b9 69bd e031 10bd c972 183d 044a c9bd
00000250: b0f3 133d c4b4 973d 139f 90bd f42a d83d
00000260: 5086 64bd 2d16 8a3d 36ba 933d a804 e63c
00000270: fe82 54bd d085 1c3c 0437 023e 7c07 623d
00000280: d8b4 603d af0f 0abd fd3d 21bd 4f0d 823c
00000290: 4e27 37bd ee49 3f3d 74cb fc3c 63d7 b83c
000002a0: 8685 08bc e273 03bd 2d81 d13c 22bb 083d
000002b0: 4f14 c83d 1770 e73c 15fb 8c3d b565 803d
000002c0: 073f efbc 0898 6a3d 23b5 b2bd 6978 9abd
000002d0: e82e 3e3c 585e 59bc 47df d4bc 96b2 49bd
000002e0: cc1f f3bc 0d14 e73d f585 9abd 904b c1bd
000002f0: 5ed7 283c 00fb 703a 6a3d 813d c233 783b
00000300: eb6b 88bd fdda 873d bab4 513c c8be eabc
00000310: 68e2 a0bd d45e 4ebd 787a 783d f01f ffbb
00000320: 5422 653d 3775 50bd dd74 8bbc 1742 da3c
00000330: acb1 3c3c cb0a afbd c4cd 3abd 73f7 623c
00000340: 5907 90bb 3411 9d3d e342 743d ec0e 433d
00000350: 3710 09bb 9339 66bc cb3c a63d 7690 ae3d
00000360: 86cf f43c d640 173b 97c2 4abd 8d67 9f3c
00000370: af54 663d 9ef9 5dbc 060d e8bb 961a f2bc
00000380: efca 363d da74 53bd 7086 6d3d 6f23 47bc
00000390: cc00 7f3d fda3 51bc 9c74 863d 62d1 93bd
000003a0: 96ee 9e3c 4fa0 0cbd 798c d8bd ddec 803d
000003b0: c06c b0bd 02f2 473d 7a3a b03b e76e 27bd
000003c0: d198 02be 0ff3 48bd 0179 843d 6350 47bd
000003d0: 517c e33c 6dbf b23d 1d56 1dbd 4b34 c7bc
000003e0: fb49 b63d 7071 f13b 5a53 cc3d b794 93bd
000003f0: 2641 51bd b20f 883b 62c3 4fbd 101e 56bd

layers.1.bias f4 [48]
0.02917971 0.042325553 0.03173739 0.00028426968 0.017932072 -0.001589671 -0.03626796 -0.001926453
-0.027356012 -0.014900092 -0.024831012 0.013914138 -0.0029582626 -0.018858338 0.03513612 0.022838116
-0.015276906 0.036999106 -0.012102301 -0.052070636 -0.044809703 -0.0044510495 -0.03472229 0.027955098
-0.016869046 -0.012714419 -0.008242798 0.043544687 0.034284804 0.028097263 0.029267862 0.045753855
0.010780708 -0.011648625 0.033817917 -0.039289422 0.0047660596 -0.03075946 -0.0037350021 0.015534452
0.04000684 -0.003847198 0.016845157 0.019996807 0.012233418 -0.039970323 -0.004482503 0.038140327
00000000: 4a0a ef3c 8f5d 2d3d 11ff 013d 080a 9539
00000010: 48e6 923c 825c d0ba b68d 14bd 0981 fcba
00000020: b719 e0bc 841f 74bc 686a cbbc 20f8 633c
00000030: 69df 41bb cd7c 9abc e4ea 0f3d 0017 bb3c
00000040: fd4b 7abc 608c 173d bb48 46bc 0548 55bd
00000050: 618a 37bd 1cda 91bb f638 0ebd 1702 e53c
00000060: f430 8abc 2350 50bc cd0c 07bc ea5b 323d
00000070: 396e 0c3d 3b2c e63c 28c3 ef3c 6568 3b3d
00000080: 91a1 303c e0d9 3ebc a884 0a3d f2ed 20bd
00000090: 9b2c 9c3b 43fb fbbc f0c6 74bb 3784 7e3c
000000a0: 36de 233d 4621 7cbb dbfe 893c 58d0 a33c
000000b0: ad6e 483c ecb7 23bd f6e1 92bb 0839 1c3d

layers.1.fc_self.weight f4 [48, 48]
0.30884746 -0.35511163 0.11331814 -0.100163996 -0.3235028 0.3784212 0.21994178 -0.14688301
-0.10194898 0.045472823 0.28177103 0.31142738 0.16549557 -0.24569406 -0.18681626 -0.055783257
-0.0010000436 0.14264216 -0.44315508 0.029339168 0.0060879313 -0.19478886 -0.11221075 0.42121366
-0.0583154 0.26554078 -0.22557768 0.18489656 -0.21056314 -0.28281748 0.0029785526 0.0072748493
-0.05678067 0.046535756 -0.30968174 -0.26798522 -0.3699013 0.15455818 0.21575904 -0.055521965
-0.22251731 0.27745575 -0.2593808 -0.099127375 -0.23761256 -0.30787063 -0.29570636 0.30333406
0.40379 -0.14929846 -0.11734413 -0.01844664 0.03005254 0.20212646 -0.43049195 -0.1745114
-0.29872128 -0.07790301 0.20472589 0.18608882 0.23106568 -0.3507995 -0.052819297 -0.09048523
-0.08363663 0.10108064 -0.3166841 0.1559895 0.058995433 -0.0704561 -0.13978931 0.30370423
0.031108953 0.13436669 0.32152072 0.08510167 0.1768037 -0.42628384 0.11529664 0.37639412
0.20254844 0.02319453 -0.41821337 0.04872979 0.22859073 0.15211871 -0.124017954 -0.30803868
-0.19677413 -0.30213434 0.2633096 0.09862864 0.37828505 0.34715676 -0.2492469 0.36153886
0.19406223 0.07635895 0.04273822 -0.24676909 0.31462935 0.13333015 0.014847221 -0.08169338
0.07316667 0.25264326 0.34457043 -0.024633318 0.14374442 -0.178491 0.019257952 -0.12684947
-0.031082625 -0.13044827 -0.32538354 -0.33347347 -0.2735656 0.07970351 -0.10724994 -0.29847452
-0.43925843 -0.24708673 -0.31519127 -0.41132566 -0.041569542 -0.31106818 -0.029652834 -0.02114037
-0.1490121 -0.03704841 -0.037725467 0.2225646 -0.31169775 -0.016217731 0.41677403 0.15720771
0.28575602 0.0143275 0.42051595 -0.37540755 -0.14807366 0.13913706 0.12266465 0.23700033
0.26433086 -0.18336773 0.29929084 -0.0051652086 -0.29153776 0.12929988 -0.35624927 0.43317518
0.21459855 -0.28044713 -0.31382644 -0.3804139 -0.38205823 0.051122133 0.19702262 0.3829737
-0.13744657 -0.35283333 0.27679813 -0.15808256 -0.4303932 0.18061168 0.4050192 0.3453223
0.21001862 0.032210212 0.39190856 0.15599716 -0.046562284 -0.07547309 -0.4001624 -0.34464955
-0.035114795 0.21534291 -0.41446018 -0.0123102 0.17311749 0.09551451 -0.2128045 -0.33105052
-0.2349154 0.0057212445 -0.18654846 -0.21454465 0.06034493 -0.014960963 -0.23870204 -0.097345345
-0.32631576 0.191072 -0.25076234 0.11096354 0.20416027 -0.43080252 0.15493105 -0.06076836
0.28287432 0.32946178 -0.26159072 -0.29223552 0.263932 -0.03490621 0.44289127 -0.36603475
-0.061522305 0.1628604 -0.2693806 -0.0817896 0.07465629 -0.15838863 0.44675365 -0.39749667
-0.08433925 0.27821216 0.30062646 0.23752353 0.44711754 -0.285823 -0.2572341 -0.061062664
-0.25830543 -0.1924458 -0.1310078 0.3600603 0.2957876 0.26115784 -0.1506671 -0.2209821
-0.37280545 0.27653685 0.39824176 0.18880557 -0.2979592 0.39739156 0.031739168 0.2786209
-0.34972784 -0.28016406 0.30029443 -0.28437713 -0.036192995 0.13103656 0.12907629 0.22607219
0.16308528 0.25933087 -0.0077858064 0.26335365 0.20079999 -0.22055139 0.31874987 0.07952956
00000000: 4121 9e3e 31d1 b5be 5713 e83d c822 cdbd
00000010: 29a2 a5be 6cc0 c13e 6b38 613e 8068 16be
00000020: a0ca d0bd b641 3a3d 4b44 903e 6973 9f3e
00000030: ac77 293e 3997 7bbe c34c 3fbe fc7c 64bd
00000040: e513 83ba c910 123e 39e5 e2be b258 f03c
00000050: 457d c73b bb76 47be c0ce e5bd 51a9 d73e
00000060: 21dc 6ebd f6f4 873e d6fd 66be 8655 3d3e
00000070: dd9d 57be 74cd 90be d233 433b dc61 ee3b
00000080: d992 68bd 479c 3e3d 9b8e 9ebe 5c35 89be
00000090: b463 bdbe 8044 1e3e f0ef 5c3e 006b 63bd
000000a0: 94db 63be ae0e 8e3e 8fcd 84be 4b03 cbbd
000000b0: b550 73be 38a1 9dbe d366 97be 9a4e 9b3e
000000c0: 90bd ce3e b2e1 18be 1f52 f0bd 681d 97bc
000000d0: bf30 f63c 3dfa 4e3e 7169 dcbe 1eb3 32be
000000e0: fff1 98be 9d8b 9fbd aaa3 513e 118e 3e3e
000000f0: 7b9c 6c3e fe9b b3be 0c59 58bd 5250 b9bd
00000100: ae49 abbd 5e03 cf3d 6b24 a2be b6bb 1f3e
00000110: 32a5 713d 4a4b 90bd ee24 0fbe 1f7f 9b3e
00000120: 34d8 fe3c 6c97 093e 5d9e a43e c949 ae3d
00000130: 070c 353e e041 dabe a520 ec3d bbb6 c03e
00000140: dc68 4f3e 7402 be3c 1020 d6be e398 473d
00000150: b013 6a3e 02c5 1b3e 20fd fdbd 3fb7 9dbe
00000160: 287f 49be 5ab1 9abe 84d0 863e d0fd c93d
00000170: 94ae c13e 88be b13e 943a 7fbe 9f1b b93e
00000180: 40b8 463e 1562 9c3d 460e 2f3d 09b1 7cbe
00000190: 1917 a13e b387 083e c241 733c dc4e a7bd
000001a0: 68d8 953d 755a 813e 896b b03e d0cb c9bc
000001b0: bd31 133e 58c6 36be dac2 9d3c d4e4 01be
000001c0: fda0 febc 3b94 05be ac98 a6be 09bd aabe
000001d0: ca10 8cbe 983b a33d dba5 dbbd a7d1 98be
000001e0: 7be6 e0be 4e04 7dbe c060 a1be 4799 d2be
000001f0: d344 2abd 5444 9fbe 80ea f2bc 922e adbc
00000200: a196 18be 13c0 17bd 0586 1abd f9e7 633e
00000210: d996 9fbe 0cdb 84bc 6863 d53e 0ffb 203e
00000220: 9d4e 923e e4bd 6a3c de4d d73e 6b35 c0be
00000230: 9fa0 17be f279 0e3e 9b37 fb3d 37b0 723e
00000240: 6056 873e c0c4 3bbe a63c 993e e940 a9bb
00000250: 7044 95be 3067 043e 4e66 b6be 23c9 dd3e
00000260: b9bf 5b3e c496 8fbe dcad a0be 9cc5 c2be
00000270: 239d c3be 7165 513d 4cc0 493e 2115 c43e
00000280: cbbe 0cbe 92a6 b4be 7cb8 8d3e 65e0 21be
00000290: 7f5c dcbe 45f2 383e ad5e cf3e 16ce b03e
000002a0: 1f0f 573e dbee 033d 3da8 c83e b8bd 1f3e
000002b0: 18b8 3ebd a391 9abd 16e2 ccbe e875 b0be
000002c0: 88d4 0fbd da82 5c3e 2034 d4be b9b0 49bc
000002d0: b645 313e 1d9d c33d 6ce9 59be 747f a9be
000002e0: aa8d 70be 4779 bb3b 8f06 3fbe 98b1 5bbe
000002f0: 3f2c 773d d41e 75bc 4f6e 74be ff5c c7bd
00000300: dc12 a7be 61a8 433e ec63 80be da40 e33d
00000310: 640f 513e 2692 dcbe 3fa6 1e3e 3ee8 78bd
00000320: e7d4 903e 37af a83e 38ef 85be e59f 95be
00000330: 1822 873e d0f9 0ebd a5c2 e23e e868 bbbe
00000340: d0fe 7bbd e0c4 263e 41ec 89be 4e81 a7bd
00000350: 66e5 983d a130 22be e5bc e43e af84 cbbe
00000360: 0fba acbd d371 8e3e b6eb 993e 5e39 733e
00000370: 97ec e43e 6457 92be 30b4 83be d81c 7abd
00000380: 9c40 84be 8310 45be e926 06be d359 b83e
00000390: 7971 973e 7bb6 853e 7a48 1abe 2249 62be
000003a0: 5be0 bebe 3d96 8d3e 58e6 cb3e 3f56 413e
000003b0: 1c8e 98be e876 cb3e ee00 023d 66a7 8e3e
000003c0: 870f b3be aa71 8fbe 31c0 993e e199 91be
000003d0: 1b3f 14bd 732e 063e 932c 043e 787f 673e
000003e0: d4ff 263e 04c7 843e 1420 ffbb 4ad6 863e
000003f0: 839e 4d3e 39d8 61be 2f33 a33e 65e0 a23d

layers.1.fc_neigh.weight f4 [48, 48]
-0.11875599 -0.38715857 -0.34830934 -0.028626949 0.114787 0.10092264 0.29106647 -0.1892627
0.24621247 -0.024751475 -0.037965555 -0.0840652 0.28820774 -0.08981396 0.2991602 0.22909541
-0.32691112 0.09137677 0.29250905 0.3030057 -0.24975722 0.36182722 0.31091917 0.30942363
-0.15475897 -0.12491415 0.1986161 0.1382996 -0.14034261 0.21258287 0.10473186 -0.1126808
-0.018359475 0.0037320964 -0.22592098 -0.40803996 0.17667143 0.33668807 -0.13831683 0.36276463
0.1034482 0.0017895283 -0.08693297 -0.09124552 -0.10854373 -0.060556624 -0.081247106 -0.1731729
0.17897578 -0.24132791 0.0352072 -0.2801976 0.35851106 -0.28471023 0.11146995 0.30009368
0.23080334 0.20681891 -0.35038412 -0.11965426 0.089820154 0.23733342 0.014141019 0.3577575
0.10595829 -0.35020837 0.17660522 0.27310896 0.26075646 -0.24806175 -0.10802972 -0.18163534
0.37276888 -0.14317995 -0.13678977 0.121988714 -0.061192878 -0.0061486824 -0.23938854 0.334927
0.042280573 0.24464247 0.023482127 -0.23098275 0.24535245 0.26352337 -0.17244454 0.11725142
-0.09858001 -0.30233943 0.2762163 0.2433714 0.39444792 -0.031974822 0.010632217 -0.17794846
-0.2164619 0.0879957 0.16624013 0.050156087 0.047297806 -0.18533143 0.07524729 -0.19025812
0.012329332 0.37170246 -0.20395656 0.047407217 -0.21573521 -0.33325496 0.29176292 0.29819727
0.21966249 -0.2344701 -0.3551679 -0.13170132 -0.19971125 -0.31235272 0.30563137 0.09941779
0.13545749 0.2976762 -0.047125548 0.113521345 -0.018287309 0.17181854 -0.17863572 -0.12716113
-0.31001928 -0.2931085 0.21168098 -0.06816803 0.087571695 -0.115111515 0.40434587 0.17338307
0.252924 -0.01394849 0.2137278 -0.22982778 0.2229987 -0.1216603 -0.13310798 0.24287201
-0.28628808 0.13704121 0.13241506 0.01269205 0.2177964 0.16890165 0.34521663 0.13848141
-0.42467946 -0.34048352 0.31350422 0.25419852 -0.34513733 -0.3197889 0.40181178 0.021547196
-0.37310502 -0.21020629 0.40114963 0.41069484 0.032379743 0.26084447 -0.033364333 0.15888824
-0.13854918 -0.24723925 -0.08423711 0.010647266 0.16713856 -0.3277097 0.2853375 -0.21082254
-0.10973875 0.018019373 0.113755934 -0.35592213 0.15905537 0.017297331 -0.26703584 0.3329213
0.2753452 0.021942578 -0.25378248 0.32337862 0.05569905 -0.26865822 0.11225863 0.055149186
0.14440787 0.33112428 0.34277916 0.010957281 0.2956299 0.17868476 -0.14664084 -0.0770359
0.07216755 0.10367863 -0.21097991 -0.032315735 0.0415873 -0.099126 0.04703777 0.12133749
0.1580459 -0.15390801 0.122597046 0.3033797 -0.23580317 -0.37150782 -0.2833017 0.07849312
0.34322742 -0.1075019 0.34671384 0.038305238 0.29094315 -0.16357276 -0.11837502 -0.317363
-0.11661272 0.32956842 0.20940882 0.32470292 0.073557526 -0.336586 -0.16734913 -0.061091438
-0.3115548 0.20232387 -0.18222381 0.0022238526 -0.052329354 -0.2501173 -0.3373909 0.19514917
-0.21637356 0.3450371 0.3304422 -0.14620417 -0.17524283 0.1959064 -0.36415607 0.20699377
0.17877236 -0.20005073 -0.19873427 0.08043726 -0.0318859 0.13169138 -0.27574134 -0.24313113
00000000: 5736 f3bd a639 c6be 9a55 b2be 1083 eabc
00000010: 7215 eb3d 87b0 ce3d aa06 953e 15ce 41be
00000020: 1f1f 7c3e 9bc3 cabc c581 1bbd 602a acbd
00000030: f78f 933e 62f0 b7bd 872b 993e fd97 6a3e
00000040: e560 a7be be23 bb3d bfc3 953e 9023 9b3e
00000050: 5bc0 7fbe 6b41 b93e cc30 9f3e c66c 9e3e
00000060: 2379 1ebe fdd2 ffbd 0562 4b3e 699e 0d3e
00000070: f9b5 0fbe 53af 593e a87d d63d 31c5 e6bd
00000080: 9c66 96bc 3096 743b d457 67be 9dea d0be
00000090: 5be9 343e 6162 ac3e eda2 0dbe 49bc b93e
000000a0: a6dc d33d 9b8e ea3a ea09 b2bd eede babd
000000b0: 2d4c debd 390a 78bd e264 a6bd 3d54 31be
000000c0: 6d45 373e aa1e 77be 6d35 103d 0f76 8fbe
000000d0: c38e b73e 8ac5 91be 5b4a e43d e1a5 993e
000000e0: b657 6c3e 56c8 533e 8c65 b3be 4b0d f5bd
000000f0: a1f3 b73d 8807 733e bcaf 673c fe2b b73e
00000100: a900 d93d 834e b3be 00d8 343e f0d4 8b3e
00000110: df81 853e e603 7ebe b03e ddbd 9dfe 39be
00000120: 90db be3e c49d 12be 9e12 0cbe 38d5 f93d
00000130: 62a5 7abd e37a c9bb 4522 75be 8d7b ab3e
00000140: 652e 2d3d 8e83 7a3e 975d c03c be86 6cbe
00000150: ac3d 7b3e 89ec 863e 4d95 30be 8321 f03d
00000160: 51e4 c9bd 3ccc 9abe 396c 8d3e 5a36 793e
00000170: 14f5 c93e 08f8 02bd c032 2e3c 1f38 36be
00000180: 30a8 5dbe 1737 b43d da3a 2a3e 7870 4d3d
00000190: 58bb 413d 86c7 3dbe 401b 9a3d 06d3 42be
000001a0: f700 4a3c c94f be3e fdd9 50be 122e 423d
000001b0: b1e9 5cbe 65a0 aabe f361 953e 50ad 983e
000001c0: 34ef 603e ee18 70be 91d8 b5be b6dc 06be
000001d0: 1b81 4cbe b2ec 9fbe b77b 9c3e 8e9b cb3d
000001e0: 5eb5 0a3e 0469 983e b806 41bd e17d e83d
000001f0: 44cf 95bc 33f1 2f3e 48ec 36be 8736 02be
00000200: d9ba 9ebe 5112 96be e6c2 583e ae9b 8bbd
00000210: ca58 b33d 96bf ebbd 6c06 cf3e 558b 313e
00000220: 417f 813e 3588 64bc 76db 5a3e f957 6bbe
00000230: c559 643e 0929 f9bd 754d 08be 71b3 783e
00000240: 5a94 92be 8854 0c3e d097 073e 51f2 4f3c
00000250: 0506 5f3e 8ef4 2c3e 3cc0 b03e 12ce 0d3e
00000260: 966f d9be db53 aebe a083 a03e 4f26 823e
00000270: d7b5 b0be 5fbb a3be 46ba cd3e bf83 b03c
00000280: 9f07 bfbe 5140 57be 7c63 cd3e 9846 d23e
00000290: 9fa0 043d 688d 853e 0aa9 08bd 99b3 223e
000002a0: d6df 0dbe 492c 7dbe 8284 acbd df71 2e3c
000002b0: 5f26 2b3e 91c9 a7be c217 923e dde1 57be
000002c0: b6be e0bd 5d9d 933c dff8 e83d 6d3b b6be
000002d0: 69df 223e 22b3 8d3c ecb8 88be a974 aa3e
000002e0: 0cfa 8c3e ecc0 b33c c7ef 81be e291 a53e
000002f0: b024 643d 928d 89be dae7 e53d 1de4 613d
00000300: a8df 133e 1f89 a93e c080 af3e 2b86 333c
00000310: cd5c 973e 23f9 363e 0429 16be ffc4 9dbd
00000320: 95cc 933d 7655 d43d 1e0b 58be 815d 04bd
00000330: 7257 2a3d 9302 cbbd adaa 403d ca7f f83d
00000340: c9d6 213e 109a 1dbe 2914 fb3d 9654 9b3e
00000350: 6376 71be 4636 bebe ec0c 91be 00c1 a03d
00000360: 81bb af3e f529 dcbd 7a84 b13e f4e5 1c3d
00000370: 80f6 943e 9e7f 27be 9a6e f2bd 677d a2be
00000380: a6d2 eebd 31bd a83e 446f 563e 763f a63e
00000390: 54a5 963d 0055 acbe 925d 2bbe 043b 7abd
000003a0: 1c84 9fbe fd2d 4f3e e198 3abe 0ebe 113b
000003b0: 4e57 56bd 600f 80be 80be acbe 2fd5 473e
000003c0: 0891 5dbe b4a8 b03e b82f a93e 8cb6 15be
000003d0: db72 33be b09b 483e aa72 babe 2df6 533e
000003e0: 1a10 373e 19da 4cbe ff80 4bbe 4abc a43d
000003f0: ca9a 02bd 1bda 063e f82d 8dbe 5ef7 78be

fc1.weight f4 [7, 48]
-0.13946673 -0.010228514 0.20741606 -0.28563088 0.09322974 -0.03663764 -0.18998198 -0.14296266
0.017830873 0.16037099 0.24092016 -0.23825008 0.20469537 0.15669645 0.058822732 -0.2265483
-0.08367711 -0.13532254 0.04480175 -0.23957174 0.18232633 0.2080887 0.13847688 0.23232922
0.037517857 0.21433027 0.16480887 -0.14033313 -0.007799693 -0.029673966 -0.1549627 -0.21597986
-0.14379548 -0.13060531 -0.15566556 0.020342592 0.023660026 0.13727045 -0.20221096 -0.1375546
0.05164297 -0.10658075 -0.13568136 0.067853615 -0.21557698 0.22627649 0.07157517 0.08498488
0.00583612 -0.074056394 0.02499253 0.16138427 -0.14151418 -0.011415366 -0.013995314 -0.22176413
-0.16046391 -0.03132131 0.05182955 0.05021736 -0.06362295 -0.031945497 -0.10771639 0.13214321
0.24947184 0.06942083 0.029231125 0.023601776 0.014830442 0.22945927 0.20106646 -0.2372453
-0.0008798504 -0.079053305 0.058091287 -0.21323739 0.23243049 0.16308835 -0.17910838 -0.010921825
-0.21536116 -0.18113886 0.13382263 0.18363604 -0.037968766 0.045196112 0.20629655 -0.112248965
-0.16572392 0.21329433 -0.009200235 0.22263288 -0.010882532 0.16203104 -0.051686805 -0.19244856
0.10428302 0.22003274 0.27541116 -0.17377774 0.15287623 0.13675697 -0.27010092 0.05826902
-0.16705063 0.006984587 -0.04277934 0.151003 0.09036487 -0.041835923 0.25415677 0.20455128
0.031980854 0.094106115 -0.22236165 -0.23113205 -0.016510865 0.06679695 -0.10382743 0.19335252
-0.24630092 -0.09610885 -0.10443684 0.1945835 0.24854012 0.028217033 0.24744797 0.21790677
0.07599399 0.041128576 0.23336314 -0.1193322 -0.10786265 -0.13509934 0.119372755 0.12093871
0.18433914 0.18074106 -0.06281965 -0.0030849772 -0.026362209 -0.1893912 0.014587376 0.1416222
0.1730149 0.22497976 -0.06864033 0.24552374 -0.09758505 -0.25023714 0.10674947 0.047903012
0.034865282 -0.14247708 -0.2588412 -0.17257799 -0.08022988 0.08892226 -0.11369266 0.03527587
-0.27097043 0.17780566 -0.12824371 -0.09195643 0.033136226 -0.2297577 -0.16808012 0.21501769
0.26354462 0.14824937 0.07719695 0.037374657 -0.075951874 0.018773349 0.2475925 0.07092267
0.09862014 -0.08834874 -0.16748562 -0.22902936 0.1009551 0.22956984 -0.19416866 -0.12691264
0.15526682 -0.19292575 -0.04044415 0.032732252 -0.055689912 -0.048599917 0.04569813 0.24200407
-0.26755437 0.094395414 -0.2030997 0.10284221 0.24672821 0.24623899 0.20361722 0.20564567
-0.16038494 0.18223423 0.13438796 0.16542514 -0.067284636 0.001204144 -0.041065324 -0.07455949
-0.018089268 -0.0639859 -0.20106137 0.051085915 0.19972897 -0.19682841 0.23340723 -0.10060492
-0.03658736 0.24316569 -0.0063237497 -0.0980732 -0.20712824 -0.25124168 -0.09345213 -0.026616186
-0.10655655 0.24598119 0.07776348 0.12705572 0.025488792 0.1373285 0.04809114 -0.19251
0.0037177138 0.12839587 0.10378061 -0.2408461 0.14054962 0.14865708 0.20603448 0.0094655035
0.05201432 -0.12154575 -0.128173 -0.064625606 -0.19511816 -0.1269625 0.018557722 0.22056326
0.19399932 -0.17490226 -0.08982013 0.09567114 -0.0010271355 0.055114657 -0.074702956 0.25393528
00000000: 5ed0 0ebe 7f95 27bc e064 543e 363e 92be
00000010: 3cef be3d 5a11 16bd a38a 42be ce64 12be
00000020: 0d12 923c 4b38 243e c6b3 763e d4f7 73be
00000030: aa9b 513e 0975 203e 1bf0 703d 47fc 67be
00000040: e85e abbd fe91 0abe 0a82 373d 4b52 75be
00000050: c1b3 3a3e 3415 553e e2cc 0d3e b6e7 6d3e
00000060: 53ac 193d 6579 5b3e a8c3 283e 7db3 0fbe
00000070: 9194 ffbb d116 f3bc 8bae 1ebe d329 5dbe
00000080: 1f3f 13be 66bd 05be cb66 1fbe 82a5 a63c
00000090: acd2 c13c a090 0c3e 6410 4fbe 1ddb 0cbe
000000a0: 9487 533d 0247 dabd 0ef0 0abe d6f6 8a3d
000000b0: 36c0 5cbe 06b5 673e 0196 923d 8e0c ae3d
000000c0: ec3c bf3b e1aa 97bd 22bd cc3c eb41 253e
000000d0: 18e9 10be 8407 3bbc 9a4c 65bc 2316 63be
000000e0: a750 24be c64a 00bd 394b 543d b8b0 4d3d
000000f0: c04c 82bd 48d9 02bd 699a dcbd 8d50 073e
00000100: 8c75 7f3e 822c 8e3d 1d76 ef3c 8358 c13c
00000110: 62fb 723c 5ff7 6a3e 5ee4 4d3e 6ff0 72be
00000120: c3a5 66ba b3e6 a1bd 21f1 6d3d e75a 5abe
00000130: 4202 6e3e a200 273e 3068 37be 74f1 32bc
00000140: a387 5cbe 777c 39be cd08 093e 160b 3c3e
00000150: 2385 1bbd 8f1f 393d 673f 533e c9e2 e5bd
00000160: 88b3 29be d469 5a3e 95bc 16bc e0f9 633e
00000170: a64c 32bc 77eb 253e 8bb5 53bd 3c11 45be
00000180: 5692 d53d 4350 613e b102 8d3e cbf2 31be
00000190: 968b 1c3e 050a 0c3e ab4a 8abe 7fab 6e3d
000001a0: 520f 2bbe f6de e43b 6439 2fbd 88a0 1a3e
000001b0: 3811 b93d 255c 2bbd d620 823e e475 513e
000001c0: 5bfe 023d b5ba c03d c6b2 63be e1ad 6cbe
000001d0: cb41 87bc d7cc 883d 7aa3 d4bd 34fe 453e
000001e0: 4f36 7cbe b7d4 c4bd fbe2 d5bd e640 473e
000001f0: 4d81 7e3e 6827 e73c 0063 7d3e f422 5f3e
00000200: bda2 9b3d 7076 283d bff6 6e3e 7164 f4bd
00000210: 18e7 dcbd 7b57 0abe b479 f43d b7ae f73d
00000220: 66c3 3c3e 2f14 393e 97a7 80bd 542d 4abb
00000230: 8ff5 d7bc c4ef 41be e4ff 6e3c 6905 113e
00000240: d12a 313e 1861 663e 4d93 8cbd 936a 7b3e
00000250: acda c7bd 151f 80be 779f da3d f335 443d
00000260: e6ce 0e3d 83e5 11be d586 84be 49b8 30be
00000270: 904f a4bd e01c b63d b3d7 e8bd 6e7d 103d
00000280: a3bc 8abe b012 363e 5252 03be a753 bcbd
00000290: dab9 073d 9a45 6bbe 321d 2cbe 992d 5c3e
000002a0: 52ef 863e afce 173e 6f19 9e3d 2b16 193d
000002b0: a88c 9bbd 91ca 993c e388 7d3e e83f 913d
000002c0: 5bf9 c93d 2ff0 b4bd 5a81 2bbe ac86 6abe
000002d0: 8cc1 ce3d 5b14 6b3e 26d4 46be 63f5 01be
000002e0: 44fe 1e3e 548e 45be c4a8 25bd 4112 063d
000002f0: 1b1b 64bd b510 47bd f62d 3b3d eacf 773e
00000300: e3fc 88be 6252 c13d 5ef9 4fbe f09e d23d
00000310: 52a6 7c3e 1326 7c3e 0881 503e c794 523e
00000320: f33b 24be 9c9b 3a3e ff9c 093e 3565 293e
00000330: 87cc 89bd 5ed4 9d3a 1d34 28bd a5b2 98bd
00000340: f22f 94bc 0a0b 83bd 08e3 4dbe 773f 513d
00000350: c085 4c3e 638d 49be 4e02 6f3e f409 cebd
00000360: a1dc 15bd 6d00 793e 7537 cfbb 9ada c8bd
00000370: 6d19 54be c0a2 80be d563 bfbd 300a dabc
00000380: 523a dabd 7ee2 7b3e 7642 9f3d e51a 023e
00000390: dfcd d03c d89f 0c3e 37fb 443d 5721 45be
000003a0: e3a4 733b 357a 033e ee8a d43d 5ca0 76be
000003b0: 3dec 0f3e 9039 183e b4fa 523e 3315 1b3c
000003c0: f80c 553d faec f8bd c83f 03be 6e5a 84bd
000003d0: 0ecd 47be 7502 02be 5d06 983c 56db 613e
000003e0: c2a7 463e 9419 33be 9ef3 b7bd 3bef c33d
000003f0: f3a0 86ba e8bf 613d ddfd 98bd ce03 823e

fc1.bias f4 [7]
0.088453054 -0.04223612 -0.075420946 -0.056809705 -0.16258952 0.10667888 0.1246527
00000000: e026 b53d c8ff 2cbd 4c76 9abd 4bb1 68bd
00000010: de7d 26be 757a da3d ea49 ff3d
