models/current_checkpoint_amazon-comp.pt (torch, 318155 bytes, 8 tensors)

layers.0.bias f4 [48]
000000 e8 0b 2c bd 74 2e 7c 3d dc e5 71 bd ed 6e 9e 3d
       -0.042003542 0.06156774 -0.0590571 0.07736001
000010 8c cf 3a 3d 27 74 89 bd 5b ba 20 3d bf 36 8d 3d
       0.04560809 -0.067116074 0.039240222 0.068952076
000020 c7 f0 51 3c e8 a5 ed bd a3 c0 1b bd 8d 81 b9 bb
       0.012813753 -0.1160391 -0.03802551 -0.0056611956
000030 73 f4 cb 3d 7c 73 0c bd 12 95 7d bd 18 65 81 3d
       0.09958734 -0.034289822 -0.061909743 0.0631811
000040 b8 61 dc 3d 90 a5 0e 3d de bc 6c bd 6a 5f dd 3c
       0.10760826 0.03482586 -0.057797305 0.027023036
000050 18 b3 3d 3e 05 fe 10 bd db 33 2c bc ba 3b 47 be
       0.1852535 -0.035398502 -0.01051041 -0.19456378
000060 59 1d cf bd 84 64 f0 bd 75 b8 e8 3d ff b4 20 3d
       -0.101130195 -0.11737922 0.113633074 0.03923511
000070 bb d3 c4 3d 73 e8 fe 3b ce 5f db bc 6a 4a 26 bb
       0.09610697 0.007779175 -0.026779082 -0.0025373944
000080 55 b4 8c 3c d5 0e 21 be 8d ab 03 be 7c 54 d1 3d
       0.017175833 -0.15728314 -0.1285841 0.10221192
000090 66 21 51 bc 84 c7 02 be 2d b4 98 3d 86 c2 03 3e
       -0.01276431 -0.12771422 0.07456241 0.12867174
0000a0 c6 72 f7 3c 5f 73 81 bd 1c b7 93 bc 4d c9 c5 3d
       0.030206095 -0.063208334 -0.01803165 0.09657536
0000b0 57 d5 83 3d fa 28 91 3c cf 03 0d 3e 7a 19 b0 bd
       0.06437176 0.017719734 0.13770984 -0.08598609

layers.0.fc_self.weight f4 [48, 767]
000000 2d d7 3b bc 83 74 46 3e 26 09 bf bd 4e 39 85 3c
       -0.011464876 0.19380383 -0.09327917 0.016262677
000010 a7 59 80 3c d8 07 a0 3d d7 4f eb bd f3 ff 2c be
       0.01566775 0.07813996 -0.114898376 -0.16894512
000020 10 31 48 3d 99 20 d0 3d ff bc e2 bd 3a 55 07 be
       0.048874915 0.101624675 -0.110712044 -0.13216105
000030 fa 01 04 3e cc 95 12 be e5 e9 dd 3d 0c 4a c5 3d
       0.12891379 -0.14314955 0.108356275 0.09633264
000040 55 18 29 be 4f c2 a9 bd 33 ad 4a 3c e6 47 b1 bd
       -0.16513188 -0.082890145 0.0123703955 -0.08656292
000050 fa 54 a9 3c b3 6b 32 be ee 44 70 3d 8e b1 69 bd
       0.020670403 -0.17423896 0.058659486 -0.057054095
000060 81 20 91 bd 02 40 5e 3d b0 20 19 3e 7d bb 44 bd
       -0.07086278 0.05426026 0.14953876 -0.048030365
000070 8f a0 54 bd 3b 47 ca 3b e3 52 2a be 2d e0 10 3e
       -0.051910933 0.006173042 -0.16633181 0.14148016
000080 c3 87 2c 3e 0f e4 22 3e fa da 9e 3d 43 c6 47 3b
       0.16848664 0.1590731 0.0775661 0.0030483163
000090 b0 69 db bd 75 bd b7 3d 10 9b 02 be d0 77 63 bd
       -0.10713518 0.08971683 -0.12754464 -0.055534184
0000a0 ba f2 b0 3c fd 5d 6b 3d 90 5f c8 3c 1b 86 de bd
       0.021600116 0.05746268 0.02445963 -0.10865422
0000b0 c6 07 eb bd 34 72 9b 3c 4c b2 95 bc 6a d1 01 3c
       -0.11476092 0.018975355 -0.018273495 0.007923463
0000c0 65 6e 00 bd 83 93 b0 3d ca af 17 bb 11 1d 72 3e
       -0.03135528 0.08621886 -0.002314555 0.236439
0000d0 bf 8c 06 3e cb 5e b9 3c 4e fd b1 3d 81 3c 34 be
       0.13139628 0.022628209 0.08690892 -0.17601205
0000e0 2d b1 10 3d 5f 0c f3 bc 17 db a2 bd cb 64 b3 3c
       0.035325218 -0.029668985 -0.07951944 0.021898648
0000f0 06 50 c1 bd b8 b5 b7 3c 20 26 58 bd e1 10 d7 bd
       -0.094390914 0.022425517 -0.052770734 -0.10501266
000100 d7 db c9 3c 5a 32 88 3d bb 27 90 bb 68 de ad bb
       0.02464096 0.06650229 -0.0043992675 -0.005306054
000110 35 98 bf 3d 6e 7c 0b be 93 65 2f 3d 55 41 6c bd
       0.09355203 -0.13621685 0.042821478 -0.057679493
000120 86 29 8d bd c9 6f ed 3c f9 f2 e5 3d f9 e7 dc 3d
       -0.068926856 0.028983967 0.11227984 0.10786433
000130 96 cb 4f be 81 05 0e 3e e9 68 30 be eb ec 18 bd
       -0.20292506 0.13869287 -0.1722752 -0.037335318
000140 8d eb f9 bd 0c 9b 5a be 35 b1 54 be 0f 65 0a bc
       -0.12203131 -0.21348208 -0.20770724 -0.008446946
000150 10 b2 58 bd be 74 0a 3d 2b 56 69 bc bf f9 43 3d
       -0.05290419 0.03380274 -0.014241735 0.0478456
000160 e6 59 66 ba 7e ae a4 bd 8d 89 68 3d 16 86 86 3b
       -0.00087871996 -0.08041094 0.056771804 0.0041053398
000170 60 be 1e bc 21 56 e4 3b b1 7b 54 bd 7b 63 4b bd
       -0.009688944 0.006968275 -0.051875774 -0.04965542
000180 78 10 40 3d 4f 59 34 bd 60 66 d4 3d 9d bf 80 bd
       0.046890706 -0.044030484 0.10371089 -0.06286547
000190 20 95 7b 3d 65 ab 92 3d e1 25 84 bc db 65 bb 3c
       0.061421514 0.07161597 -0.016131343 0.022875717
0001a0 fe d2 8d bd 23 e1 0a be ae 77 6c bc fc 84 0d 3e
       -0.06925009 -0.13562445 -0.014432831 0.13820261
0001b0 20 4b c5 bc d3 a4 67 bd d3 9b a5 3d e6 94 e0 3d
       -0.024083674 -0.056553673 0.08086362 0.109659
0001c0 d7 53 eb 3b e2 b9 12 bd 59 03 67 3d b9 c1 12 3c
       0.0071816253 -0.035821803 0.056399677 0.00895732
0001d0 a1 56 e6 bc 65 8a 43 be 3c c6 d8 3d f6 16 9e bc
       -0.02811748 -0.19095762 0.10584685 -0.019298058
0001e0 2e 61 81 3d f0 69 57 3b df 3f 8f bd 56 10 d2 3d
       0.06317364 0.003286954 -0.06994604 0.10257022
0001f0 62 bf 19 bd 66 ef 4a bd ae 1b c8 3c 8e b7 f6 3c
       -0.037536032 -0.049544714 0.024427261 0.030116823
000200 03 ec 7b 3d 1f e5 dd 3c a7 6e 5d 3e ea 95 ed bc
       0.061504375 0.027086793 0.21624242 -0.029002149
000210 e2 24 92 3d 08 cf a8 bd de 1e ca 3d f7 ef ed bc
       0.07135941 -0.08242613 0.09869169 -0.029045088
000220 ae 6b 9e 3d 0d 9b 90 bc 67 a3 74 bd e5 d9 b7 bd
       0.07735382 -0.017652059 -0.059726145 -0.08977107
000230 88 f5 89 bd cd bc d1 3b 3b 33 ca 3d 3c 29 16 3e
       -0.067362845 0.0064006806 0.09873053 0.14664167
000240 81 2c 06 be 0d e2 3e 3e 1b 69 04 3d 7d c6 9b 3b
       -0.13102914 0.18640919 0.0323268 0.0047538863
000250 d6 cd 96 3c a6 40 72 3d 08 1a 04 bd f7 d5 38 3e
       0.018408697 0.059143685 -0.032251388 0.18050371
000260 90 dc 38 be 91 da 93 bd 53 bc 11 3b 9d 29 6e bd
       -0.18052888 -0.072194226 0.0022237494 -0.058145154
000270 22 1b 17 3e f5 f3 96 bc e3 f7 16 be 89 ed 36 3d
       0.14756444 -0.018426875 -0.14742999 0.044660125
000280 33 68 9d bd 8a c1 70 3d 9f 63 2d 3d 4d 57 95 bd
       -0.0768589 0.058778323 0.042331334 -0.07292042
000290 8b 6f 3e 3e aa d7 2f 3d e2 33 9c 3d 38 61 15 3e
       0.18597238 0.042930283 0.07627083 0.14587867
0002a0 2a 3a 8b be 75 b6 f2 3d f3 89 ab 3d b3 02 36 be
       -0.27192813 0.11851207 0.08375921 -0.17774467
0002b0 21 42 c2 bb eb f2 01 bb e5 9e 85 3d be 4a 71 bc
       -0.0059282933 -0.0019828628 0.06524447 -0.014727293
0002c0 e1 40 98 bd a9 cb 80 3e b6 b6 78 bd 10 1d 98 3d
       -0.0743425 0.2515538 -0.06072112 0.07427418
0002d0 69 88 f2 bd 40 0e 33 3d 02 02 ee 3d 14 93 93 bd
       -0.118424244 0.04371476 0.11621477 -0.07205787
0002e0 57 eb aa 3d 4e b1 ef 3d 43 6b e9 bb 77 76 ce 3d
       0.08345669 0.1170374 -0.0071233823 0.10081189
0002f0 b3 42 60 3d 6a 95 20 bd 5b 94 fd 3c 91 b5 0c bc
       0.05475111 -0.039204992 0.03095453 -0.008588211
000300 e3 37 a7 bd 13 4d 8e bd e4 3f f8 3c 7d bc d6 3c
       -0.081649564 -0.069482945 0.030303903 0.026212925
000310 a3 5d 9f 3d f3 e1 3f be f1 3b 9e 3d 7e 76 32 bc
       0.07781532 -0.18738537 0.07726277 -0.010892509
000320 06 ef 87 bd 71 5d d3 3c 3c 8b dd bd 20 27 fb bd
       -0.06637387 0.025801392 -0.108175725 -0.12263322
000330 e4 16 0b 3e d5 eb fd bd 67 a9 97 bc 17 8c 44 be
       0.13582951 -0.12398497 -0.018513395 -0.19194065
000340 82 79 b2 3d 3a 4e 87 3d 5b cf 8d bc e5 2f de bd
       0.08714582 0.066067174 -0.017310789 -0.10848979
000350 ea 91 12 bd d0 2b 96 3d 08 f0 96 3c f7 a9 24 be
       -0.035783686 0.07332575 0.018425003 -0.16080461
000360 d3 d0 92 bd a4 aa ec bd f3 20 5b 3d 4e d3 95 bd
       -0.07168736 -0.115559846 0.05349822 -0.07315694
000370 eb 9a 37 bd f9 15 04 be 86 a5 39 3c 25 de 89 3d
       -0.044825476 -0.12899007 0.011330968 0.06731824
000380 61 fc 2c be be ff a6 3d 1e 02 a9 bd ad c1 e2 bd
       -0.1689315 0.08154248 -0.08252357 -0.11072097
000390 7f 26 58 3d 6d 91 04 3d 52 d9 1d be 88 d3 56 3e
       0.052771088 0.03236525 -0.15414932 0.2097913
0003a0 e5 ee 9b 3d c7 71 5b 3d cc ac a0 3d b3 8a ab bd
       0.07613925 0.053575303 0.078454584 -0.08376064
0003b0 a0 78 81 bd 41 6c ee bd 91 c8 4b 3d 7e e2 87 3d
       -0.063218355 -0.116417415 0.049751822 0.06634997
0003c0 73 45 00 3d 29 11 d4 bc 98 d7 d7 bd ec ef 49 3d
       0.031316232 -0.025887089 -0.10539168 0.049301073
0003d0 7a b7 c6 bd 9f d7 4b 3d ee c7 89 3d 89 bb 3d 3d
       -0.09702964 0.04976618 0.06727587 0.046321426
0003e0 95 37 45 3e 81 9c d9 bb d9 64 a4 bd 77 c5 26 bc
       0.19259484 -0.006640971 -0.08027048 -0.010178915
0003f0 12 1e 80 3d 61 25 14 3e c0 13 98 ba b9 81 73 3d
       0.062557355 0.14467384 -0.0011602566 0.059449885

layers.0.fc_neigh.weight f4 [48, 767]
000000 17 10 07 bc b7 db 16 3d 8d 88 2a 3d 31 2a e0 3d
       -0.008243582 0.03683063 0.04163413 0.10945547
000010 14 32 e0 3d 0f d5 14 3e 11 b1 8f bd c0 67 d7 bd
       0.10947052 0.145344 -0.070161946 -0.105178356
000020 f2 cb ca bd 23 07 87 bd 04 bc 33 bd 7b e9 af 3d
       -0.09902181 -0.06593158 -0.043880478 0.08589455
000030 58 a2 49 3d 15 6f 64 3d 64 82 92 bd 2d 9a 1d 3e
       0.04922709 0.05577 -0.07153776 0.15390845
000040 47 20 1c bc b1 ca b5 bc f7 0e 0a be f8 14 75 3c
       -0.00952918 -0.022191377 -0.13482271 0.014958613
000050 0e 8c 20 bd 29 25 b8 3d 44 7f 24 bd 66 35 63 bd
       -0.039196067 0.08991463 -0.040160432 -0.055470847
000060 3d 0f 81 bd a1 4d 88 bd 2a bb eb bc fe e0 b3 3c
       -0.063017346 -0.066554315 -0.02877577 0.02195787
000070 0d d1 c1 3d 41 c7 a3 bd 2f d9 01 be 1f ce 76 3b
       0.094637014 -0.07996989 -0.12680505 0.003765948
000080 ba b3 f5 3d 18 ba cb 3d 7e 15 11 bc 1e b3 ce bd
       0.11997171 0.09947604 -0.008855222 -0.10092758
000090 1c 41 94 bd 03 b9 8f bd b5 a9 45 bd 7d 8e 14 3e
       -0.07238981 -0.0701771 -0.04825755 0.1450748
0000a0 bd a8 9a 3d 13 06 e6 3c fe 64 6c bc 94 22 12 3d
       0.075517155 0.028079068 -0.014428375 0.035677508
0000b0 86 f8 a5 3d 7f bd a7 bd 27 4d 14 bd 9b 3e 07 3e
       0.08104043 -0.081904404 -0.03620639 0.13207476
0000c0 8d 53 b4 3d f8 23 b4 3d 59 56 b0 bc 1f a5 c7 3b
       0.088049985 0.08795923 -0.021525549 0.006092682
0000d0 e1 9d 8c bd 14 e9 16 3e d2 30 02 be 18 31 03 be
       -0.068660505 0.1473735 -0.12713936 -0.12811697
0000e0 78 09 61 3d e5 05 06 be cd 0e e3 bd b5 ac a3 bd
       0.05494067 -0.13088186 -0.110868074 -0.079919256
0000f0 cc c2 6f 3d c7 cb 89 bb 59 49 89 bd fb d4 a6 bd
       0.058535382 -0.0042052004 -0.06703443 -0.081460916
000100 b4 a5 7a bc ff c1 e0 bc 18 3e a7 3d 7c 16 ec bd
       -0.015298296 -0.027436255 0.0816614 -0.11527726
000110 c9 0f 13 bd f3 0d ff 3b 1c b3 5e bb ca a6 46 bd
       -0.035903726 0.0077836453 -0.003398127 -0.048498906
000120 c1 d7 1b 39 f5 da 63 3d a3 94 98 bb a9 2a 09 bc
       0.00014862326 0.055628736 -0.0046563908 -0.008371987
000130 c9 20 24 3d 07 3b 30 bb dd f2 a1 bd 4b de 1c 3d
       0.04007033 -0.0026890652 -0.079076506 0.038297933
000140 b9 44 0f be 90 4d 69 3d b6 e5 98 3d 77 76 a4 3d
       -0.1399106 0.056958735 0.07465689 0.08030408
000150 65 a5 85 bd ed c7 b2 3d 0b 0d 27 be 5b c0 b6 3d
       -0.06525687 0.08729539 -0.16313569 0.08923408
000160 43 d9 eb bd f3 fd f0 3d fd 39 b2 bd ef b6 11 ba
       -0.11516049 0.11767187 -0.08702467 -0.000555857
000170 32 00 f8 bd ae e7 d4 bb 85 a8 5d bd 03 b1 48 bc
       -0.12109412 -0.006497345 -0.05411579 -0.012249234
000180 8a f9 20 3c c4 7c 8b 3b e6 ee bb 3b 3f c0 89 3d
       0.00982512 0.0042568166 0.005735266 0.06726121
000190 d6 c5 d7 bd 16 97 46 3d ad 6d 14 bc 95 2c 48 be
       -0.10535781 0.04848393 -0.009059352 -0.19548257
0001a0 9c d7 05 bc dc 3a 8c bc 1e 55 91 bc 00 38 62 ba
       -0.008169081 -0.01711791 -0.017740782 -0.00086295605
0001b0 1d 5f c0 3d 18 51 2c bd 4f d3 a7 bd 3c 50 c8 3d
       0.093931414 -0.042069525 -0.08194601 0.097809285
0001c0 5f 51 89 bd 92 10 e6 bd c6 3c cb bd 16 09 7e bd
       -0.067049734 -0.11233629 -0.09923701 -0.062020384
0001d0 39 e0 23 3d 57 df f9 3c af e8 8f bd 51 73 97 3c
       0.040008757 0.030502005 -0.07026803 0.018487604
0001e0 7c 93 07 3e b0 ae 47 bc 09 25 05 3e 28 43 78 bb
       0.13239855 -0.012187645 0.13002409 -0.0037881825
0001f0 87 e0 54 3d 4e ca 20 3d fa cd 86 3d cf 7c 26 bd
       0.05197194 0.039255433 0.06582256 -0.04064637
000200 15 7b ca bd 48 80 0a 3e 3c a8 bf 3d ca ac 67 bd
       -0.09886757 0.13525498 0.0935826 -0.05656127
000210 fc c6 87 3d 6f 29 09 3e fd 5c 30 bd 5a 6a e3 3d
       0.0662975 0.13394712 -0.04305743 0.11104269
000220 c1 83 74 3d 76 d4 1c 3c df b0 86 3d 52 1e 14 3d
       0.059695963 0.009572139 0.06576704 0.03616173
000230 2b df 0c be ea 4f f8 3d b2 12 8d 3d 8b 75 07 3e
       -0.13757007 0.121246174 0.068883315 0.13228433
000240 62 15 72 bd 8f c8 96 3d 4b 75 1e 3d e7 c7 df 3d
       -0.059102423 0.07362472 0.038686078 0.109268
000250 3b ce c7 bd cf e6 d9 bc b9 6b 9e bd 19 ef 33 3c
       -0.09756132 -0.026599316 -0.0773539 0.010982298
000260 4f 6f db bd 8d 9f ca bd fe 20 da 3c 84 36 62 3d
       -0.1071459 -0.09893713 0.02662706 0.05522777
000270 be bd 9e bb 83 db ac 3d a2 8e e6 bc f2 a2 d9 3b
       -0.0048443964 0.08440306 -0.028144184 0.006641739
000280 24 09 24 bd 70 e9 4e bd cd dc fd bc dc 2e 47 3d
       -0.04004778 -0.050515592 -0.030989075 0.048628673
000290 3c e6 e3 3c 96 ee 19 3e 84 4d bd bd d1 37 b2 bd
       0.027819745 0.1503242 -0.092433006 -0.087020524
0002a0 2b 24 95 3c 70 7e ae bb 45 48 a5 3d 35 3e 81 bd
       0.018205723 -0.005325131 0.08070425 -0.06310693
0002b0 b3 9a 9a bd 44 22 92 3d d1 9a 18 3d 69 00 90 bd
       -0.07549038 0.07135442 0.03725702 -0.07031328
0002c0 f4 ac 67 3d 0b 63 32 3e af 84 db bd d1 ac 04 3e
       0.056561425 0.17420594 -0.10718667 0.12956549
0002d0 e1 f7 af 3d 10 c2 5a 3d ea e8 02 3c 58 61 44 3d
       0.08592201 0.05340773 0.007990101 0.047944397
0002e0 21 32 6f 3d 69 a3 08 bc 5c b6 fd bd 14 17 cf bd
       0.058397416 -0.008339741 -0.12388298 -0.10111824
0002f0 2f da de bc c6 25 06 be 27 8a 12 3e 50 d2 cd 3d
       -0.027203647 -0.13100347 0.14310513 0.100498796
000300 a9 18 db 3d 6e 14 4e bd 88 2c fe bc db 7a c8 3d
       0.10698063 -0.050312452 -0.031027094 0.09789058
000310 cb c0 e2 3d 7e b2 66 bd 74 ed d9 3b 90 c3 27 3d
       0.110719286 -0.056322567 0.006650621 0.040957987
000320 63 2f b2 3d dc 4c 79 bd ba 91 cc bd 54 0b df bd
       0.087004445 -0.060864314 -0.09988733 -0.108908325
000330 38 91 e0 3d 3d ef 8e bd 84 e7 7e 3d 24 73 96 bd
       0.10965198 -0.06979225 0.06223251 -0.0734618
000340 f8 07 9e 3d a6 3f 32 3d 31 20 1d bd 2b 90 11 3d
       0.07716364 0.04351773 -0.03836078 0.03553788
000350 1d 21 33 bd f1 25 12 3d 43 cf 00 3d 0b 9d 0e bd
       -0.04373275 0.035680715 0.03144766 -0.034817737
000360 fe 2f 05 3d f0 eb 7f 3c cf aa bd 3d 79 a7 18 3d
       0.032516472 0.015620217 0.09261095 0.03726909
000370 90 43 0e be 19 4c 84 bc 4e 75 98 bd 29 60 83 bd
       -0.1389296 -0.016149567 -0.07444249 -0.064148255
000380 1e 15 42 3d ef 04 34 3d 01 74 5e 3d 92 e1 ab 3d
       0.04738342 0.043950018 0.05430985 0.083926335
000390 03 a9 45 3d 84 b5 46 bd eb 88 86 bc f1 70 ba 3c
       0.048256885 -0.04851295 -0.01642271 0.022758933
0003a0 08 88 81 bd 2c 11 f9 bd ff d1 e2 3d 71 0e 16 3c
       -0.06324774 -0.121614784 0.1107521 0.009158717
0003b0 9f 28 a8 3d 43 6c 8d bd 2d 65 db 3d e6 ea ad 3d
       0.08210873 -0.06905415 0.10712657 0.08492069
0003c0 39 de 01 be a5 94 58 bd ca 9b 15 3e 88 1e e6 bc
       -0.12682427 -0.052876133 0.1461021 -0.02809073
0003d0 7c b7 de bd 33 93 ad 3d cd ee 1f bd 2b f9 9b bd
       -0.108748406 0.08475342 -0.039046098 -0.076158844
0003e0 f4 2f 12 be 1d c7 e6 3d 49 8c 6e 3d 38 a4 a6 bb
       -0.14276105 0.112684466 0.058239255 -0.0050854944
0003f0 90 6a 55 bd 5b de 9c bd f5 dd 1b 3d 71 54 0d bc
       -0.05210358 -0.076595984 0.03805347 -0.008626089

layers.1.bias f4 [48]
000000 70 02 9e bd e1 7c c4 bd 76 4e 1e 3e ca d4 95 3d
       -0.07715309 -0.09594131 0.15459618 0.07315977
000010 ea 15 19 be 73 14 6c bd 26 22 dd 3d b7 bc 91 bd
       -0.14949766 -0.05763669 0.10797529 -0.071160726
000020 db 53 1a bd 0a ae b8 bb 67 fb b6 3d 8d 64 94 bd
       -0.037677627 -0.0056359814 0.0893467 -0.07245741
000030 48 2f 54 bd e3 6b 2d be de 37 3e 3e 8b aa 4b be
       -0.051802903 -0.16935687 0.18575999 -0.19889276
000040 be 15 21 be 35 22 21 39 05 42 c0 3d 50 8c 0e 3e
       -0.1573095 0.000153669 0.09387592 0.13920712
000050 07 74 bd 3b 5c 53 07 be da 5d 76 bd a6 64 2a bd
       0.005781654 -0.13215393 -0.060148098 -0.041599892
000060 cd 04 f9 3d 63 45 1b be 16 cb f0 3c 6a 7a 8f 3d
       0.12159119 -0.15163188 0.029393714 0.070057705
000070 4d f3 a5 3b 73 1f 10 3e 57 82 dc 3d 81 43 df bd
       0.005064404 0.14074497 0.10767048 -0.10901547
000080 8d 58 58 be 97 9e 34 3e 45 eb b9 3c 8f df c8 bd
       -0.2112753 0.17638622 0.022695193 -0.098082654
000090 f4 11 2e 3e 0e f3 99 3d 22 6b ce 3d b6 8a 8c bc
       0.16999036 0.07517062 0.10079028 -0.017155986
0000a0 44 56 08 bd 6b 9f 8e bd f0 29 e4 3d 96 1c 1b 3e
       -0.033285394 -0.06964 0.111408114 0.15147623
0000b0 21 f5 df bd dc 2b c1 3c 72 2e d0 3d 37 9c 0b bd
       -0.109354265 0.023580484 0.10165109 -0.034084525

layers.1.fc_self.weight f4 [48, 48]
000000 a0 4f 99 be 6e 78 08 3e f8 7e b0 3e 43 c6 85 be
       -0.29943562 0.1332719 0.3447187 -0.26127824
000010 3b 96 80 3e be 40 de be f3 06 3e be 8b 5e ab be
       0.25114617 -0.4340877 -0.18557338 -0.33470568
000020 74 1c 1f be d0 b9 98 be fa 35 55 3d 6a 6b 2e be
       -0.15538198 -0.29829264 0.05205343 -0.17033163
000030 ca 16 80 3e 3c 62 62 3d ba 59 38 be 2f 7c 69 be
       0.25017387 0.055269465 -0.18002978 -0.22801279
000040 51 a8 40 be 76 22 0d 3e b6 63 4f be e9 74 b7 bd
       -0.18814208 0.13782677 -0.2025288 -0.08957846
000050 3f 3d a5 be aa fe 18 be f4 86 67 3e 54 74 3d be
       -0.3227329 -0.14940897 0.22610074 -0.18501407
000060 7f 80 9f be 7a 42 29 be b5 ee bb be 96 15 9a 3d
       -0.31152722 -0.16529265 -0.36705557 0.075236484
000070 72 66 cc 3e 9e d0 b2 bd fb 8a 46 3e 33 a6 03 3f
       0.3992191 -0.08731197 0.19388954 0.51425475
000080 d0 23 2f 3e fd 2e 8c 3c 89 d8 a2 bd 01 aa d9 be
       0.17103505 0.01711225 -0.07951457 -0.42512515
000090 f6 84 4a be 2e 17 1d bd 80 a8 82 3e 91 13 9d be
       -0.19777283 -0.038352184 0.2551918 -0.3067899
0000a0 1a 6e 82 3e 3c 90 7c bd 27 d9 16 be 6e 49 43 be
       0.25474626 -0.06166099 -0.14731275 -0.1907098
0000b0 47 35 84 be 14 99 e0 be 46 b3 7d 3d 49 a3 f1 3c
       -0.25821897 -0.4386679 0.061938547 0.029496806
0000c0 8c f0 06 3f 78 ec 39 be 34 1d 51 3e fe 09 7d 3e
       0.52710795 -0.18156612 0.20421296 0.24710843
0000d0 8a db 81 be 9f a2 05 be a8 6d d9 bd cf 0c c0 3d
       -0.25362808 -0.13050316 -0.106166184 0.09377443
0000e0 b1 7d 0c 3e 82 85 96 3e 5f 33 fd 3d 85 25 0b be
       0.13719822 0.29398733 0.12363314 -0.13588531
0000f0 b1 1d c8 be 38 e0 7a 3d fe a2 17 be c6 e2 c5 3e
       -0.39085153 0.061248988 -0.1480827 0.38649577
000100 2e 77 8f be 74 06 b5 be a9 67 1e 3e 7a e1 0e bc
       -0.28020614 -0.35356486 0.1546923 -0.00872075
000110 40 ac 8f 3d f0 5d ad bd 5d 70 b9 bd 77 26 0f 3d
       0.07015276 -0.08465183 -0.09054635 0.034948792
000120 ea 41 a8 be 34 6b 95 bd a8 e7 50 bd 14 7e c9 be
       -0.32862788 -0.07295838 -0.051002175 -0.39354002
000130 ee 84 9f be c5 7b 9f 3c 7f b7 2e be 80 14 05 3e
       -0.31156105 0.019468198 -0.17062186 0.12996101
000140 df bf 59 3e 77 0f 8d 3e 90 bf 89 3e 5b a9 9e 3d
       0.212646 0.2755086 0.26903963 0.07747146
000150 64 1f 15 be d5 01 27 be 87 4f 42 3e 23 24 0d be
       -0.14562756 -0.16309293 0.1897565 -0.13783316
000160 d1 30 b1 be f9 ff 4a 3e 64 c6 76 3e e4 73 3a be
       -0.34607556 0.19824208 0.24099118 -0.18208271
000170 75 d7 b0 bd 31 fe 5c 3e 6b 1f e0 bd 3d f8 d1 be
       -0.08634845 0.21581341 -0.109434925 -0.41009703
000180 c9 38 bb 3e e1 4a 23 3e 07 3c 2f be 35 b2 b0 bd
       0.3656676 0.15946533 -0.17112742 -0.0862774
000190 fe dd 89 be b4 59 5b 3e 24 2c df bc 86 2b 4d 3e
       -0.2692718 0.21420938 -0.027242728 0.20036134
0001a0 65 8a b6 3c 61 08 aa 3e 41 19 4a 3e 9e 09 ae be
       0.022282789 0.33209518 0.19736196 -0.33991712
0001b0 4a 74 01 3f 3e c8 91 bd 77 0d 9c be 24 a7 84 3e
       0.5056807 -0.07118271 -0.30479023 0.25908768
0001c0 d6 92 a5 3e 94 38 81 3b 42 42 06 3d 19 cf 95 be
       0.3233859 0.003943512 0.032778032 -0.29259565
0001d0 06 64 a5 bc 95 b0 7a 3e c5 3d 6a be 68 4a c2 be
       -0.020189296 0.24481423 -0.22875126 -0.37947392
0001e0 5f 07 bd be 20 79 1b be 25 3c a8 3e b2 1b 96 be
       -0.36919686 -0.15182924 0.32858387 -0.29318005
0001f0 c3 be 33 3e b2 82 b1 be cd 12 14 bd 33 6f bb 3e
       0.17553239 -0.34670025 -0.036150742 0.36608276
000200 1b 6d 9b be 2c 8f 0f 3d c1 12 ee ba 39 fe c7 b9
       -0.30356678 0.03504865 -0.0018163548 -0.00038145648
000210 2f 83 b4 be 52 ff 3f be 1c e8 15 3e cd 4b 12 3e
       -0.35256335 -0.1874974 0.14639324 0.14286728
000220 a8 1f 80 be b7 29 7d be 33 79 8e be b9 d7 fd 3d
       -0.25024152 -0.24722944 -0.27826843 0.123946615
000230 ab 24 c0 bc 91 56 8a be 8a 03 88 be ec 65 89 3e
       -0.023454985 -0.2701917 -0.265652 0.26835573
000240 d0 49 95 bc a9 23 3f be 51 24 a8 be d3 11 4b be
       -0.018223673 -0.18665947 -0.32840207 -0.19831018
000250 24 fb df 3d f9 41 18 be fb c6 2f 3d 16 35 9f 3e
       0.10936573 -0.14868917 0.042914372 0.3109519
000260 70 a7 76 3e cc 39 e6 bc 8f d7 fb 3e 4e 42 a1 3e
       0.2408731 -0.028103732 0.49187896 0.314959
000270 19 a5 86 3e f4 db 53 be 41 df 35 3e ca 7f 67 be
       0.26297835 -0.20689374 0.17760946 -0.22607341
000280 23 44 ba be f3 0c bb be 31 3c 01 be 5f 6b 37 3e
       -0.3638011 -0.36533317 -0.12620617 0.17912053
000290 99 59 02 bb f8 9d 83 3e db ab aa be 69 6f 36 bd
       -0.001988983 0.25706458 -0.3333424 -0.044539843
0002a0 1b 44 06 be 96 91 e8 bc c5 02 e8 bd 29 bb 81 3e
       -0.13111918 -0.028389733 -0.11328653 0.25338104
0002b0 d3 1b 33 3e 08 32 b5 be 05 d8 a1 be 30 9e a4 3d
       0.17491083 -0.35389733 -0.31610122 0.08037984
0002c0 e8 bd 79 3e e1 ea b5 3e 3e 22 ad be 0d 57 06 be
       0.2438885 0.3553076 -0.33815187 -0.13119145
0002d0 c5 c2 b2 3c ed 88 a0 bd 4f 8c a1 bd b6 5e 33 3c
       0.021821389 -0.078386165 -0.0788809 0.010947874
0002e0 2c f2 0d be 84 58 ee bd 99 d9 ef bd 0e 3a ca be
       -0.13861912 -0.11637977 -0.11711425 -0.39497417
0002f0 18 e7 a4 3e 19 07 e5 3d d6 89 87 bd 3b c7 89 3d
       0.3220756 0.111829944 -0.06618087 0.06727453
000300 7a 19 a4 3e ca 75 92 be fb 59 c5 3e ac 32 d7 3c
       0.32050687 -0.2860549 0.38545212 0.02626928
000310 1a c3 80 be 69 70 d6 3c a6 09 d2 3c db 41 42 be
       -0.2514885 0.026176648 0.025639366 -0.18970434
000320 fa 0f e8 be bd a6 bf 3e f5 17 90 bc 67 5e 9b 3c
       -0.4532469 0.374319 -0.017589549 0.018965913
000330 f8 3c df bc 1b 31 17 3e 91 f1 79 be 22 9d 95 3e
       -0.027250752 0.14764826 -0.24408557 0.29221445
000340 3e 24 a9 bc d3 1b dd bd 39 fc 87 bd 1a 50 33 3d
       -0.020647164 -0.10796323 -0.066399045 0.043777563
000350 aa 6e 2e 3e c6 0d 08 bd c4 ac af bd 89 c5 9d be
       0.17034402 -0.03321626 -0.08577874 -0.3081477
000360 89 63 8c 3e a5 a9 88 be d7 98 0c bd 46 b7 1f 3d
       0.2741969 -0.26691929 -0.034325447 0.038993143
000370 ff 12 85 3e 2f dd c9 be 52 dc 4a 3e de 38 89 be
       0.25991055 -0.39426562 0.19810608 -0.268012
000380 98 70 53 bc 2f 89 b5 3e 56 7d d2 bd 46 84 ca be
       -0.012905262 0.35456225 -0.10277812 -0.39554042
000390 15 78 95 3e d6 e7 91 3d c4 dc cd be 0c f5 47 be
       0.29193178 0.07124297 -0.40207493 -0.19527072
0003a0 a3 5a 5f 3e cb 7a 6d be 06 b9 7e be 28 8d d1 be
       0.21811919 -0.23191373 -0.24875268 -0.40928006
0003b0 2b bd 00 3d c0 12 26 bb a0 95 f8 be 47 b2 97 be
       0.031430405 -0.0025340766 -0.48551655 -0.29628202
0003c0 a2 b4 72 3e 67 ff 7c 3d d9 c0 a7 3d 6b 47 f5 3d
       0.23701718 0.06176701 0.0819108 0.119765125
0003d0 9f 28 91 3e f6 80 01 3d f5 8f 71 be 78 a0 5e 3e
       0.28351304 0.031617127 -0.23590071 0.21740901
0003e0 08 3e 03 3e 96 35 a6 3e 49 2e 9a be 49 1f 82 be
       0.12816632 0.32462758 -0.30113438 -0.25414494
0003f0 6d 22 9b be fe 26 9f 3d 31 e9 9b be fd 56 a7 bc
       -0.30299702 0.07771109 -0.30451348 -0.020427221

layers.1.fc_neigh.weight f4 [48, 48]
000000 0e 9e 44 be 76 4a a0 3e 52 47 77 bc 70 03 ab be
       -0.19200918 0.3130681 -0.015092688 -0.3340106
000010 4d a9 a0 be eb c4 f3 ba c1 97 9e 3d 81 6c 75 3e
       -0.31379166 -0.0018598115 0.077437885 0.23967172
000020 b6 38 03 be c9 18 f1 bd dd 85 99 3d 05 8f 82 be
       -0.12814602 -0.117723055 0.074962355 -0.2549974
000030 b1 3b 87 be cd 66 88 be 59 f7 ac 3e 05 05 28 3e
       -0.26412728 -0.2664093 0.3378246 0.16408165
000040 d3 1f c6 3c 5e af 95 be c5 ed 34 bd 74 a0 6c 3e
       0.024185097 -0.29235357 -0.044172067 0.23108083
000050 1c 11 0d be a3 7f 9b 3d c3 42 64 3e 75 f8 38 be
       -0.13776058 0.07592704 0.22291093 -0.18063529
000060 24 59 8e bd f0 f5 08 be 63 92 9c be d3 b2 87 bd
       -0.06950596 -0.13375068 -0.30580434 -0.06625905
000070 d5 e3 67 be fd 81 a0 be da 5e 86 bd 32 63 a9 bd
       -0.22645505 -0.31349173 -0.0656106 -0.08270873
000080 f5 d0 18 3e da 00 8d 3e f4 36 8d bd 8b d9 d0 bd
       0.14923461 0.27539712 -0.06895247 -0.10197743
000090 0e 53 5d be 12 91 59 3c 4a 4b 02 be 2f 3d 46 be
       -0.21613714 0.013279216 -0.12724033 -0.19359277
0000a0 72 bf e1 3d e6 10 83 be 4a 8b 9a be c0 f3 a7 bd
       0.110228434 -0.2559883 -0.30184394 -0.082007885
0000b0 3f b5 3a be c0 eb 30 3c 7a 96 86 be 50 18 51 3c
       -0.18233202 0.010798395 -0.2628668 0.012762144
0000c0 37 4d 1a be 2c ea 4e 3c 22 c0 d9 bd e7 fc 80 3e
       -0.15068518 0.012629073 -0.106323496 0.2519295
0000d0 59 1c 53 3e 4b f6 b4 bd 75 b7 f7 bd 0d 16 82 3d
       0.20616283 -0.08836039 -0.120955385 0.06351862
0000e0 93 87 9d be f8 07 62 3d 6b 2d 8c bd b0 55 bb 3d
       -0.30767497 0.05518338 -0.068446 0.09147203
0000f0 8a 91 70 be 63 46 73 be 9a da 6f 3e b3 20 1c 3e
       -0.23493019 -0.23757319 0.23423234 0.15246849
000100 6a 8e 20 be 09 1d 70 3e ad b2 95 be 42 6d 91 3e
       -0.15679327 0.23448576 -0.2923788 0.2840367
000110 39 67 f2 bd 8f 74 4b 3e cf 89 3c bc d4 dd ea bd
       -0.118360944 0.19868682 -0.0115074655 -0.114680916
000120 6e 5c 5d 3e 20 df 6c bd 36 76 b6 3e 06 ea a4 be
       0.2161729 -0.057829976 0.35637063 -0.32209796
000130 8e 44 df bd 41 54 7c be 04 88 52 3e aa 61 2d 3e
       -0.10901748 -0.24641515 0.20559698 0.16931787
000140 e2 e2 7e be 83 e4 92 be ff a0 f0 bd 77 49 02 3e
       -0.24891236 -0.28689966 -0.117494576 0.12723337
000150 74 5c 8c be e7 b3 34 3e 0a 33 4c be 9b f2 92 be
       -0.27414286 0.17646752 -0.19941345 -0.28700718
000160 95 ed 94 bd 35 f4 82 3d 3f 4b 8b be d9 22 82 3e
       -0.07271878 0.06394235 -0.27205846 0.25417212
000170 a1 3a 59 be a9 13 8b 3e 50 c8 52 3e fd 2b b7 be
       -0.21213771 0.27163437 0.20584226 -0.35775748
000180 5f c7 87 be 6d 4f 8d be 8b 16 94 bd 10 2c 60 3d
       -0.26519296 -0.2759966 -0.07230862 0.05472952
000190 e0 ea 4f bc 91 41 12 3e 92 87 dd 3d 31 6a 5e 3e
       -0.012690276 0.14282824 0.108168736 0.21720196
0001a0 33 12 8c 3e 4a e9 71 be 97 5c 99 3e 1c d1 50 3c
       0.27357635 -0.23624149 0.29953453 0.012745168
0001b0 f6 5e 84 3e 67 ba fc bd 5b 82 7b 3e a0 dc 2c 3e
       0.258537 -0.12340241 0.24561445 0.16881037
0001c0 65 f7 14 3e 03 ac e2 3d f5 e0 8a be ad c7 e7 3d
       0.14547499 0.11067965 -0.27124754 0.11317382
0001d0 f5 be 2f 3e a2 56 d0 bc 3d 8b 17 3e a3 e8 4e 3e
       0.17162688 -0.025431935 0.14799209 0.20205931
0001e0 11 e8 6d 3d b9 13 4a be c6 3d 3a bd 43 33 1a be
       0.058082644 -0.19734086 -0.045469068 -0.15058617
0001f0 ac 19 81 bd 54 69 a5 be 3f 5a d3 3d 87 db 99 3e
       -0.06303725 -0.3230692 0.103199475 0.300503
000200 b7 69 25 3e 4e a0 7e 3d 19 d9 af 3e 2b e1 ad 3e
       0.16153608 0.062164597 0.3434532 0.33960852
000210 45 e2 f1 bd b2 7b ab be 5b 26 94 3e fa e4 ab be
       -0.118107356 -0.3349281 0.28935513 -0.33573133
000220 4b 9f a7 3e af 9a 32 be 9f 7c 50 3e d6 20 6c 3e
       0.32738718 -0.1744182 0.20360039 0.23059401
000230 1b f8 9a 3b 75 ca 74 be 12 19 ad be 3c 26 84 be
       0.0047292835 -0.23905356 -0.3380819 -0.2581042
000240 a8 a1 02 3d 9f f7 38 be fc 8d 83 3e 3a c1 2a 3d
       0.03189245 -0.1806321 0.25694263 0.04168818
000250 95 61 8e 3e 16 2a 87 be c0 d9 66 be d8 34 57 bd
       0.27808824 -0.26399297 -0.22544003 -0.05254063
000260 f4 90 aa 3e 8f a6 9a be 19 5e af 3e be 8c 9b 3e
       0.33313715 -0.302052 0.34251478 0.30380815
000270 75 23 bd 3d 7b 1d d2 3e f4 a6 e4 3d 08 a6 79 3e
       0.092352785 0.41038117 0.11164656 0.24379742
000280 7b 04 99 bc 12 d3 72 3d eb 47 5c 3e 8c 69 3b be
       -0.018678894 0.059283324 0.2151181 -0.18301982
000290 80 6f 07 bd 51 19 2b be 35 b4 f0 bc e3 09 22 bd
       -0.03306532 -0.16708876 -0.029382804 -0.03956021
0002a0 2d 38 22 be 5c 06 71 bd 53 ab 82 3e 5e 3d e9 3d
       -0.15841742 -0.058843955 0.25521335 0.11388658
0002b0 84 a7 a2 3d c4 c8 70 be 3f 92 89 3e a9 b2 9d 3e
       0.07942107 -0.23514086 0.2686939 0.3080037
0002c0 67 53 ea 3d f5 c1 90 be c7 e4 c2 3e 05 97 9d 3e
       0.11441689 -0.28272977 0.38065168 0.3077928
0002d0 4e 2f b7 be f2 89 7f be 30 92 e7 3d 4c 72 20 be
       -0.35778278 -0.24954966 0.1130718 -0.15668601
0002e0 83 ce fa 3d 1a 8b 47 3e 07 08 f3 3d 48 ff ba bd
       0.1224642 0.19486657 0.118667655 -0.09130722
0002f0 d9 ca 83 be 83 4e 8e be e3 8d 58 bd d8 88 2f bd
       -0.25740698 -0.27794275 -0.05286969 -0.042855114
000300 2a 39 54 3e 5c 4e 5f be 0f b4 44 be c6 93 1b 3d
       0.20724931 -0.21807235 -0.19209312 0.037982725
000310 61 36 0f 3d 39 e3 6f bd ef fc 9f bd b6 fe 30 3e
       0.03496397 -0.058566306 -0.07811915 0.17284665
000320 27 b9 4f be 34 77 9f bd 82 8d 87 bd 4f 68 82 bd
       -0.20285474 -0.07786408 -0.06618787 -0.063675515
000330 04 25 c3 bd 00 86 86 be 18 4f 8b 3e 99 9c 28 be
       -0.095285445 -0.2627411 0.2720878 -0.16465987
000340 14 4a 53 be 6b 84 3d 3e 26 02 42 3e d2 39 3c be
       -0.20633727 0.18507545 0.18946132 -0.18381432
000350 c4 50 92 3e 40 e6 5b 3e 80 32 ae 3e 53 85 46 3d
       0.28577244 0.21474552 0.34022903 0.04846699
000360 48 90 48 be 9a 43 8a 3e 61 c7 14 3e 90 ab 11 be
       -0.19586289 0.270047 0.14529182 -0.14225602
000370 be 06 bf bd 7a d3 32 ba 58 95 2c 3d af 85 d7 3d
       -0.09327458 -0.00068216736 0.042134613 0.10523545
000380 dc 05 85 be f9 98 77 3a 59 de 6a 3e f1 fc 14 be
       -0.25981033 0.0009445097 0.22936381 -0.14549614
000390 9b b3 87 be 30 ad 46 3e 2d 6c a0 be ef 89 40 be
       -0.26504216 0.19402003 -0.31332532 -0.18802617
0003a0 72 b2 40 bd c7 d4 18 3d ee 2b 17 bd 05 5b 9e be
       -0.04704518 0.037312295 -0.03690713 -0.30928817
0003b0 cd 6c 83 be b8 3a 72 be 62 fe ac 3e b4 b6 a2 be
       -0.25668946 -0.23655212 0.3378783 -0.31780016
0003c0 46 de a0 3d a1 62 b1 be c3 e6 ce be a1 18 39 3e
       0.07854895 -0.3464556 -0.40410432 0.18075801
0003d0 e4 64 0e be 61 34 11 3e a0 a9 3a 3e cd 13 f2 bc
       -0.13905674 0.14180137 0.1822877 -0.029550457
0003e0 bf c2 a4 3d 88 4f bd be e6 6b 41 be 4b 2b 8f 3e
       0.08044957 -0.3697474 -0.18888816 0.27962717
0003f0 c4 b3 26 be 98 bb 8a 3e cf 62 98 bd f0 e7 ad 3d
       -0.16279513 0.27096248 -0.07440721 0.08491504

fc1.weight f4 [10, 48]
000000 2b 16 56 bd aa 47 30 be f7 80 ab bc 43 1a 03 be
       -0.052267235 -0.17214838 -0.020935519 -0.12802987
000010 eb 6a b9 3c 11 ef 20 3e 1b 8e 9b bb 30 d4 10 be
       0.02263399 0.15716197 -0.004747165 -0.14143443
000020 1c c3 19 3d c3 f4 97 3d c3 ac 0b bc 9d 32 2f be
       0.037539586 0.074197315 -0.008525076 -0.17109151
000030 c7 a4 41 bc 16 b8 01 3e 02 71 c2 3c 57 7a 38 3e
       -0.011819071 0.1266788 0.023735527 0.18015419
000040 41 fb c5 3d 96 af 39 3d 51 2f fa 3d 51 3d 2b bd
       0.096670635 0.045333467 0.12216056 -0.041806523
000050 77 49 f2 bd d1 0b c1 3d 69 ce 68 3e 00 e3 08 bd
       -0.118304186 0.09426082 0.22734989 -0.03341961
000060 be 88 58 3e e6 58 1b 3e 61 bb 11 bd 18 2c 35 3e
       0.21145913 0.15170631 -0.03557909 0.17692602
000070 59 d4 1c 3e 97 11 18 be 63 15 39 3e df 16 08 3e
       0.15315379 -0.1485046 0.18074565 0.13289975
000080 13 a9 d8 3d a5 1d 3e be c7 2e 6c 3c 35 95 9a bd
       0.10579123 -0.18565996 0.014415449 -0.0754799
000090 91 0b 2e be 24 a7 c3 3d 64 42 2c bd 44 89 ea 3d
       -0.169966 0.09553364 -0.042055503 0.114519626
0000a0 f5 f5 af bd 9a 39 45 3e d9 3e 84 bd 04 19 0f be
       -0.085918345 0.19260255 -0.064573 -0.13974386
0000b0 e2 2a 78 3d cf 85 74 bd 12 57 18 3e b7 9e a8 bc
       0.06058777 -0.059697922 0.14876965 -0.020583494
0000c0 90 5b 19 be af 63 a2 3d 87 d3 f4 3d 2a 9e 5b be
       -0.14976335 0.079291694 0.11954408 -0.21447054
0000d0 cc 90 f3 bd 0c fb bc 3d 2c c8 8e bc 60 fb cb 3d
       -0.11892852 0.09227571 -0.017429434 0.09960055
0000e0 69 bf 12 be 7e 49 a0 3d 77 5e d4 bd 3e 04 04 be
       -0.1433083 0.078265175 -0.1036958 -0.12892243
0000f0 75 8e ce bd 01 6e 36 be 72 7e 96 bd 7f 63 44 be
       -0.10085765 -0.178154 -0.07348336 -0.1917858
000100 95 87 b8 bd 2a 67 0e bb 58 41 c6 3d e4 e6 c1 3b
       -0.09010235 -0.002172897 0.09680432 0.005917417
000110 32 2f 9a 3d e5 a2 39 bc 35 69 08 3e bb 4f 5e bd
       0.07528533 -0.011330341 0.13321383 -0.054275256
000120 3b 03 bf 3c a7 8f 67 bd cf 7c e6 bd ef a8 c9 3d
       0.02331697 -0.056533482 -0.11254274 0.09846675
000130 c4 ba 2c be 57 ca 88 bd 56 e0 1e 3c 7d ec e3 bd
       -0.1686812 -0.06679218 0.009697041 -0.11129091
000140 db 71 87 bd a3 72 09 3e fc d2 dd bd a9 e8 f9 3d
       -0.06613513 0.13422637 -0.10831258 0.122025795
000150 b1 7d 60 bd 5e df 05 3c 1e 0d 21 3a ff c2 2b 3e
       -0.05480737 0.008170931 0.0006143617 0.16773604
000160 b0 6d 4b be 36 76 64 bd b6 cc ad 3b c4 55 3d 3e
       -0.19866061 -0.055776797 0.0053039445 0.18489748
000170 25 86 30 3d 43 04 fb 3d a1 f4 ea 3d 9f 71 42 be
       0.04309668 0.12256672 0.114724405 -0.18988656
000180 5a 96 94 bd 60 de 5a 3c 33 ea 05 3e 9f bc 52 3e
       -0.0725524 0.013358682 0.13077621 0.20579766
000190 39 b1 1e bd c9 17 29 be 1c 3e 1b 3e cb 20 19 3e
       -0.03874323 -0.1651298 0.15160412 0.14953916
0001a0 a7 48 83 bd 6c 38 16 bd 16 20 2f 3e 99 ac 06 3d
       -0.06410342 -0.0366749 0.17102084 0.032879446
0001b0 95 28 36 3e 3d f6 68 3c 99 76 5e be c1 93 53 3e
       0.17788918 0.014218864 -0.21724929 0.20661832
0001c0 ac 52 f7 3d 68 0f 1c bc 02 2f 52 bd 1a ef ad bd
       0.12076315 -0.0095251575 -0.05131436 -0.08492871
0001d0 e6 e2 26 bd 1d 2e 1f 3e 31 aa 74 3d 9b 85 97 bd
       -0.04074373 0.15544935 0.05973262 -0.0739853
0001e0 51 b9 ee 3d a7 9a fb 3d d8 45 37 bd 66 62 38 3d
       0.1165644 0.12285357 -0.044744343 0.045015715
0001f0 1c 06 09 3e be 40 b5 bd a8 f4 1c be 0c 71 be bd
       0.13381237 -0.08850239 -0.15327704 -0.09298906
000200 5e e1 e1 bc d9 41 f4 bd 99 86 45 be ff bd 03 3e
       -0.027573284 -0.11926622 -0.19289626 0.12865447
000210 70 3a 98 3c ef f3 0c 3c e6 e1 7a 3d 49 5c fc bd
       0.018582553 0.00860308 0.06125059 -0.123222895
000220 84 ce 68 bd af 9f 6d 3d f2 2d d4 bd 77 0b e5 bd
       -0.056837574 0.058013614 -0.10360326 -0.11183827
000230 27 56 8a 3d f1 66 92 3d 98 1c 2b be 6c 57 61 be
       0.067547135 0.07148541 -0.16710126 -0.22006005
000240 79 d1 69 bd 6c b2 09 be ab 6e 83 bc 06 4f d6 3d
       -0.057084534 -0.13446969 -0.016043982 0.10464291
000250 a0 3b 49 be 8a 61 0a bd 0b 10 a1 3c 27 67 14 3d
       -0.19651651 -0.033784427 0.01966097 0.036231186
000260 be 37 21 3c e7 75 04 be fe 11 11 bd 2e 06 e4 3d
       0.00983995 -0.12935601 -0.03541755 0.11133991
000270 82 48 f2 bd 76 ef 00 bd ba 53 09 3d e4 53 0e 3e
       -0.11830236 -0.031478368 0.033527113 0.13899189
000280 ce 78 10 be ae 12 85 3d 33 44 11 be f8 1b a6 3d
       -0.14108583 0.064977035 -0.14186172 0.08110803
000290 bf 9f e1 bd 44 5a be bc cb d5 62 be 5e 49 24 be
       -0.11016797 -0.023236401 -0.22151868 -0.16043612
0002a0 53 5f f6 bc 78 52 3f 3e e6 f0 15 3e e0 15 e3 bc
       -0.030074751 0.18683803 0.14642677 -0.027720392
0002b0 88 7c 89 bd 38 c7 ae 3d e7 17 c4 3d ff e6 f5 3d
       -0.067132056 0.08534092 0.095748715 0.1200695
0002c0 6f 87 54 3e 32 e2 96 bc e0 c8 72 be c7 4d 8b bd
       0.20754789 -0.018418405 -0.2370944 -0.06801944
0002d0 a7 98 85 bd 59 d4 ec bd 9c f2 c3 bd 8d 67 3e 3e
       -0.06523257 -0.115639396 -0.095677584 0.18594189
0002e0 0a 7b d9 3d 92 9a 29 bd 51 3c b7 bd 98 de 0f be
       0.10619171 -0.041407175 -0.08947051 -0.14049757
0002f0 2a 02 39 be 48 ca 81 bd 60 20 12 be 3b 0d fc 3d
       -0.18067232 -0.0633741 -0.14270163 0.12307211
000300 08 fa 4e 3e 38 77 4e be 8d 0a d3 3d d9 18 fd 3d
       0.20212567 -0.20162666 0.10304747 0.12358255
000310 b1 64 dc bd 75 5b f6 3c 72 bd fc 3d ef cc 19 be
       -0.10761393 0.030072907 0.12340821 -0.15019582
000320 e4 5f 62 3e 38 c5 61 3d 05 4e 26 3e 15 57 df bd
       0.22106892 0.055119723 0.162407 -0.109052815
000330 a3 75 1c 3d 76 f5 bc bd b9 e6 75 3e 64 aa 2c be
       0.038198125 -0.092265055 0.24013795 -0.16861874
000340 88 86 1f be 2c ed 85 3c c1 72 6f 3d 6b 9d 0a 3e
       -0.15578663 0.016348444 0.058459047 0.13536613
000350 3c 12 25 be 14 c5 26 bd 96 8f f5 bd 5e 8a 0b bd
       -0.16120237 -0.040715292 -0.119902775 -0.034067504
000360 20 da 7a 3d a7 8f 3e bd 1d 5b 2c bd a8 58 92 3d
       0.061243176 -0.046523716 -0.04207908 0.07145816
000370 34 64 8d 3d 29 0d d7 3d 37 e2 06 3e 78 8f dd 3d
       0.06903878 0.10500557 0.13172232 0.1081838
000380 44 56 2d be 5b 09 dc 3c 6a 7a 47 3c fe 8d de bd
       -0.16927439 0.02685993 0.012175182 -0.108669266
000390 3b 96 7e 3d 40 f6 f8 3d 04 d6 2b 3e 9d 72 f4 bd
       0.06215499 0.121563435 0.16780859 -0.11935923
0003a0 a2 10 1b 3e 64 b0 18 3d f8 06 6e 3e 87 8f 3a 3e
       0.15143064 0.037277594 0.23244846 0.18218814
0003b0 14 6b 91 bd e1 87 b0 ba 0c df 2f 3c bb 5a d1 bd
       -0.07100502 -0.001346823 0.010734331 -0.102223836
0003c0 23 7a fc 3d 6f 9c ff bd 5d 9e 3d be 79 2c f3 3d
       0.12327983 -0.12481009 -0.18517442 0.11873717
0003d0 06 78 9d 3d c1 93 3b 3d 24 9e 75 be a2 73 8c 3e
       0.07688908 0.045795206 -0.23986107 0.2743197
0003e0 d3 5e fc 3c 2a e0 87 3c 12 e0 0e be f4 7d 43 3e
       0.030806934 0.016586382 -0.13952664 0.19091016
0003f0 e7 12 63 3e 67 21 11 3e ef 31 9d bd 82 d2 08 be
       0.2217518 0.14172898 -0.0767554 -0.13361552

fc1.bias f4 [10]
000000 65 f6 ac bd 88 1f 85 3d 2e 74 30 be 9d 46 a9 bd
       -0.084454335 0.06500155 -0.17231819 -0.082654215
000010 6f 73 67 3e 98 06 aa 3b 36 9e 4f be 5c 5c e8 bd
       0.22602628 0.0051887743 -0.20275196 -0.11345741
000020 f8 c7 44 3e f8 be 02 bc
       0.19216907 -0.007980101
