models/current_checkpoint_pubmed.pt (torch, 214283 bytes, 8 tensors)

layers.0.bias f4 [48]
0	0xbd053a7d	-0.032526482
1	0x3c9b7012	0.018974338
2	0x3c8e877b	0.017398586
3	0xbbe5e2d7	-0.007015567
4	0xbc9df05f	-0.019279657
5	0xbc59697d	-0.013269779
6	0x3ce96f36	0.028495412
7	0xbc55b8c6	-0.013044542
8	0xbd351bcf	-0.044215973
9	0x3c574f6d	0.013141495
10	0x3bcd57f3	0.006266588
11	0x3c330792	0.010927098
12	0xba8404df	-0.0010072252
13	0x3c33b7d5	0.010969122
14	0xbc3f9954	-0.011694271
15	0x3bfdf64b	0.0077503077
16	0xbd2229f5	-0.039590795
17	0xbbcbbd9e	-0.0062176725
18	0x3c08c58b	0.008347879
19	0x3b262b61	0.0025355446
20	0xbb2201b7	-0.002472026
21	0xbd080e7e	-0.033216946
22	0x3c1d7dd8	0.009612523
23	0x3a8b871b	0.0010645123
24	0x3bb4cf07	0.0055178436
25	0x3ba8bd88	0.005149547
26	0xbb748995	-0.003731345
27	0x3c856cb0	0.016287178
28	0x3c44f9f6	0.012022486
29	0x3b90e1e5	0.00442146
30	0x3ccab9b2	0.02474675
31	0xbc2babfe	-0.010478018
32	0xbd3ae526	-0.04562869
33	0x3c0f5dd6	0.0087504
34	0x3ce648b6	0.028110843
35	0xbb16728f	-0.0022956466
36	0x3c054ffb	0.008136745
37	0xbbe2896a	-0.0069133537
38	0x3c4839bb	0.012220795
39	0xbaed70f3	-0.0018115327
40	0x3c966198	0.018357083
41	0xbbdf4d92	-0.006814667
42	0xbb04a802	-0.0020241742
43	0x3cd3d5db	0.02585881
44	0xbcf2aff4	-0.029624917
45	0xbaf1ceaf	-0.0018448437
46	0x3c89c67f	0.016818283
47	0x3c218895	0.009859224

layers.0.fc_self.weight f4 [48, 500]
0	0x3e9840e6	0.29737014
1	0x3e0ca4d1	0.13734747
2	0xbe89a51a	-0.26883775
3	0xbd39cc89	-0.045361076
4	0x3e857d64	0.26072228
5	0x3d2541ef	0.040346082
6	0x3d8ffbbf	0.07030439
7	0xbbbeed09	-0.0058265966
8	0x3dd66103	0.10467722
9	0xbddf5c73	-0.10906305
10	0x3dcac66e	0.09901129
11	0xbcde0d1b	-0.027105859
12	0xbdb30f2e	-0.0874313
13	0xbd7384fa	-0.05945299
14	0xbe09542e	-0.13411018
15	0x3e44a013	0.19201688
16	0xbea54b59	-0.32284048
17	0xbd6cf19f	-0.057847615
18	0xbd7ebc03	-0.06219102
19	0x3e0637eb	0.13107269
20	0x3dbc7d48	0.09203583
21	0xbcb659ed	-0.022259677
22	0xbcb332a7	-0.021874739
23	0x3e6b861a	0.23000374
24	0x3eb158fb	0.346382
25	0x3d2f8fb3	0.04286165
26	0xbd26a8f7	-0.04068848
27	0xbda727dc	-0.081618994
28	0xbda03a32	-0.078236
29	0xbd840088	-0.06445414
30	0xbd1d0c0b	-0.038341563
31	0x3b849056	0.0040455265
32	0x3b7daab8	0.0038706493
33	0x3dd87e3a	0.10570951
34	0xbd995b18	-0.07488078
35	0x3d33b24a	0.0438712
36	0xbd02469b	-0.031805616
37	0x3df2295e	0.118242964
38	0xbcb7bcd6	-0.022428911
39	0x3cebe1fd	0.028794283
40	0xbd834e59	-0.06411428
41	0x3e2d105d	0.16900773
42	0x3d08bf11	0.03338534
43	0xbd91c027	-0.07116728
44	0xbe57f156	-0.21088156
45	0x3ccb3d3a	0.024809469
46	0xbdf09595	-0.117472805
47	0x3e5a3597	0.21309505
48	0xbe056acd	-0.13029023
49	0xbdb930b4	-0.090424925
50	0x3d934f09	0.07192809
51	0x3ddc4cc1	0.10756827
52	0xbded7449	-0.11594445
53	0x3e83c143	0.25733384
54	0x3e34ff81	0.17675592
55	0xbdc51d6f	-0.09624755
56	0x3cbd335e	0.023095783
57	0xbe67ad2c	-0.22624654
58	0x3e44585e	0.19174334
59	0x3e36998c	0.17832011
60	0x3dc51b41	0.09624339
61	0x3de419b6	0.111377165
62	0xbd841715	-0.06449715
63	0xbda93bc7	-0.08263355
64	0xbe185c62	-0.14878991
65	0x3c32a951	0.010904626
66	0xbd8de803	-0.06929018
67	0xbd8fdae9	-0.07024176
68	0xbe58feab	-0.21190898
69	0xbe3febd7	-0.1874231
70	0xbd861888	-0.06547648
71	0xbc35c798	-0.01109495
72	0xbddb0e66	-0.10696106
73	0x3ae03e3b	0.001710839
74	0xbddf0edc	-0.10891506
75	0x3e406629	0.18788971
76	0xbd1ef58f	-0.0388084
77	0x3c86f96e	0.01647636
78	0xbdde7fe5	-0.10864238
79	0x3d88d561	0.06681324
80	0x3d4063e2	0.046970256
81	0x3d48a35c	0.048983917
82	0x3e7fac50	0.24968076
83	0xbe06db45	-0.13169582
84	0x3da8463c	0.08216521
85	0xbd79aac1	-0.06095386
86	0x3de41b31	0.11137999
87	0x3dfdc122	0.12390353
88	0xbe293f8e	-0.1652815
89	0xbec2a9b0	-0.38020086
90	0xbce9023d	-0.02844345
91	0xbdfb7e53	-0.12279954
92	0x3ea0c35f	0.31399056
93	0x3df8a87c	0.12141511
94	0x3e095ef9	0.13415135
95	0xbda4f4f4	-0.080545336
96	0xbd8fffab	-0.07031187
97	0x3d3e319c	0.04643403
98	0x3d89af18	0.067228496
99	0xbd1de024	-0.038543835
100	0x3c8a7f66	0.016906451
101	0xbc5432fd	-0.01295161
102	0xbe42bd63	-0.19017558
103	0x3dadd43b	0.084877454
104	0x3cbdafb3	0.023155069
105	0xbc7dc8ed	-0.015489799
106	0xbd0b72c9	-0.034045015
107	0x3b7863a3	0.0037901185
108	0xbd6030a0	-0.054733872
109	0xbcd8f459	-0.026483702
110	0x3dd29661	0.10282589
111	0xbd3acc9e	-0.045605294
112	0xbd5bee2d	-0.05369394
113	0x3b73072f	0.003708314
114	0xbe5857ae	-0.21127197
115	0xbc7ca6b8	-0.015420608
116	0xbc001c5b	-0.0078192605
117	0xbdf8db88	-0.12151247
118	0x3b8f313d	0.0043698833
119	0x3e21e6ca	0.15810695
120	0xbe79560f	-0.24349235
121	0xbdc323bb	-0.095282994
122	0x3d966707	0.0734387
123	0x3cc66ebe	0.024222728
124	0xbcd57e7e	-0.026061293
125	0xbdaeb746	-0.085310504
126	0xbe3fb897	-0.18722759
127	0xbe5fc392	-0.21851948
128	0xbd9798e8	-0.074022114
129	0xbe8eb79d	-0.2787446
130	0x3e014803	0.12625127
131	0x3df50ad4	0.11964956
132	0xbe596e34	-0.21233445
133	0xbd48c0a2	-0.049011834
134	0x3cb259f8	0.021771416
135	0x3e809d38	0.25119948
136	0xbe52fd05	-0.20604332
137	0xbd26aaf2	-0.04069037
138	0xbdac823f	-0.0842328
139	0x3e6b5ddf	0.22985028
140	0x3ea825ef	0.3284144
141	0x3baf3618	0.0053470246
142	0xbda26369	-0.07929117
143	0x3d58b81c	0.052909955
144	0xbe600784	-0.21877867
145	0x3ce9715f	0.028496442
146	0x3cfa807a	0.03057884
147	0x3e135bfc	0.14390558
148	0xbdbcdee6	-0.09222202
149	0xbd7a7a08	-0.061151534
150	0x3d6cbace	0.05779534
151	0x3df68005	0.120361365
152	0x3e1af29b	0.15131609
153	0xbd89b115	-0.06723229
154	0x3afde9e8	0.0019372078
155	0x3e11c652	0.1423581
156	0xbcf58c15	-0.029974023
157	0x3d8554d9	0.06510324
158	0xbe0ab882	-0.13546947
159	0x3d98db68	0.074637234
160	0xbe1dc85f	-0.15408467
161	0x3c8fb17f	0.017540691
162	0xbd9f6e11	-0.077846654
163	0x3bf7e41d	0.007565035
164	0x3e845ad0	0.25850534
165	0xbe0f9171	-0.14020325
166	0xbdc60a79	-0.09669966
167	0xbe53b9b0	-0.20676303
168	0x3e83bbdd	0.25729266
169	0x3a89666b	0.0010482793
170	0x3e546b84	0.20744139
171	0x3d8ab9ed	0.06773744
172	0x3e9292d4	0.28627646
173	0x3d976739	0.07392735
174	0x3e499940	0.19687366
175	0xbd02d366	-0.031939887
176	0xbdb7c9ec	-0.089740604
177	0xbcae5552	-0.021280918
178	0x3e186fd4	0.14886409
179	0x3debe9b2	0.11519183
180	0x3e234958	0.15945947
181	0x3e5c723f	0.21527956
182	0x3d3a03b9	0.045413706
183	0x3d651855	0.055931408
184	0x3ec30563	0.38090047
185	0xbd877b93	-0.06615367
186	0xbd04838a	-0.032352008
187	0xbda983ba	-0.08277078
188	0x3deef345	0.11667494
189	0xbc50de2e	-0.012748284
190	0xbc7ee605	-0.015557771
191	0xbd8aa011	-0.067688115
192	0xbd853c1a	-0.06505604
193	0x3dd8228b	0.105534635
194	0xbd108fea	-0.035293497
195	0xbe322d3f	-0.17400073
196	0x3e43ceca	0.19121853
197	0x3c4a5f04	0.012351755
198	0x3e3f855b	0.18703215
199	0xbe967e0c	-0.2939304
200	0x3e56851b	0.20949213
201	0xbe848068	-0.25879216
202	0xbd9d3d79	-0.076777406
203	0x3d5067e8	0.050880343
204	0x3e75a0a2	0.23987058
205	0xbd8bb45c	-0.0682151
206	0xbe05f231	-0.1308067
207	0xbd8f95aa	-0.07010968
208	0x3e30a89c	0.1725182
209	0x3e280773	0.16409092
210	0xbdc1f65d	-0.09470818
211	0x3e428b7a	0.18998519
212	0x3c124b4f	0.008929088
213	0xbe4600f3	-0.193363
214	0x3e0fcbec	0.14042634
215	0xbc0bc0e4	-0.008529875
216	0xbe7fafdc	-0.24969429
217	0xbe194070	-0.14965987
218	0xbb3016ca	-0.0026869052
219	0xbce5893f	-0.028019546
220	0xbd61863f	-0.055059668
221	0xbd89c3c1	-0.0672679
222	0x3d9cf5c9	0.07664067
223	0xbc8feb12	-0.017568145
224	0xbd5c132a	-0.053729214
225	0xbd8895bd	-0.06669185
226	0xbe30a778	-0.17251384
227	0xbe365f21	-0.17809726
228	0x3de026cb	0.10944899
229	0xbd9de941	-0.07710505
230	0x3e790b80	0.24320793
231	0xbe820d70	-0.25400877
232	0xbe81e5c3	-0.25370607
233	0xbe4569d8	-0.19278657
234	0xbe424667	-0.18972169
235	0xbe7a67bf	-0.24453638
236	0xbd107540	-0.03526807
237	0xbd6c7bdc	-0.05773531
238	0xbd62c29d	-0.05536138
239	0xbed1d908	-0.40985894
240	0x3d637bf7	0.055538144
241	0xbd2fc11b	-0.04290877
242	0xbd23ab5d	-0.039958347
243	0xbea0d042	-0.31408888
244	0xbe070a3e	-0.13187501
245	0xbe2120ea	-0.15735212
246	0xbe7afce7	-0.24510537
247	0xbe9b8c96	-0.30380696
248	0xba8a9bd1	-0.0010575001
249	0x3d6641a1	0.056214932
250	0xbe30528a	-0.17218986
251	0xbe35ba6a	-0.17746893
252	0x3ddac410	0.10681927
253	0xbda831b2	-0.08212604
254	0xbe3aff6d	-0.182615
255	0x3da7f4ad	0.08200965

layers.0.fc_neigh.weight f4 [48, 500]
0	0xbdbafc9a	-0.09130211
1	0x3dc50175	0.096194185
2	0x3d0c8777	0.034308877
3	0xbe2cc6a7	-0.16872655
4	0xbd396e89	-0.04527143
5	0xbc7d5eca	-0.015464494
6	0xbdc3c8cd	-0.09559784
7	0xbd6779ce	-0.056512646
8	0xbd0b8cd4	-0.03406985
9	0xbe576601	-0.21035005
10	0xbd8c0c54	-0.06838289
11	0xbda72b7e	-0.08162592
12	0xbd37c49a	-0.04486523
13	0x3d75565b	0.059896808
14	0xbe4b7ca1	-0.19871761
15	0x3b99aa73	0.0046895086
16	0xbe8eb046	-0.2786886
17	0x3d1df3ca	0.038562573
18	0xbdaf7d4b	-0.085688196
19	0xbd428895	-0.047493536
20	0x3d9316f3	0.071821116
21	0x3d9b1c18	0.07573718
22	0x3dbbb0cd	0.091645814
23	0x3e1fd9e2	0.1561046
24	0x3ca34ea3	0.019934958
25	0x3de6e653	0.112743996
26	0x3cf41e0f	0.02979949
27	0xbd86d809	-0.06584174
28	0x3d55bc5b	0.052181583
29	0x3df7d7a2	0.121016756
30	0xbdf16a2b	-0.11787828
31	0x3db5d6d5	0.088788666
32	0xbd8a673a	-0.0675797
33	0x3e181eab	0.14855449
34	0xbdb7c5ac	-0.0897325
35	0xbd3292f2	-0.04359717
36	0xbe5decef	-0.21672414
37	0x3e034d96	0.12822565
38	0xbd8b60e9	-0.068055935
39	0x3e1cbf29	0.15307297
40	0x3d0619eb	0.03273956
41	0x3d5adb26	0.053431652
42	0x3e11e89f	0.14248894
43	0xbe162099	-0.14660873
44	0x3dcaf8d4	0.099107414
45	0xbe08beab	-0.13353984
46	0xbe310ae4	-0.1728931
47	0xbd0938da	-0.033501484
48	0x3e5892a6	0.21149692
49	0x3d3f55f0	0.046712816
50	0x3dcac656	0.09901111
51	0xbd0d8f86	-0.034560703
52	0x3d299895	0.04140528
53	0xbd73aa41	-0.05948854
54	0x3df602cb	0.120122515
55	0x3d1a2a48	0.03763798
56	0x3e3c9b43	0.18418603
57	0xbd102a8c	-0.035196826
58	0x3e05cabd	0.1306562
59	0x3e33d6f6	0.1756247
60	0xbbe2a62b	-0.0069167814
61	0xbe53aa0c	-0.20670336
62	0x3e1146e5	0.141872
63	0x3ea16187	0.3151972
64	0xbd6e1a85	-0.05813076
65	0xbb92a3c3	-0.0044750883
66	0x3e108f5c	0.14117187
67	0xbcd838c7	-0.026394261
68	0xbdd640b4	-0.1046156
69	0x3d11e204	0.035615936
70	0xbe00b1ca	-0.12567821
71	0xbe0a9fd8	-0.13537538
72	0xbdcf5a02	-0.101245895
73	0xbd95b1b0	-0.07309282
74	0xbc88028e	-0.01660278
75	0x3d354a5c	0.044260368
76	0xbda0c9e1	-0.07851005
77	0xbda492e6	-0.08035831
78	0xbe535964	-0.20639569
79	0x3d0680a6	0.032837532
80	0x3d583fe5	0.05279531
81	0x3cf6e1e6	0.030137014
82	0x3de49d38	0.111627996
83	0x3e7cde60	0.24694204
84	0xbe0eeda7	-0.13957845
85	0xbdc355be	-0.095378384
86	0xbda2f323	-0.07956531
87	0x3d8d9c82	0.06914617
88	0xbe61313d	-0.21991439
89	0xbdf3e066	-0.11908035
90	0xbdd5ba87	-0.10435968
91	0x3d6d5841	0.057945494
92	0x3de218d4	0.11039892
93	0xbd847876	-0.064682886
94	0xbb85718a	-0.004072373
95	0xbd8273ab	-0.06369718
96	0x3cb92bc4	0.022603877
97	0xbd290801	-0.0412674
98	0xbd84c814	-0.064834744
99	0xbd788f34	-0.060683444
100	0x3dfb4f3d	0.12270973
101	0xbc93901a	-0.018013049
102	0xbe297867	-0.16549836
103	0xbd5e38fd	-0.054253567
104	0xbd4504fe	-0.048100464
105	0xbe03ef5d	-0.12884279
106	0x3de359c7	0.11101108
107	0x3d8e4219	0.06946201
108	0xbe303348	-0.17207062
109	0x3e24bb85	0.16087158
110	0xbdccee60	-0.10006404
111	0x3cbeed03	0.023306375
112	0x3e06429d	0.13111348
113	0xbd0fde1d	-0.035123933
114	0xbe553de1	-0.20824386
115	0x3cee48aa	0.029087383
116	0xbd1d6a94	-0.03843172
117	0xbdb3d8ed	-0.0878161
118	0x3d9bdcfb	0.07610508
119	0x3de1fe7b	0.110348664
120	0xbe738436	-0.23780903
121	0xbd8f6307	-0.0700131
122	0x3d95df46	0.07317977
123	0x3d3547d7	0.044257965
124	0xbd2c413b	-0.042054396
125	0xbd32d382	-0.04365874
126	0xbe22ff78	-0.15917766
127	0xbd874d0c	-0.066064924
128	0xbd950ec1	-0.07278205
129	0xbd8240e8	-0.06360036
130	0x3d66cff5	0.056350667
131	0xbd837da9	-0.06420452
132	0xbd9aae06	-0.075527236
133	0xbc944eea	-0.018104035
134	0x3e78e5f8	0.24306476
135	0xbd67704e	-0.056503586
136	0x3d237807	0.03990939
137	0xbe773698	-0.2414192
138	0xbe319eda	-0.17345753
139	0x3d387a6a	0.04503862
140	0x3da8cc0a	0.08242042
141	0x3d5990d7	0.053116646
142	0x3dcc19aa	0.099658325
143	0xbc78e840	-0.015192091
144	0xbda89c8b	-0.08232983
145	0x3e5d380d	0.21603413
146	0x3cd3f3a9	0.025873022
147	0xbe3a457b	-0.18190567
148	0x3e600d5d	0.21880098
149	0x3baa4f63	0.005197452
150	0xbd103df8	-0.035215348
151	0x3c94cf80	0.01816535
152	0xbe09a061	-0.13440086
153	0x3df6efe6	0.12057476
154	0xbdd69ee7	-0.10479527
155	0x3e22426d	0.15845652
156	0x3da797ce	0.08183251
157	0xbdb6e46a	-0.08930285
158	0x3db4fdf7	0.088375024
159	0x3df7b0ce	0.1209427
160	0x3e22530b	0.15851991
161	0x3d77c9c7	0.060495164
162	0xbdb5d0d6	-0.08877723
163	0xbd1d4356	-0.038394295
164	0xbd4a5516	-0.04939755
165	0xbcb64392	-0.022249017
166	0xbd3cda86	-0.046106838
167	0xbdae4a9c	-0.08510324
168	0x3dac8f87	0.08425813
169	0xbd868681	-0.06568623
170	0xbdc3caec	-0.09560189
171	0xbe354c85	-0.17704971
172	0x3da47731	0.080305465
173	0xbe067e5a	-0.13134137
174	0x3e22578a	0.15853706
175	0xbe11d37e	-0.14240834
176	0xbdea7f38	-0.11450046
177	0x3e10bb8c	0.14134043
178	0xbd593800	-0.05303192
179	0x3d1e20b4	0.038605407
180	0x3e638752	0.2221959
181	0xbe1aa918	-0.15103567
182	0xbd868303	-0.06567957
183	0x3c89a0ae	0.01680025
184	0x3df4804d	0.11938534
185	0x3e3e34a5	0.1857477
186	0xbc0f669b	-0.00875249
187	0x3e6be00d	0.23034687
188	0x3e3aaf71	0.18230988
189	0xbdb68724	-0.08912495
190	0xbd0d96cf	-0.03456765
191	0xbccef030	-0.025261015
192	0xbd73cf87	-0.059524085
193	0xbcd943e6	-0.026521634
194	0x3e026430	0.12733531
195	0xbdefc6b0	-0.117078185
196	0x3dfd4e64	0.123684675
197	0x3da17c25	0.07885007
198	0xbc57528c	-0.013142239
199	0xbe35c1ef	-0.17749761
200	0xbd7ffd80	-0.062497616
201	0xbc8934f7	-0.016748888
202	0x3c6d4ce3	0.014483663
203	0xbe030cbe	-0.1279783
204	0xbde1879b	-0.11012193
205	0x3d8abaab	0.06773885
206	0x3c26cc3d	0.01018053
207	0xbd9e5677	-0.077313356
208	0x3db3ca29	0.08778793
209	0xbcd08364	-0.025453277
210	0x3d89a0a9	0.067200966
211	0xbe1abd80	-0.15111351
212	0x3d084ddc	0.033277377
213	0xbe01701d	-0.12640424
214	0xbe1963ec	-0.14979523
215	0xbc9a76af	-0.01885542
216	0x3dc1d8e4	0.09465197
217	0x3d64e466	0.05588188
218	0x3d97fe99	0.074216075
219	0x3dc1a1af	0.09454667
220	0xbe1e63fa	-0.15467826
221	0xbcb93983	-0.022610432
222	0x3c8b73bf	0.017022965
223	0x3d1615e8	0.036641985
224	0x3db7c7f4	0.08973685
225	0xbd0c3c9e	-0.034237497
226	0xbd0716a1	-0.032980565
227	0x3e3c65fe	0.18398282
228	0xbd0f6d45	-0.035016317
229	0xbe17e687	-0.14834033
230	0xbeb6ed96	-0.3572814
231	0x3c07b018	0.00828173
232	0xbd847291	-0.06467164
233	0x3d9408c0	0.072282314
234	0xbd84a9f1	-0.06477726
235	0xbe7dae5c	-0.24773544
236	0x3d723fbe	0.05914282
237	0x3df4f114	0.119600445
238	0x3d33e06a	0.04391519
239	0xbd171d6c	-0.036893293
240	0xbd32506f	-0.04353374
241	0x3d87eac0	0.06636572
242	0xbd80bb89	-0.062857695
243	0xbdb71525	-0.0893958
244	0xbe0d4d66	-0.13799056
245	0xbd9f88b6	-0.077897474
246	0xbb98d1e4	-0.004663693
247	0x3d6a150c	0.057148978
248	0x3e262855	0.16226323
249	0x3e62618c	0.22107524
250	0xbe02d669	-0.12777103
251	0xbc52ac1f	-0.01285842
252	0xbd59926c	-0.053118154
253	0xbd89e08d	-0.06732283
254	0xbe767133	-0.2406662
255	0xbe7f1aeb	-0.24912612

layers.1.bias f4 [48]
0	0x3d99cc62	0.07509686
1	0x3ac992d9	0.0015378847
2	0xbc857894	-0.016292848
3	0x3cbd8f53	0.023139631
4	0xbbf10215	-0.0073549845
5	0x3d23f1a8	0.040025383
6	0xbc9c2a02	-0.019063
7	0x3cd05a98	0.025433823
8	0x3d760fb0	0.060073555
9	0xbdb1f2e4	-0.08688906
10	0x3d398d63	0.045300853
11	0xbd912eb4	-0.07088986
12	0x3d89d383	0.06729796
13	0x3cc8e7c5	0.024524579
14	0xbd184b65	-0.037181277
15	0xbd9f1c01	-0.07769013
16	0x3ca3844e	0.019960549
17	0xbd9aab1a	-0.07552166
18	0xbce37f11	-0.02777055
19	0xbccf85f7	-0.025332434
20	0x3c505bdc	0.0127172135
21	0xbbfba193	-0.0076791733
22	0xbb09e063	-0.0021038286
23	0x3cd35fa0	0.025802433
24	0xbd80fa87	-0.06297784
25	0xbd80fcc0	-0.06298208
26	0x3c8eae25	0.017417023
27	0xbb6cc51c	-0.0036128229
28	0x3d7be265	0.061495204
29	0xbc97921e	-0.018502291
30	0xbc8f7cb7	-0.017515523
31	0xbd37b2d9	-0.044848297
32	0x3dc74efb	0.09731861
33	0xbcb723be	-0.02235591
34	0xbd92ecd8	-0.071740806
35	0xbba83c66	-0.005134153
36	0x3c98dae2	0.018659059
37	0x3b1bdb19	0.0023781715
38	0x3dcbe1c7	0.09955173
39	0xbd2dc48b	-0.042423766
40	0x3c8556c5	0.016276726
41	0xbd00ee6a	-0.03147737
42	0x3cb73399	0.02236347
43	0x3d8142fa	0.06311603
44	0xbcde715b	-0.027153661
45	0x3d864448	0.06555992
46	0xbd82ef10	-0.06393254
47	0xbd19c696	-0.037542902

layers.1.fc_self.weight f4 [48, 48]
0	0xbeb7ce80	-0.35899734
1	0x3e8a6470	0.27029753
2	0xbe3c712c	-0.18402547
3	0xbe695fab	-0.227904
4	0xbe70d62d	-0.23519202
5	0xbd96971f	-0.07353043
6	0x3f399d5c	0.72505736
7	0x3a1fc0ae	0.000609408
8	0xbf2e10e6	-0.67994535
9	0x3dfe4761	0.12415958
10	0x3d7b9bea	0.061427988
11	0x3d898dc0	0.0671649
12	0xbe60be10	-0.21947503
13	0x3e761e54	0.24035007
14	0x3e8932d7	0.267966
15	0x3ebe879d	0.3721284
16	0xbf23eb7b	-0.6403119
17	0xbd9d6f63	-0.07687261
18	0x3e983cfa	0.2973402
19	0xbc090ee0	-0.008365363
20	0x3f04bf66	0.5185455
21	0xbe2bbeba	-0.16771975
22	0x3f1d9583	0.6155626
23	0x3f02e634	0.5113251
24	0xbf0f88e4	-0.56068254
25	0xbeadfbed	-0.33981267
26	0xbec0b402	-0.37637335
27	0x3e5c90c4	0.21539599
28	0xbe745fbe	-0.23864648
29	0x3eb542d0	0.35402536
30	0x3f104887	0.5636067
31	0xbf1ac39e	-0.6045474
32	0xbe6b9fed	-0.23010226
33	0x3d8d7e92	0.06908907
34	0x3ec73d69	0.3891404
35	0xbebfa1e6	-0.37428206
36	0x3ecc3f83	0.39892206
37	0xbf14b03d	-0.5808142
38	0x3ed2b9a4	0.41157258
39	0x3e78d5da	0.24300328
40	0x3ccb2e0f	0.024802236
41	0xbf0a6c42	-0.5407144
42	0xbd4ba24f	-0.049715336
43	0x3caa13e8	0.020761445
44	0xbf06ea3d	-0.5270117
45	0xbe08443a	-0.13307276
46	0x3f1d981c	0.61560225
47	0x3ec1c770	0.3784747
48	0x3e094c61	0.13408042
49	0x3d890f29	0.06692345
50	0x3ecb73c8	0.39736772
51	0xbf22575d	-0.63414556
52	0xbf06277d	-0.52404004
53	0xbeba27d2	-0.36358505
54	0x3e410432	0.18849257
55	0xbe12c367	-0.14332353
56	0x3d327811	0.043571535
57	0x3e7ce560	0.24696875
58	0x3f140cd8	0.578321
59	0x3f13733a	0.57597697
60	0x3dc19475	0.09452144
61	0x3e81f544	0.25382435
62	0xbe54984c	-0.20761222
63	0x3e6d8533	0.23195343
64	0xbdf036b7	-0.11729186
65	0xbf316bbe	-0.69305027
66	0x3e3d26d5	0.18471844
67	0x3f278615	0.6543897
68	0xbe8c18b8	-0.2736261
69	0xbed33ec4	-0.41258824
70	0xbe77aaac	-0.241862
71	0x3e807c70	0.25094938
72	0x3be3604e	0.0069389706
73	0x3f19f314	0.6013653
74	0x3e081874	0.13290578
75	0xbc18c4ee	-0.009324295
76	0x3e6064ba	0.21913424
77	0xbc1c609f	-0.009544521
78	0x3deba5da	0.11506243
79	0xbf0e7b58	-0.5565696
80	0xbdf75d6a	-0.12078364
81	0x3e9c91cf	0.30579993
82	0x3ee747a8	0.45171857
83	0xbf3110e8	-0.6916642
84	0x3f066faa	0.52514136
85	0xbf392e24	-0.7233603
86	0x3dfe8523	0.124277376
87	0x3d78b2bc	0.06071733
88	0x3e966dfa	0.2938078
89	0x3d981897	0.07426565
90	0xbe72beb0	-0.23705554
91	0x3e02e74d	0.12783547
92	0xbe636d12	-0.22209576
93	0xbe1caf06	-0.15301141
94	0x3e4f2178	0.20227611
95	0x3e7bac73	0.24577503
96	0xbd39ad22	-0.045331128
97	0xbc01adc4	-0.007914964
98	0xbeedcb71	-0.46444276
99	0x3e4f3e3e	0.20238587
100	0x3e558582	0.2085171
101	0x3e185841	0.14877416
102	0xbe99129e	-0.29897016
103	0xbe7b9a81	-0.24570657
104	0xbdd2bc35	-0.10289804
105	0xbeacf8c3	-0.3378354
106	0xbe932127	-0.2873623
107	0xbef8ca8c	-0.4859203
108	0xbf5670f3	-0.83766097
109	0x3edf2225	0.43580738
110	0x3e0fb602	0.14034274
111	0xbdb24300	-0.087041855
112	0xbd55a96e	-0.052163534
113	0x3e4d9ff0	0.20080543
114	0x3f3308b0	0.6993513
115	0xbf12250e	-0.5708779
116	0x3eceb2dd	0.40370837
117	0x3e663f88	0.22485173
118	0x3f12a65b	0.5728509
119	0xbe437bc2	-0.19090179
120	0xbf2eb82e	-0.68249786
121	0xbf662a11	-0.8990794
122	0xbf1c2f02	-0.6100923
123	0x3dfb1c87	0.122613005
124	0xbf5cf61e	-0.86313045
125	0x3f53c2f8	0.82719374
126	0x3e56dd5d	0.20982881
127	0xbc73735d	-0.014859048
128	0xbe518301	-0.2046013
129	0xbe3d55e8	-0.18489802
130	0x3dd65dc4	0.10467103
131	0x3e0264a4	0.12733704
132	0xbe5b5ce7	-0.21422158
133	0x3e8b7e25	0.27244678
134	0xbd5706e9	-0.052496824
135	0x3f337adc	0.70109344
136	0xbecfb79d	-0.40569773
137	0xbf14a97d	-0.5807112
138	0x3dc70c1e	0.09719108
139	0xbe520b5d	-0.20512147
140	0xbedfe9b9	-0.43733004
141	0x3f1754f4	0.59114003
142	0xbe0a94d1	-0.13533331
143	0xbe998eb6	-0.29991692
144	0xbe8ef18e	-0.27918667
145	0x3db02e43	0.08602574
146	0x3c56a9f9	0.013102048
147	0xbebe5c14	-0.37179625
148	0xbe6e2aa0	-0.23258448
149	0xbee9b252	-0.4564386
150	0xbce227b1	-0.027606817
151	0xbe91e08d	-0.2849163
152	0xbf29e3a4	-0.6636298
153	0x3ea49ce1	0.3215094
154	0x3eb46901	0.35236362
155	0x3eff9fc0	0.49926567
156	0xbe1c44ec	-0.15260667
157	0x3eed947f	0.46402356
158	0x3e833e37	0.25633404
159	0x3f212cfd	0.6295927
160	0xbf33c612	-0.70224106
161	0xbf2dee47	-0.6794171
162	0x3e46bb54	0.19407398
163	0x3f3b08d3	0.7306034
164	0x3e7bbc9a	0.24583665
165	0xbf0b43c3	-0.5440027
166	0x3eab398a	0.33442336
167	0x3de0ef96	0.109831974
168	0xbc5543bf	-0.01301664
169	0x3ec99803	0.39373788
170	0x3e045737	0.12923895
171	0x3e3a6760	0.18203497
172	0xbe3ed54d	-0.18636055
173	0x3a943675	0.0011307733
174	0x3e2c7f30	0.16845393
175	0xbf26bdbf	-0.6513328
176	0xbf2b5cf3	-0.66938704
177	0x3eb0e6f5	0.34551206
178	0x3ebeb1b5	0.37244955
179	0xbe2bdbc9	-0.1678306
180	0x3f2872c2	0.65800107
181	0xbe7867b0	-0.24258304
182	0x3dd68506	0.10474591
183	0xbd9e89f9	-0.0774116
184	0xbe5db418	-0.21650732
185	0xbeb52a10	-0.35383654
186	0xbf0cb985	-0.5497058
187	0x3df7cdb5	0.120997824
188	0xbe966742	-0.29375654
189	0xbf16570d	-0.5872658
190	0x3f1e9f62	0.6196195
191	0x3ea682b8	0.32521605
192	0x3e788969	0.24271168
193	0x3c9f4964	0.019444175
194	0x3ec9dfad	0.39428464
195	0xbe81270d	-0.25225106
196	0xbd7ba3c3	-0.061435472
197	0xbd04691f	-0.032326814
198	0x3db386e8	0.08765966
199	0x3e41388d	0.18869229
200	0x3e4a33f2	0.19746378
201	0x3e9f8229	0.31153992
202	0x3d856218	0.065128505
203	0xbe3abcdf	-0.18236111
204	0x3f40513a	0.7512394
205	0xbea07937	-0.3134248
206	0xbeb90546	-0.36136836
207	0xbe6b6df1	-0.22991158
208	0x3ec306f8	0.38091254
209	0x3db578b2	0.088609114
210	0xbe1a098f	-0.15042709
211	0xbe70ba5a	-0.23508587
212	0xbe3321e2	-0.17493394
213	0x3ef54f8f	0.4791226
214	0xbf1149df	-0.56753343
215	0xbcfcc31b	-0.030854752
216	0x3ef6f0ff	0.4823074
217	0x3f34d2ab	0.70633954
218	0x3e24772f	0.1606109
219	0xbea916db	-0.3302525
220	0x3f185e86	0.5951923
221	0xbf22432b	-0.6338374
222	0xbe57e4e7	-0.21083413
223	0x3db2f2bf	0.087377064
224	0x3d6aa7cd	0.057288934
225	0x3e02b078	0.1276263
226	0xbed76326	-0.42067832
227	0xbf0f26a3	-0.5591833
228	0x3dfbe92e	0.12300335
229	0x3c3ff5f3	0.011716354
230	0xbee8edb0	-0.4549384
231	0xbed74f8f	-0.42052886
232	0x3f358af3	0.70915145
233	0x3ee74e48	0.4517691
234	0x3b33c9ec	0.0027433587
235	0xbec831f7	-0.3910062
236	0x3dc8abe3	0.0979841
237	0xbf1040e9	-0.56349045
238	0xbedbd906	-0.42939013
239	0xbe2361a6	-0.15955219
240	0xbdfbfbdc	-0.12303898
241	0x3ef4b97d	0.47797766
242	0x3ea08c69	0.31357124
243	0xbf16d964	-0.5892546
244	0x3cc455e9	0.023966746
245	0xbf22c060	-0.6357479
246	0x3e9b1b09	0.30294064
247	0xbef8d8ec	-0.48602998
248	0xbe9d38f2	-0.30707508
249	0x3e16ea0e	0.14737722
250	0x3f18dc5c	0.5971124
251	0x3eb49b35	0.35274664
252	0x3e76b8ac	0.24093884
253	0x3edcbe7b	0.43114075
254	0xbe0734fc	-0.13203806
255	0x3e5f055b	0.21779387

layers.1.fc_neigh.weight f4 [48, 48]
0	0xbea4f469	-0.3221772
1	0xbe625197	-0.22101437
2	0x3c84aec0	0.016196609
3	0x3de68f9b	0.11257859
4	0xbeba0a32	-0.36335903
5	0xbe87f846	-0.26556605
6	0x3de9e3d1	0.11420406
7	0xbb13b7e7	-0.0022540034
8	0xbea9330c	-0.33046758
9	0xbc924c36	-0.017858606
10	0xbe3b099a	-0.18265381
11	0x3d025cdc	0.03182684
12	0xbe5c453e	-0.21510789
13	0xbe0b1ff4	-0.13586408
14	0xbe0c485f	-0.13699482
15	0x3dfe772b	0.12425073
16	0xbddddd89	-0.1083327
17	0x3ea0a1e7	0.31373522
18	0x3e9ea1ce	0.30982822
19	0xbebda77d	-0.37041846
20	0x3ec04e14	0.3755957
21	0x3e9a055a	0.30082208
22	0x3ea48dd5	0.3213946
23	0x3e6fc6ac	0.23415631
24	0xbdcf2402	-0.1011429
25	0xbe4474fa	-0.19185248
26	0x3e6090a6	0.21930179
27	0x3e96f183	0.29481134
28	0x3e0db715	0.13839372
29	0x3eaccde7	0.3375084
30	0xbe8b9257	-0.27260086
31	0x3e536d73	0.2064722
32	0xbe66ffa0	-0.2255845
33	0xbecd2c16	-0.40072697
34	0xbd7c4fcb	-0.061599534
35	0xbdfd2344	-0.12360242
36	0xbe50c986	-0.20389375
37	0xbe5f35e4	-0.21797901
38	0xbe7a13a6	-0.24421558
39	0x3d9a18f2	0.07524289
40	0xbe805017	-0.25061104
41	0x3e596fa3	0.21233992
42	0xbe760ce6	-0.24028358
43	0xbea7e73d	-0.32793608
44	0xbed8e075	-0.42358747
45	0x3e80756c	0.25089586
46	0x3e79a722	0.24380162
47	0xbe5264ab	-0.20546214
48	0xbd86fcca	-0.065911844
49	0x3e977ef7	0.29589054
50	0xbefa32d0	-0.48866892
51	0xbdd9767c	-0.10618302
52	0xbedd1b8b	-0.43185076
53	0xbe947ec3	-0.29002962
54	0x3d0aeb3a	0.033915736
55	0x3e71dd7f	0.2361965
56	0x3e423c39	0.18968286
57	0x3ea1b1d7	0.31580994
58	0xbda9859b	-0.08277436
59	0xbe1563e9	-0.14588894
60	0x3c9cc8cf	0.019138722
61	0xbe901c00	-0.28146362
62	0xbe1e46d2	-0.15456703
63	0xbd08bd85	-0.033383865
64	0x3e8d92f3	0.27651176
65	0x3eb5e56e	0.35526603
66	0x3ee33409	0.44375637
67	0xbe5f2e39	-0.21794976
68	0x3ecc725a	0.39930993
69	0x3c8f5d6a	0.017500598
70	0x3e602f76	0.21893105
71	0x3e7db983	0.24777798
72	0x3ecebc54	0.40378058
73	0x3c82f4ec	0.015985928
74	0xbe6884c6	-0.22706899
75	0x3edcd259	0.43129233
76	0xbe2adfbd	-0.16686912
77	0xbe0496a7	-0.12948094
78	0xbebc8621	-0.36821082
79	0xbe508435	-0.20362933
80	0xbe645001	-0.22296144
81	0xbeab3590	-0.33439302
82	0xbda26b5d	-0.07930634
83	0x3d6c2647	0.05765369
84	0xbeb404c3	-0.35159883
85	0xbe9b18a8	-0.3029225
86	0xbe05fa97	-0.13083874
87	0xbe1b12cd	-0.1514389
88	0xbe8ba57e	-0.27274698
89	0x3ea3e987	0.32014105
90	0xbe6b60f2	-0.229862
91	0xbe398cb8	-0.18120086
92	0x3e777c91	0.24168612
93	0x3e869c27	0.2629101
94	0x3e49a6d7	0.1969255
95	0xbe661209	-0.22467817
96	0x3e9dd33b	0.3082522
97	0x3d69904e	0.057022385
98	0x3ed3a85e	0.4133939
99	0x3ef24dbc	0.47324932
100	0x3d8f6eca	0.07003553
101	0xbda16852	-0.07881226
102	0xbdbdd81a	-0.09269734
103	0x3eb2b69c	0.34904945
104	0xbbb9e00f	-0.005672462
105	0x3de301f7	0.11084359
106	0x3d88658c	0.066599935
107	0x3e9a0623	0.30082807
108	0xbd4e23af	-0.050327
109	0xbda995e0	-0.082805395
110	0xbc575f79	-0.013145321
111	0x3e82e136	0.25562447
112	0x3eac780f	0.33685347
113	0x3ea9ed18	0.331887
114	0xbe05f490	-0.13081574
115	0x3d72af76	0.059249364
116	0xbe32e082	-0.17468455
117	0x3e1cc2b2	0.15308645
118	0xbe0ef7f3	-0.13961773
119	0x3c72650e	0.014794601
120	0x3e0fb11a	0.14032403
121	0x3c980e3a	0.018561471
122	0xbe8516b1	-0.25993875
123	0x3dd492d0	0.10379565
124	0xbbc0553e	-0.0058695367
125	0xbe09d26a	-0.13459173
126	0xbe53ad9d	-0.20671697
127	0xbec9f80a	-0.3944705
128	0xbe171ea5	-0.14757784
129	0xbea241be	-0.31690782
130	0x3de1d1e7	0.11026364
131	0x3ecfbe5a	0.40574914
132	0xbe619b35	-0.22031863
133	0x3e7f0e42	0.24907783
134	0xbdbb4182	-0.09143354
135	0x3e6c257d	0.23061176
136	0xbe11fad0	-0.14255834
137	0xbead8a95	-0.33894792
138	0x3e419adc	0.1890673
139	0xbe05b56d	-0.1305749
140	0x3ea1aad9	0.3157566
141	0xbe3245c7	-0.1740943
142	0x3cce219b	0.025162509
143	0xbea8b6a8	-0.32951856
144	0xbd8cc5a4	-0.068736345
145	0x3ebeade6	0.3724205
146	0x3dcf8842	0.10133411
147	0x3e1ede44	0.15514475
148	0x3e1280d6	0.1430696
149	0xbede41b4	-0.43409503
150	0x3def234a	0.11676653
151	0x3dbd0c44	0.09230855
152	0xbe41cfb0	-0.18926883
153	0xbe77bb73	-0.241926
154	0x3e04244e	0.12904474
155	0x3eabbc0d	0.3354191
156	0xbda5cb7c	-0.08095452
157	0x3e37c2d6	0.17945418
158	0xbeb26e5c	-0.34849823
159	0xbd3df081	-0.04637194
160	0xbe26460d	-0.1623766
161	0xbdcff707	-0.101545386
162	0x3e8bbd41	0.27292827
163	0xbe979a0c	-0.29609716
164	0x3eb6ef77	0.35729572
165	0x3e9bc656	0.30424756
166	0xbe517337	-0.20454107
167	0x3e9c8933	0.30573425
168	0x3d8d7ea3	0.0690892
169	0xbdb2c044	-0.08728078
170	0x3d36a52e	0.04459112
171	0xbca15c10	-0.01969722
172	0xbec71ad1	-0.38887647
173	0xbe9633dc	-0.2933644
174	0xbd51aa8f	-0.051188048
175	0x3ea59467	0.32339785
176	0x3e838866	0.2569
177	0xbec2b4a6	-0.3802845
178	0xbe5e1d76	-0.21690926
179	0xbdd9071d	-0.1059706
180	0x3e9be273	0.30446205
181	0x3cb9594b	0.022625586
182	0xbd20f9d9	-0.039300773
183	0xbd8fbac8	-0.070180476
184	0x3e9ced1c	0.3064965
185	0x3d070a65	0.032968897
186	0xbe1dbee5	-0.15404852
187	0xbdd8461e	-0.10560249
188	0x3ce456ed	0.02787348
189	0x3d3049c3	0.043039095
190	0x3e9e1ace	0.30879825
191	0xbe8ba49e	-0.2727403
192	0xbe1af02a	-0.15130678
193	0x3e25ba0e	0.16184255
194	0xbe1c9d13	-0.15294294
195	0xbd8334f5	-0.06406585
196	0xbd7facb0	-0.062420547
197	0x3dea8221	0.11450601
198	0xbeef0260	-0.466815
199	0x3e40144a	0.1875774
200	0x3d0ffb59	0.035151813
201	0x3c5e8b40	0.0135830045
202	0x3ec6480e	0.38726848
203	0xbef1b414	-0.472077
204	0x3e81cb65	0.2535049
205	0xbe59257c	-0.21205705
206	0xbe33a99a	-0.17545167
207	0x3b9727a5	0.0046128803
208	0x3db6bb91	0.08922494
209	0xbed00843	-0.40631303
210	0x3edcf8d3	0.43158588
211	0xbdaf95bb	-0.08573481
212	0xbdbb364b	-0.09141215
213	0xbe9757e8	-0.29559255
214	0xbed4a09f	-0.41528794
215	0x3e643231	0.22284772
216	0x3ea1d0d1	0.31604627
217	0x3e925dbd	0.28587142
218	0x3e71d1e4	0.23615223
219	0x3dfb2243	0.12262394
220	0x3d1dc1b2	0.0385148
221	0xbeab77f4	-0.33489954
222	0x3eb11bb0	0.34591436
223	0x3d7ccc06	0.06171801
224	0x3d65cf78	0.05610606
225	0xbde52cc0	-0.11190176
226	0x3e37bf9a	0.17944184
227	0xbd2bad14	-0.041913107
228	0x3e2c90f7	0.16852175
229	0x3ce354fe	0.027750488
230	0x3e493442	0.19648841
231	0xbeffa075	-0.49927106
232	0xbeb52f77	-0.35387775
233	0x39f74272	0.00047161017
234	0x3ccbbaf3	0.024869418
235	0x3e9fee61	0.31236556
236	0x3ed56057	0.41675064
237	0xbebdbbc0	-0.37057304
238	0xbe5b2c52	-0.21403626
239	0xbe83a064	-0.25708306
240	0x3ea6e65c	0.32597625
241	0x3e6bbc7f	0.23021124
242	0xbe75aad1	-0.23990943
243	0xbee74fc8	-0.45178056
244	0x3e5a1147	0.21295653
245	0xbdbe3db2	-0.09289111
246	0x3ecfa6dc	0.4055699
247	0xbe3e78ea	-0.18600813
248	0xbefa63af	-0.48904178
249	0x3ed54521	0.41654304
250	0x3dafd058	0.0858466
251	0xbe70db03	-0.23521046
252	0x3d72d495	0.059284765
253	0xbc91d272	-0.017800543
254	0x3e8e02dd	0.2773656
255	0x3d1ce3c6	0.03830316

fc1.weight f4 [3, 48]
0	0xbf05a283	-0.522011
1	0xbedf20e2	-0.43579775
2	0xbe6eb9f5	-0.23313124
3	0xbed29e27	-0.41136286
4	0x3ec6fe44	0.38865864
5	0xbf1a99f8	-0.6039119
6	0xbd584d96	-0.052808367
7	0x3e672d11	0.22575785
8	0xbee152ba	-0.44008428
9	0x3f122419	0.5708633
10	0xbedb47e3	-0.42828283
11	0x3ef3625a	0.47535974
12	0xbee52037	-0.4475114
13	0x3edac114	0.42725432
14	0x3e8f3172	0.2796741
15	0x3f11ac5c	0.56903625
16	0x3eb8fc81	0.36130145
17	0x3f036db6	0.5133928
18	0xbea545d0	-0.32279825
19	0xbeda0187	-0.4257929
20	0x3eb58b29	0.35457733
21	0xbea47f2a	-0.32128268
22	0xbee23098	-0.441777
23	0x3e61b882	0.2204304
24	0x3efb42c9	0.4907439
25	0x3efa4c31	0.48886254
26	0x3ea5d459	0.3238857
27	0xbeb1b839	-0.34710863
28	0xbef196e9	-0.47185448
29	0xbe78f92f	-0.24313806
30	0xbea2cafe	-0.31795496
31	0xbea01add	-0.31270495
32	0xbf11e357	-0.5698752
33	0xbec86080	-0.39136124
34	0x3ee763bc	0.4519328
35	0x3e81768c	0.25285757
36	0x3e4b0463	0.19825892
37	0x3e0ad907	0.13559352
38	0xbee722a3	-0.45143613
39	0x3f021a09	0.50820976
40	0x3e39cd6b	0.18144767
41	0xbe5ff7ec	-0.21871918
42	0x3e805baa	0.25069934
43	0xbefba3bd	-0.4914836
44	0xbea77c99	-0.32712248
45	0xbee6ef79	-0.45104578
46	0x3f25db80	0.64788055
47	0xbe54ba3a	-0.20774165
48	0x3e288d88	0.1646024
49	0x3f023641	0.50864035
50	0xbedbdcc5	-0.4294187
51	0x3ec9d6dc	0.39421737
52	0x3d81adee	0.063320026
53	0x3e4f9733	0.20272522
54	0x3ed98689	0.42485455
55	0x3ed843a6	0.42239112
56	0x3e6f6d38	0.23381507
57	0xbe75f4de	-0.2401919
58	0x3c4b0fb3	0.01239388
59	0xbe9d1f52	-0.30687958
60	0x3e9cf6fa	0.30657178
61	0x3de0d442	0.10977985
62	0xbee730a8	-0.4515431
63	0xbe1f72b6	-0.15571102
64	0x3e72b39a	0.23701325
65	0xbe9e74f4	-0.30948603
66	0xbeba1100	-0.36341095
67	0xbe2fda1b	-0.17173044
68	0xbeddb1c3	-0.43299684
69	0x3ebb3f1a	0.3657158
70	0x3ee7ba59	0.4525936
71	0x3ea592aa	0.32338458
72	0xbebef642	-0.37297255
73	0xbed42f59	-0.41442373
74	0xbee2207a	-0.44165403
75	0xbd92c536	-0.07166521
76	0x3ea5441a	0.3227852
77	0x3f0bee16	0.54660165
78	0x3efc2662	0.49248034
79	0xbeca6d2f	-0.39536425
80	0x3e414969	0.1887566
81	0xbebf3c69	-0.37350777
82	0xbe313720	-0.17306185
83	0xbf020321	-0.50786024
84	0xbed8855b	-0.42289242
85	0x3f010012	0.5039073
86	0x3e8a103d	0.26965514
87	0xbebcfb0d	-0.36910287
88	0x3e29223f	0.1651697
89	0xbeda7de7	-0.4267418
90	0x3e776272	0.24158648
91	0x3eb4af45	0.3528997
92	0x3efda45d	0.49539462
93	0x3eb7563f	0.35807988
94	0xbd9af012	-0.07565321
95	0xbedc0734	-0.42974246
96	0x3e3cabf7	0.18424974
97	0xbe8b8592	-0.27250344
98	0x3f27e894	0.6558926
99	0x3dbc2f6b	0.09188732
100	0xbefa2826	-0.48858756
101	0xbcb57356	-0.022149723
102	0xbf1b5608	-0.6067815
103	0xbf1a57a0	-0.60289955
104	0x3eb42850	0.35187006
105	0xbe545b29	-0.207379
106	0x3ea45863	0.32098684
107	0xbeb13921	-0.34613898
108	0x3e6a80e5	0.22900732
109	0xbefcfafb	-0.49410233
110	0xbcd7900a	-0.0263138
111	0xbdaa41db	-0.08313342
112	0xbf07ec87	-0.5309529
113	0xbe7a7313	-0.2445796
114	0x3ee08c1a	0.4385689
115	0x3f0730a7	0.5280861
116	0x3f03a021	0.5141621
117	0xbe81b4df	-0.25333306
118	0xbd2301a3	-0.039796483
119	0xbf18cf6d	-0.59691507
120	0xbe2de8d5	-0.1698335
121	0xbe224dea	-0.15850034
122	0x3e7e07f0	0.24807715
123	0x3f043f90	0.5165949
124	0x3e767ac1	0.24070264
125	0xbf12b9dc	-0.5731485
126	0xbef80175	-0.48438612
127	0x3f246423	0.64215297
128	0x3e6119b0	0.21982455
129	0x3f0125a3	0.50448054
130	0xbead16a3	-0.33806333
131	0x3ec8f5b6	0.39249963
132	0x3eda6d95	0.4266173
133	0xbf193ddd	-0.5986002
134	0x3e9573de	0.29189962
135	0xbe30eb7a	-0.17277327
136	0xbf263250	-0.6492052
137	0x3f1ed774	0.62047505
138	0xbf0143af	-0.504939
139	0x3e9007ce	0.28130955
140	0xbe8b3d0a	-0.27195007
141	0x3eaf598c	0.34248006
142	0xbea2d594	-0.31803572
143	0x3f0e9aa0	0.5570469

fc1.bias f4 [3]
0	0xbd8d4bee	-0.06899248
1	0xbd940c42	-0.072289005
2	0x3c6057bc	0.0136927925
