models/current_checkpoint_cora.pt (torch, 576011 bytes, 8 tensors)

layers.0.bias f4 [48]
0	0xbc9eb2cc	-0.019372366
1	0xbc42c2f6	-0.011887303
2	0xbcf6c82e	-0.03012475
3	0x3c8af52a	0.016962606
4	0xbbf0cf3c	-0.007348923
5	0x3c8fa15c	0.017532997
6	0x3c0b650a	0.008507976
7	0x3b9c542e	0.004770777
8	0xbd46e0ab	-0.048554104
9	0x3cacf0e8	0.021110967
10	0xbc90616d	-0.017624581
11	0x3d29634f	0.041354474
12	0xbc41da7a	-0.011831874
13	0x3cbc1822	0.022960726
14	0x3cf415a1	0.02979547
15	0x3bf8722d	0.00758197
16	0x3c6e5ea3	0.01454893
17	0x3c25afb7	0.010112694
18	0x3c475b08	0.0121677
19	0x3d516706	0.05112364
20	0x3c63bab3	0.013899493
21	0x3ced3b40	0.028958917
22	0xbb7cc647	-0.003857033
23	0xbbb5143f	-0.005526095
24	0x3b547173	0.0032416254
25	0xbc8e2e4a	-0.017356057
26	0x3c53787d	0.012907145
27	0xbaf398d4	-0.0018584975
28	0x3d09db59	0.03365645
29	0xbcc1dc68	-0.023664668
30	0xbc9d0138	-0.01916562
31	0xbc8e7dbc	-0.01739394
32	0x3bb09b35	0.005389596
33	0xbc91e85c	-0.017810993
34	0x3c97ac8b	0.018514892
35	0x3ccf8056	0.02532975
36	0xbb8eb10e	-0.0043546027
37	0xbc87156e	-0.01648971
38	0x3b13e18e	0.002256486
39	0x3c7eeecd	0.015559864
40	0xbc18d373	-0.009327757
41	0xbbdbed42	-0.006711633
42	0xbcf49cdf	-0.029859958
43	0xbcacc135	-0.021088222
44	0xbaaffc10	-0.0013426561
45	0x3cf6ef6e	0.030143466
46	0x3c8ae82d	0.016956413
47	0xbca7083a	-0.020389665

layers.0.fc_self.weight f4 [48, 1440]
0	0xbb1c4a24	-0.0023847902
1	0xbd4f4ee0	-0.05061233
2	0x3d840f4c	0.0644823
3	0x3d5d049c	0.053959474
4	0x3c7b11c8	0.015324064
5	0xbdc2e4ad	-0.09516273
6	0xbd8a3290	-0.06747925
7	0x3d68cebb	0.05683778
8	0xbcab0207	-0.02087499
9	0x3d68639e	0.056735627
10	0x3ac044be	0.0014668924
11	0xbcad4fe2	-0.021156255
12	0x3ca80ac2	0.020512942
13	0xbcb39800	-0.021923065
14	0x3dcd1f7a	0.10015769
15	0x3d6e422c	0.058168575
16	0x3da823f3	0.08209982
17	0x3d986404	0.074409515
18	0x3d8fd7b1	0.07023562
19	0x3b0190ef	0.0019770225
20	0xbc243c8a	-0.010024199
21	0x3dad010f	0.084474675
22	0x3d8479c8	0.064685404
23	0x3d51eb4a	0.05124978
24	0xbb2cc9bc	-0.002636536
25	0x3ca355bd	0.019938344
26	0xbd822168	-0.06354028
27	0xbc05ef3e	-0.008174716
28	0xbd9ac5ed	-0.075572826
29	0x3cce5a8b	0.025189659
30	0xbd786cd1	-0.06065065
31	0x3d73d394	0.05952795
32	0x3cf150b4	0.029457428
33	0x3d53c2ad	0.05169933
34	0x3c22de6a	0.009940723
35	0x3d817c86	0.06322579
36	0x3d44ea19	0.048074815
37	0x3ce53f03	0.027984148
38	0xbc86f403	-0.016473776
39	0x3d7fa340	0.062411547
40	0x3d632d23	0.055462968
41	0x3ce08de9	0.027411418
42	0xbdcc1ba8	-0.099662125
43	0x3c0d7e3d	0.008636055
44	0x3d601ab2	0.05471296
45	0x3d5848af	0.05280369
46	0xbda346a2	-0.079724565
47	0x3d918c6f	0.07106864
48	0x3da7eacb	0.0819908
49	0xbbbb79c0	-0.005721301
50	0x3d0408e6	0.03223505
51	0xbd4cdb9d	-0.050014127
52	0xbc22e3b7	-0.009941987
53	0x3c1bc9f1	0.009508596
54	0xbd2490b6	-0.04017707
55	0xbc153d3e	-0.00910884
56	0x3b0bf197	0.0021353716
57	0x3d6cc6dc	0.057806835
58	0x3d2a1aea	0.041529574
59	0x3d421836	0.04738637
60	0x3d4069eb	0.04697601
61	0x3c6f01ae	0.014587803
62	0xbd85dbdf	-0.06536078
63	0x3c38f44e	0.0112887155
64	0x3c0cc12d	0.008590979
65	0x3d26aa28	0.040689617
66	0x3d139d23	0.03603853
67	0xbce2a2e3	-0.027665561
68	0xbd1960cf	-0.03744584
69	0xbd8adc69	-0.06780321
70	0x3d6fd946	0.058556817
71	0x3c1e6434	0.009667445
72	0xbd80026e	-0.062504634
73	0xbd83785f	-0.06419443
74	0x3be83809	0.007086758
75	0xbcd06560	-0.025438964
76	0x3d898f82	0.06716825
77	0xbcf6c9c2	-0.030125502
78	0x3d8e041d	0.06934378
79	0xbd0db350	-0.034594834
80	0xbd1b1e88	-0.037870914
81	0xbcd2aff5	-0.025718668
82	0xbd947b22	-0.07250048
83	0x3d4bfa8c	0.049799487
84	0x3d89e18f	0.06732475
85	0xbdfd4a79	-0.1236772
86	0xbc80ce8f	-0.015723495
87	0x3d589bbb	0.05288289
88	0x3bda8424	0.0066685844
89	0x3c3f4f16	0.01167657
90	0x3bb582c6	0.005539271
91	0x3dbce881	0.09224034
92	0x3d506610	0.050878584
93	0xbc3802c9	-0.011231133
94	0xbcb39e56	-0.021926086
95	0xbbb19b60	-0.0054201335
96	0x3da57793	0.080794476
97	0xbc4cae23	-0.012492689
98	0xbcdc7e04	-0.026915558
99	0x3d0dc4d1	0.034611527
100	0xbd725810	-0.059166014
101	0x3d8927ec	0.066970676
102	0x3dc6e48d	0.09711561
103	0xbd19edb1	-0.037580196
104	0xbd9163c3	-0.07099106
105	0x3d3b7e99	0.04577503
106	0x3d60d5af	0.054891285
107	0x3d3ade2c	0.045622036
108	0xbda1803f	-0.07885789
109	0x3c1358f8	0.00899338
110	0x3d65fda2	0.056150086
111	0x3d59fca1	0.05321944
112	0xbd472034	-0.048614696
113	0xbdc26b8d	-0.0949317
114	0x3c2046bb	0.009782488
115	0x3d7f2554	0.06229146
116	0xbd3a4907	-0.0454798
117	0xbd522c55	-0.05131181
118	0xbc18c63a	-0.009324605
119	0xbc2d4d32	-0.010577487
120	0xbd00fa00	-0.03148842
121	0xbc2fda22	-0.010733159
122	0x3c94ceb9	0.01816498
123	0xbd4272b8	-0.047472686
124	0x3daf1bd0	0.08550227
125	0x3d221d88	0.039578944
126	0xba0dbb70	-0.00054066535
127	0xba1d9712	-0.0006011586
128	0x3d53e9cb	0.051736634
129	0xbd970a6f	-0.07375037
130	0xbdd6231a	-0.10455914
131	0x3d7d8051	0.06188995
132	0xbd5f1470	-0.05446285
133	0x3d24b46f	0.040211137
134	0x3d8ccd88	0.068751395
135	0x3da8bdc7	0.08239322
136	0xbc8866c2	-0.016650561
137	0x3d9953b8	0.07486671
138	0x3ce09413	0.027414357
139	0xbc78ca71	-0.015184985
140	0xbc764ab5	-0.01503246
141	0xbdfb78f0	-0.12278926
142	0xbcc09b25	-0.023511479
143	0xbdbe2a41	-0.09285403
144	0x3d9faecd	0.077970125
145	0x3d92f638	0.07175869
146	0xbda731ed	-0.081638195
147	0x3d84b701	0.06480218
148	0xbcd9fb2a	-0.026609022
149	0x3d67c6b9	0.056586
150	0x3cd6ce73	0.02622149
151	0xbaeeea27	-0.0018227742
152	0x3d923c39	0.07140393
153	0xbce37c63	-0.027769273
154	0x3d4c7d2e	0.04992407
155	0x3d489958	0.048974365
156	0xbd0d05aa	-0.03442923
157	0xbce5ab9e	-0.028035935
158	0xbae4f7c5	-0.0017468861
159	0x3d23a64d	0.03995352
160	0xbdf27450	-0.11838591
161	0x3d2a24a2	0.041538842
162	0x3d1d00a1	0.038330678
163	0xbd6d6526	-0.05795779
164	0xba0593be	-0.00050955627
165	0xbcd762b9	-0.026292192
166	0xbd4d79ce	-0.05016499
167	0xbc8fbf2f	-0.017547218
168	0xbd0b0cff	-0.03394794
169	0xbd544c02	-0.0518303
170	0xbda974cc	-0.0827423
171	0xbd9f8057	-0.07788151
172	0x3bbb7929	0.0057212305
173	0x3dc1caf1	0.09462536
174	0xbd90f379	-0.07077689
175	0x3be03886	0.0068426756
176	0xbd648b25	-0.05579676
177	0xbd339aee	-0.043848924
178	0x3d56299f	0.052285787
179	0xbc9d266b	-0.019183358
180	0x3dc40901	0.0957203
181	0xbdb66aec	-0.089071125
182	0xbcd68d4e	-0.026190426
183	0xbd061eff	-0.032744404
184	0xbd84719a	-0.0646698
185	0xbc7ef052	-0.0155602265
186	0x3c780df6	0.015140047
187	0x3bf76302	0.0075496444
188	0xbd4eddb8	-0.050504416
189	0x3cf08b98	0.029363438
190	0x3c451923	0.012029919
191	0xbc5803d5	-0.013184507
192	0x3bb3268e	0.0054672426
193	0xbd46b59a	-0.048513032
194	0xbd1f5857	-0.038902607
195	0x3d317d70	0.043332517
196	0x3d14c108	0.0363169
197	0x3d9480f0	0.072511554
198	0x3d0b9665	0.034078974
199	0xbb82ab89	-0.0039877337
200	0x3dc3c458	0.09558934
201	0xbd21aece	-0.039473347
202	0x3d2ae11e	0.041718595
203	0xbdce2714	-0.10066047
204	0x3cbae905	0.02281619
205	0xbd48c949	-0.049020085
206	0xbd5fa00d	-0.054595996
207	0xbd1dd603	-0.038534176
208	0xbd68c7d6	-0.056831203
209	0xbd010d11	-0.0315066
210	0x3d3102db	0.043215614
211	0xbce66df1	-0.028128596
212	0x3da8a16c	0.08233914
213	0xbd591bdf	-0.053005096
214	0xbd65f498	-0.056141466
215	0x3ca11b30	0.019666284
216	0xbda14ffb	-0.07876583
217	0x3b5e9df9	0.003396867
218	0xbd9dae0d	-0.07699213
219	0xbd8d6d7c	-0.06905648
220	0xbc964707	-0.018344415
221	0xbdcd0598	-0.100108325
222	0x3c818af6	0.015813332
223	0x3d482758	0.048865646
224	0x3d8730eb	0.06601127
225	0xbd4d4600	-0.050115585
226	0xbdb62ff0	-0.08895862
227	0x3c8fe7d0	0.017566592
228	0x3cf74f1f	0.030189095
229	0x3d5aeb3c	0.053446993
230	0x3c8c4c33	0.017126178
231	0xbc3aac71	-0.011393652
232	0xbd957407	-0.07297521
233	0x3ce76349	0.028245585
234	0x3c95759b	0.018244555
235	0x3c9c26be	0.019061442
236	0xbd80e465	-0.06293563
237	0x3dd40087	0.10351663
238	0xbdcee460	-0.10102153
239	0xbdaa5553	-0.083170556
240	0xbd1af871	-0.03783459
241	0x3d04e8ae	0.032448463
242	0xbbe231a3	-0.00690289
243	0xbd8b77f6	-0.0680999
244	0x3d3f52b4	0.04670973
245	0xbd56cad4	-0.052439526
246	0xbd7ab53d	-0.061208
247	0xbd55b614	-0.052175596
248	0xbd9b8e6c	-0.07595524
249	0x3d8b38c4	0.067979366
250	0x3d43a328	0.04776302
251	0xbd186007	-0.037200954
252	0x3c6905e8	0.0142226
253	0xbd883ad6	-0.06651847
254	0x3bac382c	0.0052557196
255	0xbd5e6c23	-0.054302346

layers.0.fc_neigh.weight f4 [48, 1440]
0	0x3ddb178d	0.10697851
1	0x3d9ca808	0.07649237
2	0x3b0758b5	0.0020652239
3	0x3dd3093a	0.10304494
4	0x3c73ec9a	0.014887953
5	0xbc4d19d8	-0.012518369
6	0x3c948d59	0.018133806
7	0x3d46c37a	0.048526265
8	0xbcdc0553	-0.026858008
9	0x3d23db5b	0.040004116
10	0xbda32a10	-0.07967007
11	0x3d9082f6	0.07056229
12	0xbde4f3fd	-0.111793496
13	0x3cadf97d	0.02123713
14	0x3d18afd7	0.03727707
15	0xbd1ce5b3	-0.038304996
16	0xbd624183	-0.055238258
17	0xbdd13275	-0.10214702
18	0x3c933b71	0.01797268
19	0xbd8a8e0b	-0.06765374
20	0xbb6a4cfb	-0.003575145
21	0x3d098b67	0.03358021
22	0xbb5f1ac6	-0.0034043058
23	0xbc5d612d	-0.013511938
24	0xbcd569e0	-0.026051462
25	0xbd8ecf3b	-0.0697312
26	0xbd81d5b3	-0.06339588
27	0xbd328679	-0.043585274
28	0xbb7d051c	-0.0038607782
29	0xbdb0ec28	-0.08638793
30	0xbb01a037	-0.0019779333
31	0x3db3d9f3	0.08781805
32	0xbc8d0610	-0.017214805
33	0xbdaaa262	-0.08331753
34	0xbd30abab	-0.043132465
35	0x3d2e70b8	0.042587966
36	0x3d944f66	0.072417066
37	0xbb8bd511	-0.004267343
38	0xbac6eea3	-0.001517732
39	0xbd021c61	-0.031765345
40	0x3d8b2508	0.067941725
41	0xbbb4bed5	-0.005515913
42	0x3db4a781	0.08821011
43	0x3bb2cef5	0.0054568
44	0x3d958f54	0.07302728
45	0x3dbaf65b	0.0912902
46	0xbd3952dd	-0.04524504
47	0x3c4b6ef6	0.012416592
48	0xba4c7f3d	-0.00078009424
49	0xbd680795	-0.056647856
50	0x3d8e4ecd	0.06948624
51	0x3cdd0e27	0.026984287
52	0x3c2d8776	0.010591378
53	0xbd262111	-0.04055888
54	0xbcddd4ba	-0.027078975
55	0x3c75682e	0.014978452
56	0xbc99cec2	-0.018775348
57	0xbd33b4cf	-0.043873604
58	0x3dd8463c	0.10560271
59	0xbd630f96	-0.055434786
60	0x3d7571ce	0.059922986
61	0xbd2c49b7	-0.042062487
62	0xbdd40e18	-0.10354251
63	0x3c3870d9	0.011257374
64	0xbd9e5aae	-0.077321395
65	0x3db24e74	0.0870637
66	0x3d4e7245	0.050401945
67	0x3cacf48d	0.021112705
68	0x3b473c60	0.0030400977
69	0x3dbd962e	0.0925716
70	0xbdee7e68	-0.11645204
71	0x3ce85f35	0.02836571
72	0x3cb9ce2c	0.022681318
73	0x3d01306c	0.03154032
74	0x3d1c0af7	0.038096394
75	0xbc92a570	-0.017901152
76	0xbc9a6414	-0.01884655
77	0x3d2a339e	0.041553132
78	0x3baae416	0.0052151782
79	0x3d4c8172	0.049928136
80	0x3d1c6d41	0.03819013
81	0xbcc35eed	-0.023848975
82	0xbd7f9ec8	-0.062407285
83	0x3da85061	0.08218456
84	0x3cded688	0.027201906
85	0x3d7a26b5	0.06107207
86	0x3d1d2336	0.038363658
87	0x3d657e55	0.056028683
88	0x3d9be64f	0.07612287
89	0xbbeb80a0	-0.007186964
90	0xbd084b6f	-0.033275064
91	0x3da65fc4	0.081237346
92	0xbcb9cd87	-0.02268101
93	0x3a9d59a1	0.0012004861
94	0xbdb877c4	-0.090072185
95	0xba32c680	-0.000681974
96	0x3d2ba86f	0.041908678
97	0x3cfe2776	0.031024676
98	0xbdb1b69a	-0.086774066
99	0xbb102834	-0.002199662
100	0x3d72e180	0.059297085
101	0xbd9855a0	-0.07438207
102	0xbd123d8e	-0.035703234
103	0x3d40ab47	0.047038343
104	0xbdcd79a6	-0.10032968
105	0xbcec5ba4	-0.028852291
106	0x3df48dc0	0.11941099
107	0xbd1a0abd	-0.037607897
108	0xbd9830e6	-0.07431202
109	0xbbca46c0	-0.006172985
110	0xbdd4fec6	-0.10400157
111	0x3b88c55e	0.0041739186
112	0x3d061be4	0.032741442
113	0xbcbd131d	-0.023080403
114	0x3d08f5e1	0.033437613
115	0x3d87d735	0.06632844
116	0xbd773392	-0.060351916
117	0x3d817750	0.06321585
118	0x3ca5f2da	0.020257402
119	0xbda3aec6	-0.0799232
120	0xbcf78f4e	-0.0302197
121	0xbd905aa0	-0.07048535
122	0x3d7b0bf3	0.061290693
123	0xbd9fdc40	-0.07805681
124	0x3db4521a	0.08804722
125	0x3d0f5f2a	0.035002865
126	0x3bebd9ab	0.007197579
127	0xbd8852bd	-0.06656406
128	0x3d63bedd	0.055601943
129	0x3d67ea30	0.056619823
130	0xbc359cee	-0.011084778
131	0x3cedd605	0.029032717
132	0x3d1d8842	0.038460024
133	0x3d9001be	0.07031582
134	0xbd547651	-0.051870648
135	0x372f06c9	1.0432393e-05
136	0xbc2e4c04	-0.010638241
137	0xbd8715f9	-0.06595988
138	0xbdd0a54c	-0.10187778
139	0x3ddab5c7	0.106792025
140	0x3d53d474	0.051716283
141	0x3b3353df	0.0027363223
142	0x3d897e7e	0.067135796
143	0x3d795552	0.060872383
144	0xbcbc6bc6	-0.02300061
145	0x3d788b7f	0.06067991
146	0xbdb72bee	-0.08943926
147	0xbc3df959	-0.011595094
148	0xbda2310c	-0.07919511
149	0xbd6f6f7a	-0.05845592
150	0x3cd61ac5	0.026135812
151	0xbbf9e995	-0.007626722
152	0xbce77c87	-0.028257621
153	0x3c900719	0.01758151
154	0x3d36266a	0.04447023
155	0x3d82a6e0	0.06379485
156	0xbd4a559d	-0.049398053
157	0xbd7859e2	-0.060632594
158	0x3d2cec37	0.04221746
159	0xbde0caec	-0.10976204
160	0x3cd92005	0.026504526
161	0x3d49954f	0.049214657
162	0xbd85d721	-0.06535173
163	0x3d199a00	0.03750038
164	0x3d51f19f	0.05125582
165	0x3d88401d	0.06652854
166	0x3c92518c	0.01786115
167	0xbc53b734	-0.012922097
168	0x3d4843d9	0.04889283
169	0x3da89f73	0.082335375
170	0x3b1e26d6	0.0024132035
171	0x3d4d9c44	0.050197855
172	0xbdbb8f99	-0.091582485
173	0x3ca82366	0.020524692
174	0xbda99037	-0.0827946
175	0x3bfc0fe5	0.0076923245
176	0x3bbcbd61	0.0057598804
177	0x3c97d5d8	0.018534586
178	0x3d8d286d	0.06892476
179	0x3d088950	0.033334076
180	0xbd253117	-0.04033002
181	0x3d94b2c0	0.07260656
182	0xbdbb8366	-0.09155922
183	0xbc391991	-0.011297599
184	0xbd6d3805	-0.057914753
185	0xbd0130a5	-0.03154053
186	0xbc8f0962	-0.017460529
187	0xbd1afd54	-0.03783925
188	0xbc1bb884	-0.009504441
189	0xbd107005	-0.03526308
190	0xbc4d2cc4	-0.01252288
191	0x3d05b37b	0.03264187
192	0xbb8f86d5	-0.004380087
193	0x3d8d8d60	0.06911731
194	0x3d6eb0b4	0.058273986
195	0xbc4b7d82	-0.01242006
196	0x3de13b50	0.10997641
197	0xbd8112ae	-0.06302391
198	0x3d9ca303	0.076482795
199	0xbdc62509	-0.09675033
200	0x3d8882cb	0.06665572
201	0x3db32258	0.08746785
202	0x3bf0d249	0.0073492867
203	0xbd1e0645	-0.038580198
204	0x3d1f628d	0.038912345
205	0x3d0aed13	0.033917498
206	0x3c6171d5	0.01376005
207	0x3ddb53b9	0.10709328
208	0xbd737d7a	-0.059445836
209	0x3d9913ed	0.07474504
210	0x3ceb73b2	0.028741691
211	0x3d696045	0.056976575
212	0x3d7a4666	0.061102293
213	0xbbd315fd	-0.00644183
214	0xbd6e3630	-0.058157146
215	0xbd6e6475	-0.058201272
216	0x3d3bfb79	0.04589412
217	0xba91e30c	-0.0011130287
218	0x3d3e2213	0.046419214
219	0x3d90797b	0.070544206
220	0x3c4c91f3	0.012485969
221	0x3dbc6cc5	0.09200434
222	0x3cb84246	0.02249254
223	0xbdaae66c	-0.08344731
224	0x3c416f5a	0.011806333
225	0x3d9b5db0	0.07586229
226	0xbd2ba50b	-0.041905444
227	0xbd96f8c0	-0.07371664
228	0x3def57ae	0.116866454
229	0x3cb9f274	0.022698618
230	0xbc60e090	-0.013725415
231	0x3dc259a2	0.09489752
232	0xbd6cc343	-0.057803404
233	0xbc4dda77	-0.012564293
234	0x3d0bf9ce	0.03417378
235	0xbd3233e8	-0.043506533
236	0xbcf94431	-0.030428024
237	0x3db0e495	0.086373486
238	0x3d4baea9	0.049727116
239	0x3db5a382	0.08869077
240	0x3dd711fe	0.105014786
241	0xbd0b4340	-0.03399968
242	0xbd2a6e13	-0.04160888
243	0x3ced2a35	0.02895079
244	0x3cbdd9ab	0.023175081
245	0xbd5754e3	-0.05257119
246	0x3c95d4ed	0.018290007
247	0xbdc88cdc	-0.09792492
248	0xbccc34b4	-0.024927475
249	0xbd061a28	-0.03273979
250	0xbda6bdda	-0.0814168
251	0xbda3a038	-0.07989544
252	0x3d177b4b	0.036982816
253	0x3cb6e896	0.022327702
254	0x3d833e0a	0.064083174
255	0xbcd2db10	-0.025739223

layers.1.bias f4 [48]
0	0x3d045792	0.032310076
1	0x3c534b8a	0.012896428
2	0x3a982d94	0.0011610263
3	0xbc0b28e9	-0.00849364
4	0xbc23535b	-0.009968604
5	0x3d436d85	0.047711868
6	0xbca136d7	-0.01967947
7	0x3c933a5d	0.017972166
8	0x3d35235c	0.044223174
9	0x3ca1b6ed	0.019740546
10	0xbd1c9e36	-0.03823682
11	0xb9c3d747	-0.00037353692
12	0xbd03757c	-0.032094464
13	0x3d2b7c33	0.041866492
14	0x3ae3123a	0.0017324158
15	0xbc4db3e7	-0.012555099
16	0x3d526f63	0.051375758
17	0x3d0de2ad	0.034640003
18	0xbd402011	-0.04690558
19	0xbcdfcb9c	-0.027318768
20	0x3d090ec1	0.033461336
21	0xbc8f4faf	-0.01749405
22	0xbcbace39	-0.022803413
23	0xbc6ffe92	-0.014648097
24	0x3ce6275d	0.028094942
25	0x3c66c130	0.014084145
26	0x3c8b2750	0.01698652
27	0x3d3d5b24	0.046229497
28	0xbc066189	-0.008201965
29	0xbd6d2f05	-0.05790617
30	0x3cc13104	0.023582943
31	0x3d5d697a	0.05405567
32	0x3c9ba05d	0.018997366
33	0x3bf50be5	0.0074782246
34	0x3d561eb8	0.05227539
35	0xbd0cfb65	-0.034419436
36	0x3ca59260	0.020211399
37	0x3d28c89d	0.041206945
38	0xba808fd0	-0.0009808484
39	0x3ce433a9	0.027856665
40	0xbbf78256	-0.007553379
41	0x3c3d42cf	0.011551573
42	0xbcc37470	-0.023859233
43	0x3c814119	0.015778111
44	0x3bb45827	0.0055036726
45	0xbb1bdbc1	-0.0023782107
46	0x3cce6424	0.025194235
47	0x3c93de04	0.018050201

layers.1.fc_self.weight f4 [48, 48]
0	0xbeb78234	-0.35841525
1	0x3e93fe56	0.2890498
2	0xbd82a02c	-0.063782066
3	0x3e033ce9	0.12816204
4	0x3e277d38	0.16356361
5	0x3ebba93a	0.36652547
6	0x3e8a05aa	0.26957446
7	0x3ec54659	0.38530234
8	0xbe7b66f5	-0.24550994
9	0xbed35a32	-0.4127975
10	0x3c9bd3f0	0.019021958
11	0x3e90143a	0.28140432
12	0x3d885b0b	0.0665799
13	0x387bcb11	6.0032184e-05
14	0xbe9fd86c	-0.31219804
15	0x3e03fef6	0.12890229
16	0xbec74bd0	-0.38925028
17	0x3e1af274	0.15131551
18	0x3ec34027	0.38134882
19	0xbe8669b6	-0.26252526
20	0x3e9ef335	0.31044927
21	0xbcd749e5	-0.026280353
22	0xbeb35d24	-0.35031998
23	0xbe91ad4e	-0.28452533
24	0x3e26152e	0.16219017
25	0x3e683381	0.22675897
26	0x3da8f217	0.082493
27	0xbec5346f	-0.38516566
28	0x3a1c8dbb	0.0005972047
29	0x3d878850	0.066177964
30	0xbe989c3b	-0.29806694
31	0xbe8b6c53	-0.27231082
32	0xbe8cd89e	-0.27509016
33	0xbee14e2f	-0.44004962
34	0xbe9f7651	-0.31144956
35	0xbe2ed058	-0.17071664
36	0xbe4b2d06	-0.19841394
37	0x3e0ca9f4	0.13736707
38	0x3e72e369	0.23719563
39	0x3eb9bf05	0.3627855
40	0x3ea2b436	0.31778115
41	0x3e1b4bb9	0.15165605
42	0x3ec8ae61	0.3919554
43	0xbea3b13a	-0.3197115
44	0x3cde78f6	0.027157288
45	0x3c675a91	0.014120714
46	0x3ecd7f27	0.40136072
47	0xbddc1d14	-0.10747734
48	0x3eac5322	0.33657175
49	0xbe8fe7e5	-0.2810661
50	0xbe8b6808	-0.27227807
51	0x3e38d654	0.1805051
52	0xbe672c43	-0.22575478
53	0xbe19fbea	-0.15037504
54	0xbe99734d	-0.2997078
55	0xbd21b046	-0.039474748
56	0xbe42ed99	-0.19035949
57	0x3e75c662	0.24001458
58	0xbdfae90d	-0.12251482
59	0xbea87625	-0.32902637
60	0xbe3f2fbd	-0.18670554
61	0x3e87e124	0.26538956
62	0xbe80fec3	-0.25194368
63	0xbeb101e5	-0.34571758
64	0x3ed210b4	0.41028368
65	0xbea0f2a1	-0.3143511
66	0xbd567203	-0.052354824
67	0x3e4401ea	0.19141355
68	0xbea1b169	-0.31580666
69	0x3c2c3a91	0.01051201
70	0x3d912a88	0.0708819
71	0x3e7f504f	0.24932979
72	0xbe8ba501	-0.27274325
73	0xbe7cc780	-0.24685478
74	0xbec5287d	-0.38507453
75	0xbd9bf69d	-0.07615397
76	0x3e05aed1	0.13054968
77	0x3e4199c4	0.18906313
78	0x3ea5cefc	0.3238448
79	0xbe2edb0f	-0.17075752
80	0xbe342e56	-0.17595801
81	0x3a12bd11	0.0005597631
82	0x3ed7670e	0.42070812
83	0x3ea124a8	0.3147328
84	0xbe926025	-0.28588977
85	0xbe0610c8	-0.13092339
86	0x3e870d49	0.26377323
87	0x3e69cbf8	0.22831714
88	0xbec8922e	-0.39174026
89	0xbea60534	-0.32425845
90	0xbe242c46	-0.16032514
91	0x3e846033	0.25854644
92	0xbd9b165e	-0.075726256
93	0xbe8f8b6e	-0.28036064
94	0x3e863edf	0.26219842
95	0x3c8023c0	0.015642047
96	0xbea2d9b8	-0.3180673
97	0xbe7c6905	-0.24649437
98	0xbd74b1e2	-0.059739955
99	0x3e4a64a4	0.19764954
100	0x3d55f664	0.05223693
101	0x3eb54a69	0.35408333
102	0xbdc1103f	-0.09426927
103	0xbe4e5809	-0.2015077
104	0xbe90fa67	-0.28316042
105	0xbe1a3dd4	-0.15062648
106	0xbea2bea1	-0.31786063
107	0xbd82a77e	-0.06379603
108	0x3e60e262	0.21961358
109	0xbdd9150b	-0.10599717
110	0xbec9c152	-0.39405304
111	0x3e7f22e8	0.2491566
112	0x3dfc5c0c	0.12322244
113	0xbe07c4cd	-0.13258667
114	0xbe7918d5	-0.24325879
115	0xbe0bbfa0	-0.13647318
116	0x3ebe74d3	0.37198505
117	0xbea60765	-0.32427517
118	0xbe6902b9	-0.22754945
119	0xbdb991ab	-0.09060987
120	0x3d40e608	0.047094375
121	0x3e847b41	0.25875285
122	0xbe538356	-0.2065557
123	0x3ebfd60d	0.37467995
124	0x3df0df7e	0.11761378
125	0x3e98cdb1	0.2984443
126	0xbe9443c7	-0.2895796
127	0xbd80be42	-0.06286289
128	0xbeadff7b	-0.3398398
129	0x3e0b883d	0.1362619
130	0xbe878a88	-0.26472878
131	0x3db4cbcf	0.08827936
132	0x3eae3ed4	0.3403231
133	0xbece0132	-0.40235287
134	0x3d0f1607	0.034933116
135	0xbe8a20c8	-0.26978135
136	0xbd18a29e	-0.03726446
137	0x3ecbb0af	0.39783236
138	0xbe0289f6	-0.1274794
139	0x3ce7cc56	0.028295677
140	0x3dd6b3f0	0.10483539
141	0x3e8141a2	0.25245386
142	0x3eb8e1b5	0.361097
143	0xbeb52ae1	-0.35384277
144	0x3e32d805	0.17465217
145	0xbe4790d6	-0.19488844
146	0xbd8f93b3	-0.07010593
147	0x3d2ea43c	0.042637095
148	0xbe1a84e3	-0.15089755
149	0x3e6aeb20	0.22941256
150	0xbddb24e4	-0.10700396
151	0x3d9f5886	0.077805564
152	0xbeaf04c6	-0.3418333
153	0xbcc0b34e	-0.023523
154	0xbec4cae0	-0.3843603
155	0x3d4f83ba	0.050662734
156	0x3c50e99e	0.012751011
157	0xbe25a201	-0.16175081
158	0xbe82d0bc	-0.25549877
159	0x3e90362a	0.28166324
160	0x3e1d2d76	0.15349373
161	0x3da3ca42	0.07997562
162	0xbe8eec7d	-0.279148
163	0x3c70b8f5	0.014692535
164	0xbe8106ca	-0.25200492
165	0xbdb84073	-0.08996668
166	0xbeb770d7	-0.35828277
167	0x3eb9c7e0	0.36285305
168	0xbe5b7485	-0.21431167
169	0x3e4fdf8b	0.20300119
170	0xbeb28e53	-0.3487421
171	0xbe730c8b	-0.23735254
172	0xbd1254b1	-0.0357253
173	0xbd65b305	-0.05607893
174	0xbe34a196	-0.17639765
175	0xba4abd99	-0.0007733941
176	0x3eb9f109	0.36316708
177	0xbe47e841	-0.19522192
178	0xbe45485f	-0.19265889
179	0x3e27ba80	0.16379738
180	0xbdf2b4f9	-0.11850924
181	0xbe89911a	-0.26868516
182	0x3ea3642c	0.31912363
183	0xbe4f275e	-0.20229861
184	0xbe226ef2	-0.15862635
185	0xbe93e17f	-0.28882977
186	0x3d973fde	0.073852286
187	0xbe15c6bf	-0.14626597
188	0xbdb30cf0	-0.08742702
189	0xbe98599d	-0.2975587
190	0x3dbf8891	0.0935222
191	0x3e030732	0.12795714
192	0xbe20cc65	-0.1570297
193	0x3ebc1161	0.3673201
194	0x3e80607e	0.25073618
195	0x3e78a41b	0.24281351
196	0xbd6d3a71	-0.057917062
197	0x3e9b7a1d	0.30366603
198	0x3e5d737a	0.21626082
199	0xbe30eca8	-0.17277777
200	0x3e02f1c4	0.12787539
201	0x3d565cad	0.052334476
202	0xbe819f32	-0.2531677
203	0x3e589451	0.21150328
204	0x3d837119	0.06418056
205	0x3eccc2c5	0.39992347
206	0x3e3a800f	0.18212913
207	0xbdea3dbb	-0.114375554
208	0xbe8033bc	-0.2503947
209	0xbe14f5fe	-0.14546964
210	0xbe9c6231	-0.30543664
211	0x3ea1f571	0.3163257
212	0xbe9b93ef	-0.30386302
213	0x3ecd474f	0.40093467
214	0x3e7aea5f	0.24503468
215	0x3e851e67	0.25999758
216	0xbe526b9b	-0.2054886
217	0x3e8f5b28	0.27999234
218	0xbec65c5b	-0.38742337
219	0xbe8262a2	-0.25465876
220	0x3e6ad36c	0.22932214
221	0x3e04643f	0.12928866
222	0x3e173930	0.14767909
223	0xbe99be97	-0.3002822
224	0xbe1daba3	-0.15397505
225	0xbe79057e	-0.24318501
226	0xbe154827	-0.14578305
227	0x3cf47b19	0.029843854
228	0x3df2e3f8	0.11859888
229	0x3e785bf8	0.24253833
230	0x3d856076	0.06512539
231	0x3e81ce6f	0.2535281
232	0xbe8dfdd0	-0.27732706
233	0x3e083e83	0.13305096
234	0x3ea3b8ce	0.31976932
235	0x3e4050db	0.18780844
236	0x3e14240d	0.14466877
237	0xbe4df1fa	-0.20111838
238	0xbe7d4067	-0.24731599
239	0x3ec620ae	0.38696808
240	0xbe922c84	-0.28549588
241	0xbe92a1ac	-0.2863897
242	0xbe1dd170	-0.15411925
243	0x3e930a82	0.28718954
244	0xbeb7a6b0	-0.3586936
245	0xbd0876de	-0.033316486
246	0x3ec5d427	0.38638422
247	0x3e3759e7	0.17905389
248	0xbea92675	-0.33037153
249	0x3ebdaa45	0.37043968
250	0xbe6b63ff	-0.22987364
251	0xbe343fd8	-0.1760248
252	0x3e79ac31	0.24382092
253	0xbe5dbcd7	-0.21654068
254	0x3e7c6b95	0.24650414
255	0xbe8a8c8b	-0.2706035

layers.1.fc_neigh.weight f4 [48, 48]
0	0xbe5a23a1	-0.21302654
1	0xbe51f6e1	-0.20504333
2	0xbc9c5c63	-0.019087022
3	0xbde572b8	-0.112035215
4	0x3e5dade9	0.21648373
5	0x3e535399	0.20637359
6	0x3e7933f7	0.2433623
7	0x3eb3ccfb	0.35117325
8	0x3dfc9e2e	0.12334858
9	0x3e166051	0.1468518
10	0xbe13bfd7	-0.1442865
11	0xbc92d02b	-0.017921528
12	0xbea180c0	-0.3154354
13	0xbe7b869d	-0.2456307
14	0xbe853daa	-0.26023608
15	0x3eaf82c3	0.3427945
16	0x3de73635	0.11289636
17	0xbc2cc97c	-0.0105460845
18	0x3e866f4f	0.26256797
19	0xbe14fa44	-0.14548594
20	0xbe192658	-0.14956033
21	0x3d000094	0.03125055
22	0x3da8b965	0.08238486
23	0xbe6b810f	-0.2299845
24	0xbc2b7683	-0.010465267
25	0xbe51f89a	-0.2050499
26	0x3ea83206	0.32850665
27	0xbecd3852	-0.4008203
28	0x3e141afc	0.14463419
29	0xbe37463d	-0.17897888
30	0x3e6581f5	0.22412856
31	0xbebf6017	-0.37377998
32	0xbd29b2bc	-0.04143022
33	0x3d8a83d6	0.06763427
34	0xbe85deaa	-0.26146442
35	0xbec6451b	-0.38724598
36	0xbdc934c8	-0.0982452
37	0xbebe0b67	-0.37118074
38	0x3e894b84	0.26815426
39	0xbe17549f	-0.14778374
40	0xbe43e0e7	-0.19128762
41	0x3e35b3b8	0.17744339
42	0xbe2f7946	-0.17136106
43	0xbe4645c1	-0.19362547
44	0xbe83ac24	-0.2571727
45	0x3e89b8e2	0.26898867
46	0xbd6bbc74	-0.05755277
47	0xbda83ee0	-0.082151175
48	0xbea25958	-0.3170879
49	0xbe898bad	-0.26864377
50	0xbe4f5991	-0.2024901
51	0x3e9f3c3b	0.3110064
52	0x3ea22d83	0.31675348
53	0xbe477e32	-0.19481733
54	0xbdfbbcdc	-0.122918814
55	0xbea06f14	-0.31334746
56	0x3db135de	0.086528525
57	0x3e4e65ae	0.20155975
58	0xbd83d8e5	-0.06437854
59	0xbd1474c1	-0.036244158
60	0xbcdad905	-0.026714811
61	0x3d196967	0.037454035
62	0x3da8fca1	0.0825131
63	0x3e5a3363	0.21308665
64	0x3d1070fd	0.035264004
65	0x3d92a7e2	0.07160927
66	0x3dc8490c	0.097795576
67	0xbe813b58	-0.25240588
68	0x3e98444a	0.297396
69	0xbeb6fb16	-0.35738438
70	0xbebfcbde	-0.37460226
71	0x3cedaa31	0.029011818
72	0x3da40d49	0.080103464
73	0xbe07e0aa	-0.13269296
74	0x3e782e12	0.24236324
75	0xbe9da9ab	-0.3079351
76	0x3e4f2ab9	0.20231141
77	0xbe3af7d9	-0.18258609
78	0xbe60823b	-0.21924679
79	0x3a7ab6ce	0.0009563983
80	0x3e363c2e	0.17796394
81	0x3e928e47	0.28624174
82	0x3ec142a9	0.3774617
83	0xbe83a14f	-0.25709006
84	0x3dc33217	0.09531038
85	0x3c2cf5b7	0.01055663
86	0x3d5216e6	0.05129137
87	0x3d8b78f6	0.06810181
88	0x3ce39d09	0.027784841
89	0x3dd7bedb	0.1053445
90	0x3e9205ea	0.28520137
91	0x3c5c3693	0.013440746
92	0xbe902ac7	-0.28157637
93	0xbe9dac40	-0.3079548
94	0xbe7f0bae	-0.24906799
95	0xbdf439b2	-0.11925067
96	0x3e091b01	0.13389207
97	0x3de7ce38	0.1131863
98	0xbdfe739d	-0.12424395
99	0x3ddecc8a	0.108788565
100	0x3e472b61	0.19450141
101	0xbda73019	-0.08163471
102	0xbd727ac2	-0.059199102
103	0xbe2512ec	-0.161205
104	0xbe98d50c	-0.29850042
105	0xbe32a00e	-0.17443869
106	0xbe9c2f61	-0.30504897
107	0xbdacbe4a	-0.08434732
108	0xbccf57d8	-0.025310442
109	0xbe18da82	-0.14927104
110	0x3d990337	0.07471316
111	0xbceb9da8	-0.0287617
112	0xbe4ed965	-0.20200117
113	0x3ea373a6	0.3192417
114	0x3e8b4465	0.27200618
115	0x3e097431	0.1342323
116	0xbe95dfab	-0.29272208
117	0xbe85971b	-0.26091847
118	0x3d487b43	0.048945677
119	0x3e80efef	0.25183055
120	0x3ea072e7	0.31337664
121	0xbe94030f	-0.28908584
122	0x3e49660c	0.19667834
123	0x3e4044dd	0.1877627
124	0xbead3a59	-0.33833578
125	0x3eab5427	0.3346264
126	0xbe4fd219	-0.2029499
127	0x3ea50e80	0.32237625
128	0x3e2092ae	0.15680954
129	0xbd33a0b7	-0.04385444
130	0xbe9f5803	-0.31121835
131	0xbe9991a1	-0.2999392
132	0x3dd5a4bf	0.104318134
133	0x3dd47fc1	0.103759296
134	0xbdd9c513	-0.10633292
135	0xbe7a4683	-0.2444096
136	0x3e91d9fc	0.2848662
137	0x3ce77e4c	0.028258465
138	0x3e1f3337	0.1554688
139	0xbdecc37b	-0.115607224
140	0xbe7ea805	-0.24868782
141	0xbdc008bd	-0.09376667
142	0xbde36407	-0.11103063
143	0x3da830ab	0.08212408
144	0xbe503495	-0.20332558
145	0x3e826164	0.25464928
146	0xbd89a035	-0.0672001
147	0xbe9b3f90	-0.30321932
148	0xbc433b7b	-0.011916037
149	0xbd1a87f2	-0.037727304
150	0x3e4b7465	0.1986862
151	0x3d279ffc	0.040924057
152	0xbe53014d	-0.20605965
153	0xbe719f25	-0.23595865
154	0x3e031a5c	0.12803024
155	0x3ea2d715	0.3180472
156	0xbe04cf9d	-0.12969823
157	0xbeab6692	-0.33476692
158	0x3e0a23a4	0.13490158
159	0x3eb8dfc3	0.36108217
160	0x3d201bfc	0.039089188
161	0xbd954315	-0.072881855
162	0x3e42460e	0.18972036
163	0x3e9b5dee	0.303451
164	0x3def27e4	0.116775304
165	0x3ebed0e6	0.37268752
166	0xbe268187	-0.16260348
167	0x3eb961c9	0.36207417
168	0x3e91b96f	0.28461787
169	0xbd122543	-0.035680067
170	0xbdf2ec66	-0.11861496
171	0xbe36aee6	-0.17840156
172	0xbe8902e3	-0.26760015
173	0xbc88e9c5	-0.016713032
174	0x3d2f118d	0.042741347
175	0x3e7ad892	0.24496678
176	0xbe78ac38	-0.24284446
177	0xbe0490fc	-0.12945932
178	0xbd93b3c9	-0.07212026
179	0xbe074f4c	-0.13213843
180	0xbd4961cd	-0.049165536
181	0xbe02c883	-0.12771802
182	0xbe50b014	-0.20379668
183	0xbd8eaf7e	-0.06967066
184	0x3dea6544	0.11445096
185	0x3e8ca50a	0.27469665
186	0x3eae3a56	0.34028882
187	0x3e36609e	0.17810294
188	0x3e5cd3ea	0.21565214
189	0x3d23f4ad	0.040028263
190	0xbe893b08	-0.2680285
191	0x3ea8e111	0.32984212
192	0x3e951f74	0.2912556
193	0x3eba69ed	0.3640894
194	0x3d15f1cc	0.03660755
195	0xbdcf6262	-0.10126187
196	0xbe99ae52	-0.30015808
197	0xbd37671d	-0.04477607
198	0x3e2ace0b	0.16680162
199	0x3d2ddf61	0.04244936
200	0x3e70fe6b	0.23534553
201	0x3d33f12d	0.043931175
202	0xbea9aabf	-0.3313808
203	0x3d338602	0.04382897
204	0xbcddeab5	-0.027089456
205	0x3e91b436	0.28457803
206	0xbd8dc1c2	-0.06921722
207	0xbea27704	-0.31731427
208	0xbd18a6e6	-0.03726854
209	0xbe33ada7	-0.17546712
210	0x3eba9317	0.36440346
211	0x3da3cd1d	0.07998107
212	0x3e14cb61	0.14530708
213	0xbe55098e	-0.20804426
214	0x3eb9e0aa	0.36304218
215	0x3eb71c8e	0.35763973
216	0xbe5266f9	-0.20547093
217	0x3e947ccb	0.2900146
218	0x3e4ef4dd	0.20210595
219	0xbeb85506	-0.36002368
220	0x3e845115	0.2584311
221	0x3d76e995	0.060281355
222	0x3daacfeb	0.083404385
223	0xbe548d07	-0.20756923
224	0xbdbf920e	-0.093540296
225	0xbe8eb59e	-0.27872938
226	0xbe978735	-0.29595342
227	0x3d187361	0.03721941
228	0x3de9bffa	0.1141357
229	0x3eae04ed	0.33988133
230	0xbda66ebc	-0.0812659
231	0xbd3b3293	-0.04570253
232	0xbd43532a	-0.047686733
233	0x3db115a3	0.08646705
234	0x3e1d06c2	0.15334609
235	0xbdbefd1e	-0.09325622
236	0x3e21dbbb	0.15806477
237	0x3e066f7c	0.13128465
238	0x3eaa577d	0.33269873
239	0x3e7c0d04	0.2461434
240	0x3e9c682e	0.30548233
241	0x3c0018c8	0.007818408
242	0x3e76b129	0.24091019
243	0x3b895c38	0.0041919015
244	0x3e8b129a	0.2716263
245	0x3de75c42	0.11296894
246	0xbdc4a846	-0.09602408
247	0x3e0c2878	0.13687313
248	0xbea77d94	-0.32712996
249	0x3d929660	0.07157588
250	0x3daf3f28	0.08556968
251	0xbd4da3d4	-0.050205067
252	0x3e84cd5c	0.25937927
253	0x3e750d87	0.23930942
254	0x3e8e9f26	0.27855796
255	0x3e2a4a95	0.16630013

fc1.weight f4 [7, 48]
0	0x3dfc029a	0.12305184
1	0xbe0287e1	-0.12747146
2	0x3e2fee7e	0.17180821
3	0x3e27a2e9	0.16370739
4	0xbe1d8c64	-0.15385586
5	0xbdcfe037	-0.101501875
6	0xbe05ce8e	-0.13067076
7	0xbde846b4	-0.113416106
8	0xbd799e19	-0.06094179
9	0x3db98032	0.090576544
10	0xbe448a9b	-0.19193499
11	0x3e39d3eb	0.18147247
12	0x3e4c9b84	0.199812
13	0x3ba686e4	0.005081998
14	0xbdca2770	-0.09870803
15	0xbe22ac7a	-0.15886107
16	0xbd2a6913	-0.041604113
17	0x3e10d13b	0.14142315
18	0x3e4b7757	0.19869743
19	0x3e4ee0fb	0.2020301
20	0x3e0bfe60	0.13671255
21	0x3de19640	0.11014986
22	0x3e22d296	0.15900645
23	0xbbb68367	-0.0055698636
24	0xbe0f4765	-0.13992079
25	0x38f08784	0.000114693335
26	0x3d921398	0.071326435
27	0x3df99062	0.12185742
28	0xbbcc57c9	-0.0062360507
29	0x3e2829a0	0.16422129
30	0x3e3ac3df	0.18238781
31	0xbc8f284b	-0.017475268
32	0x3e418d23	0.18901496
33	0xbd3b0d7e	-0.045667164
34	0x3c5f57a2	0.013631733
35	0xbe4cc502	-0.19997028
36	0x3e121a93	0.1426795
37	0xbdfe632d	-0.1242126
38	0x3bd90447	0.0066228244
39	0xbcada736	-0.021197896
40	0x3dd7d303	0.10538294
41	0xbd96c366	-0.07361488
42	0x3d126ab2	0.035746284
43	0x3e5b64e4	0.21425205
44	0x3dea0558	0.114268005
45	0xbdf7db0d	-0.121023275
46	0x3c93f876	0.018062811
47	0xbe0cdaa0	-0.13755274
48	0xbdeb1d8b	-0.11480244
49	0x3e27b35f	0.16377018
50	0x3e53beeb	0.20678298
51	0xbe1f2fd9	-0.15545596
52	0xbd380b4f	-0.04493266
53	0x3d5e53a9	0.054279003
54	0xbe54b825	-0.2077337
55	0x3df87a09	0.12132651
56	0xbd826404	-0.06366733
57	0x3e139066	0.14410552
58	0xbb806143	-0.0039178445
59	0xbd09e880	-0.033668995
60	0xbb0b6764	-0.0021271342
61	0x3ded684a	0.11592157
62	0xbdba467b	-0.09095474
63	0xbccb5068	-0.024818614
64	0x3e2becda	0.1678957
65	0xbdce3132	-0.10067977
66	0x3ce117d6	0.027477186
67	0xbca2fe80	-0.019896746
68	0x3e03a922	0.12857488
69	0x3d14914c	0.03627138
70	0x3bde3f2f	0.0067824344
71	0x3b2dbbf5	0.0026509736
72	0x3e2ba7c8	0.16763222
73	0xbde3aaad	-0.11116538
74	0xbe181302	-0.14851001
75	0xbd2fe3a4	-0.042941704
76	0xbc44d315	-0.0120132165
77	0xbdfc7d8a	-0.12328632
78	0x3d398f1f	0.045302507
79	0x3debcd25	0.115137376
80	0x3e2b3f82	0.16723445
81	0x3e5c1b40	0.2149477
82	0x3e2d5117	0.16925465
83	0xbb809e0d	-0.003925091
84	0xbdefe2fb	-0.11713215
85	0x3deaf5a1	0.11472631
86	0xbe0afc2c	-0.13572758
87	0x3e007660	0.12545156
88	0xbd4bb6ae	-0.049734764
89	0x3ce7da5c	0.028302364
90	0xbe60f965	-0.21970136
91	0x3c214b58	0.0098446235
92	0xbe513183	-0.20429043
93	0xbe2881b0	-0.16455722
94	0xbe5e4320	-0.21705294
95	0xbe34dad8	-0.17661607
96	0x3e4a492f	0.1975448
97	0xbe1884e0	-0.14894438
98	0x3dc42dbb	0.09579035
99	0x3d265639	0.040609572
100	0x3d92c42a	0.071663216
101	0x3d6524b8	0.05594322
102	0x3d0ee621	0.034887437
103	0x3da1bd1e	0.07897399
104	0x3e7a8928	0.24466383
105	0xbe2836c8	-0.16427147
106	0xbdb0cd2a	-0.08632882
107	0xbd555072	-0.05207867
108	0xbe0dcd0f	-0.13847755
109	0x3db2b9e9	0.08726866
110	0x3e71fa78	0.23630702
111	0x3d65bffb	0.05609129
112	0xba0dd6b5	-0.0005410717
113	0x3e4de730	0.20107722
114	0xbe5a8837	-0.21341024
115	0xbe06a39f	-0.13148354
116	0x3dc0551b	0.093912326
117	0xbdaeb617	-0.08530825
118	0xbcd7da0a	-0.026349086
119	0xbe054429	-0.13014282
120	0xbc9f0bfa	-0.01941489
121	0x3e32fa78	0.17478359
122	0x3e36aa5b	0.17838423
123	0x3cd0d788	0.025493398
124	0x3dc7323c	0.09726378
125	0xbe1f1ca7	-0.15538274
126	0x3df02b0d	0.11726961
127	0x3e1f8ddf	0.15581463
128	0xbe0af491	-0.13569857
129	0xbdaf580e	-0.08561717
130	0x3e1b18c3	0.15146165
131	0xbdf0342f	-0.11728703
132	0x3dad391c	0.084581584
133	0x3e099082	0.13434032
134	0x3de6df28	0.112730324
135	0x3dbf92de	0.093541846
136	0x3e4c68b5	0.19961818
137	0xbd078d16	-0.033093534
138	0xbdf76f71	-0.12081803
139	0x3e2c2f28	0.16814864
140	0xbd129773	-0.035788964
141	0xbbd77229	-0.0065748882
142	0x3d93fa67	0.07225495
143	0x3e3f11aa	0.18659082
144	0x3e113b5c	0.141828
145	0x3e46e482	0.19423106
146	0xbe52398d	-0.20529766
147	0x3e586ec2	0.21136001
148	0x3de3989f	0.111130945
149	0xbe03ad00	-0.12858963
150	0xbe1396cd	-0.14412995
151	0xbc22467b	-0.009904499
152	0x3d9b11c6	0.075717494
153	0xbd3923bc	-0.045200095
154	0xbd7ec248	-0.062197
155	0xbd8d2a00	-0.068927765
156	0xbdc34447	-0.09534507
157	0x3cafd4e8	0.021463826
158	0xbe3b24d8	-0.18275774
159	0xbdcff932	-0.10154952
160	0x3dc86f94	0.09786907
161	0xbdadc672	-0.08485116
162	0x3d926c87	0.07149606
163	0xbe285486	-0.16438493
164	0xbd207ffa	-0.039184548
165	0xbe120aff	-0.14262007
166	0x3e200872	0.15628222
167	0x3e1e8770	0.15481353
168	0x3e198fb3	0.14996223
169	0xbd424439	-0.047428343
170	0x3e2214d9	0.15828265
171	0x3d91587e	0.07096957
172	0x3e48a38e	0.19593641
173	0xbdaa01f3	-0.08301153
174	0xbda5d333	-0.08096924
175	0x3c328023	0.010894808
176	0x3e1c9e55	0.15294774
177	0xbe51be81	-0.20482828
178	0x3cb62af0	0.022237271
179	0x3e0d1a1f	0.13779496
180	0xbdbfc3ce	-0.09363519
181	0x3df62085	0.12017921
182	0xbd836f36	-0.06417696
183	0x3de374b2	0.11106242
184	0x3db0d89d	0.08635066
185	0xbe6da63b	-0.23207943
186	0x3d0d699c	0.034524545
187	0xbdf1be65	-0.11803893
188	0x3e42853e	0.1899614
189	0x3e3a3155	0.18182881
190	0x3e2d316c	0.16913384
191	0xbdee8fee	-0.11648546
192	0xbe3e6d2b	-0.18596332
193	0x3da535aa	0.08066876
194	0xbc6a8fea	-0.014316538
195	0x3d760fa4	0.06007351
196	0x3e286a19	0.16446723
197	0xbe2c37b0	-0.16818118
198	0x3d84d5d4	0.06486097
199	0xbdcb5c46	-0.09929709
200	0x3d904364	0.07044104
201	0xbdc6e9a5	-0.09712533
202	0x3ce105b1	0.027468534
203	0xbdc92fae	-0.09823547
204	0x3e172b0c	0.14762515
205	0xbe266ef7	-0.16253267
206	0xbceadfdd	-0.0286712
207	0xbe1119fb	-0.14170067
208	0xbe0abc2b	-0.13548343
209	0xbe3f9fab	-0.18713252
210	0x3d2ee1dc	0.042695865
211	0x3d1ec6e1	0.038763884
212	0xbe0e0059	-0.1386732
213	0x3dfb6bee	0.12276445
214	0xbcf962ef	-0.030442683
215	0x3e289977	0.16464792
216	0x3d2296f3	0.039694738
217	0x3d0c97e4	0.03432454
218	0xbe42fc06	-0.19041452
219	0xbc7bd8a4	-0.015371475
220	0x3dffd3d3	0.12491574
221	0xbd041389	-0.032245193
222	0xbe42e052	-0.19030884
223	0xbdad520b	-0.08462914
224	0x3dcaf3fe	0.09909819
225	0xbe02ab3a	-0.1276063
226	0x3b9dcff4	0.0048160497
227	0xbcd5f4e3	-0.026117748
228	0x3deb7cf2	0.11498441
229	0xbc597b54	-0.013274033
230	0x3d8639cf	0.06553995
231	0xbe3503c9	-0.17677225
232	0x3d9a0137	0.07519763
233	0xbd9e9268	-0.077427685
234	0x3e5364a9	0.20643868
235	0xbe08cf4e	-0.1336033
236	0xbdf3a296	-0.11896245
237	0xbcf3cf13	-0.029761827
238	0xbe533016	-0.20623812
239	0xbe34aade	-0.17643306
240	0x3e19ec01	0.15031435
241	0xbe2527d3	-0.16128473
242	0x3bb7d655	0.005610267
243	0x3c8b90cd	0.01703682
244	0x3d96ef54	0.07369867
245	0xbe1e106d	-0.15435953
246	0x3db707d6	0.089370415
247	0x3d22be1a	0.039732076
248	0xbd8bddfa	-0.06829448
249	0xbe42406d	-0.18969889
250	0x3d71ce75	0.059034783
251	0x3c9c32d3	0.019067204
252	0xbc236797	-0.009973428
253	0xbe12b11d	-0.14325376
254	0x3e1f295a	0.15543118
255	0x3e5f84ef	0.21828054

fc1.bias f4 [7]
0	0x3ddaafac	0.10678038
1	0xbd24b284	-0.04020931
2	0xbd1a15ff	-0.037618633
3	0xbdd320e9	-0.103090115
4	0x3ccf3383	0.025293117
5	0xbd159636	-0.036520205
6	0xbe0e3109	-0.13885893
