models/pubmed_uc.pt (torch, 214283 bytes, 8 tensors)

layers.0.bias f4 [48]
000000 01 b8 a3 bc 5f fc 63 3c cc 4b 2a 3b 4a 38 85 bc
       -0.0199852 0.01391515 0.002598512 -0.016262192
000010 87 06 90 bc 01 d7 df bb fc 7e 93 3c 78 b1 08 bc
       -0.017581237 -0.0068310504 0.018004887 -0.008343093
000020 2b 60 8b bc 7f f1 83 3c 76 0c 82 3c 27 49 d4 3c
       -0.01701363 0.016106365 0.015875082 0.025913788
000030 22 37 84 bc 16 7b b3 3c fb 2c e8 3b d9 ba 52 3c
       -0.01613957 0.021909278 0.00708544 0.012861931
000040 fa fd b6 bc c0 4d 81 bb ee 7c 43 3c 01 69 a3 3b
       -0.022337902 -0.003946036 0.011931641 0.0049868827
000050 42 02 93 3b 9e 30 86 bc 63 ac df 3b 5e b6 58 3c
       0.004486353 -0.016380604 0.00682597 0.0132270735
000060 c0 88 dc bb 86 31 b9 3a 54 7a 43 bc c9 b5 e5 3b
       -0.006730169 0.0014129139 -0.011931021 0.007010196
000070 b9 a2 f3 bb ba 86 5e 3c 08 72 6f 3c d0 46 43 bc
       -0.0074351695 0.013581926 0.0146145895 -0.0119187385
000080 ec ec f6 bc 0a df 17 bc 46 24 f5 3c 06 89 31 bc
       -0.03014227 -0.009269485 0.029924523 -0.010835892
000090 11 52 9d 3c 25 19 90 ba 2d 4a 71 3c 69 04 3e 3c
       0.019204171 -0.0010993822 0.014727158 0.011597731
0000a0 06 8f 91 3a 4b 26 c1 bc 01 a6 ed bb 25 14 99 3c
       0.0011105246 -0.02357783 -0.007252455 0.018686363
0000b0 31 95 80 bc ba df 44 bc 9e 98 80 3c e7 1c 73 3c
       -0.01569614 -0.012016231 0.015697774 0.014838434

layers.0.fc_self.weight f4 [48, 500]
000000 2a e1 8f 3e 5f 3c ae 3c b4 c5 ef bd f6 6a ec bd
       0.28101474 0.021269022 -0.11707631 -0.11543839
000010 66 eb 1e 3e d9 7a 29 3d 35 ce 8f 3d 6c 6d 6c bc
       0.15519485 0.041376922 0.07021753 -0.014430385
000020 a7 10 1b 3e 4d 9b f2 bd 7b 1a 05 3e a4 e7 f3 bc
       0.15143071 -0.118460275 0.12998383 -0.02977354
000030 d4 33 bb 3c 67 71 93 bd ba d8 73 3d 15 f0 3c 3e
       0.022851862 -0.07199364 0.05953286 0.18450959
000040 11 26 a7 bd 71 72 8f 3c de a6 53 bc b1 e0 ed bb
       -0.081615575 0.017510625 -0.012918202 -0.0072594513
000050 99 20 35 3c 93 7e be bc af 4a d3 bd 70 f0 bf 3d
       0.011055135 -0.023253715 -0.10316979 0.09372032
000060 fd 9b 89 3e 78 e8 46 3d 86 3e ea bc 61 1d 63 bc
       0.26876822 0.048561543 -0.028594267 -0.013861985
000070 07 96 4d bd 4e fa 92 bd f5 c6 be bd 55 45 51 3c
       -0.050191905 -0.07176648 -0.09315292 0.012772878
000080 ba 5f d8 bc 86 c2 be 3d 17 52 a6 bd dc 0c 0d 3d
       -0.026412833 0.09314446 -0.08121126 0.03443609
000090 e2 9e d7 bd a9 2b 5f 3d 81 86 26 3c 55 b9 96 bc
       -0.10528351 0.054484997 0.010163904 -0.01839892
0000a0 c4 ba 1c bd ca 17 e9 3d 6f d7 1b 3e 28 80 92 bc
       -0.03826405 0.113814905 0.152189 -0.017883375
0000b0 cd 42 53 be e9 41 0f 3e 9f 8e 6b 3c 79 87 8f 3d
       -0.20630951 0.13989986 0.014377265 0.07008261
0000c0 18 59 29 3a 1b b8 9d bd 66 a9 0b 3d e8 4c a0 3d
       0.00064601144 -0.07701131 0.034097098 0.07827169
0000d0 3f 57 bc bd 0d 8d 6e 3e c1 50 3f 3e 24 00 05 be
       -0.09196328 0.23295994 0.18683149 -0.12988335
0000e0 65 b2 78 3d 96 5b 02 be d5 11 62 3d c8 b7 f2 3d
       0.060717005 -0.1273025 0.055192787 0.1185146
0000f0 ce a7 3a 3e 33 dc f8 3d 7a d8 a5 bb 9f c7 91 bd
       0.18228075 0.12151375 -0.0050612064 -0.07118153
000100 d6 67 f7 bd 97 cd 70 3d e1 c1 4f 3b c4 1b 19 be
       -0.12080352 0.058789816 0.0031701254 -0.14951998
000110 fc d6 05 be 80 60 e8 bd 79 5f 93 bd 9c 68 42 3d
       -0.13070291 -0.11346531 -0.07195944 0.047463045
000120 8e 73 04 be dd ce 81 3d ba f2 ce bb df 1c 1f 3d
       -0.12934706 0.06338284 -0.0063155564 0.038845893
000130 17 22 6e bd 38 d2 06 3d d6 06 62 bd d7 35 ea 3d
       -0.05813798 0.032915324 -0.0551823 0.114360504
000140 81 c7 e5 bb 55 48 00 3d 0d fa 47 3e 84 8d 89 bd
       -0.007012308 0.03131898 0.1952898 -0.06716445
000150 76 16 de bc bf 75 07 be d7 3f c2 3d 60 b0 0b 3d
       -0.02711032 -0.1322851 0.09484833 0.03410375
000160 07 3d 80 bd c9 93 31 be 87 0b 73 3c 0a 16 cb bd
       -0.0626164 -0.17341532 0.014834291 -0.09916313
000170 60 ba 61 3e b4 a7 3c 3e cd ea 89 3d 9f 34 92 3c
       0.22043753 0.18423349 0.06734238 0.017847357
000180 67 ec bd bd 08 7a a3 3d cd bd 18 3c 80 68 9e bd
       -0.09273606 0.0798226 0.009322596 -0.077347755
000190 b9 03 8b 3d b5 25 35 bd 77 37 2c be 75 c0 8a bc
       0.067878194 -0.044225413 -0.16818033 -0.016937474
0001a0 8c f0 a2 3c ee c4 ef bc 5f c8 89 3d f1 fa b2 3b
       0.019890092 -0.029268708 0.06727671 0.0054620435
0001b0 ad f8 53 3d 1b aa 80 3d 58 91 58 3e 44 5d bb 3c
       0.051750828 0.06282445 0.21149194 0.022871621
0001c0 31 c5 00 be b5 6c af 3c a9 98 f7 bd 46 95 a1 bd
       -0.12575223 0.02141414 -0.120896645 -0.078898
0001d0 64 5e f6 bd 74 2e 53 be 09 61 31 bc 9b 25 45 3e
       -0.12029722 -0.20623189 -0.010826358 0.19252627
0001e0 c8 e7 46 be 6a aa 03 be 38 ea 90 bd 6c 6f 39 bd
       -0.19424355 -0.12857977 -0.07075924 -0.045272276
0001f0 40 ae 91 3d 52 89 03 be fd 9a 47 be f0 2f 38 be
       0.07113314 -0.12845352 -0.19492717 -0.17987037
000200 64 92 2b bd 9b 16 71 be 99 54 29 3d 88 73 a8 3d
       -0.041887656 -0.2354378 0.041340444 0.08225161
000210 12 15 66 bd a9 f7 e7 bd 20 01 95 bc fc 1b 09 3e
       -0.056172438 -0.11326534 -0.018189013 0.13389581
000220 d4 5a 60 be 62 ea 80 bd c5 ea e4 bd d1 ae 36 3e
       -0.21909648 -0.06294705 -0.11177591 0.17840125
000230 90 d2 23 3e 1b 13 06 bd 31 31 3a bd 84 a7 b7 bd
       0.15998292 -0.032733064 -0.04545707 -0.08967498
000240 bf f2 50 be f6 92 c0 bc 7a 80 b0 3d c3 ec 06 3e
       -0.204051 -0.023507576 0.08618255 0.13176255
000250 db 36 ef bd 2e 9b 00 be d7 40 15 bd 3a 44 96 bc
       -0.11680385 -0.12559196 -0.03643879 -0.01834308
000260 3e 55 d8 3d ac ae 79 3d 93 0b a6 bd e5 37 d5 3d
       0.10563134 0.060957596 -0.08107676 0.10411052
000270 8c db ac 3c ac f8 0d 3e bb a7 20 be 3f 56 98 3d
       0.021100782 0.13864392 -0.15688984 0.07438325
000280 79 47 1a be c2 43 bf bc 44 9f 33 be 54 a9 21 3d
       -0.15066327 -0.02334774 -0.17541224 0.039468125
000290 a0 f4 6b 3e 86 f0 a3 bd f6 71 92 bd fa 62 1f be
       0.23042536 -0.080048606 -0.071506426 -0.155651
0002a0 4d ab 61 3e 89 49 e0 3c 60 2f 80 3d 39 c1 be 3d
       0.22038002 0.027378814 0.06259036 0.09314198
0002b0 c7 a9 50 3e e8 26 cc 3d 05 50 12 3e b9 35 a1 bd
       0.20377265 0.09968358 0.14288338 -0.07871575
0002c0 ae ee bd bd fa a9 11 3d 1b a0 8d 3d 99 0a 2d 3e
       -0.0927404 0.035562493 0.06915303 0.16898574
0002d0 f5 15 9e 3d 4a b1 94 3d a9 88 b3 3d b2 2e 59 bc
       0.07719032 0.07260378 0.087663 -0.013255762
0002e0 82 0c 20 3e 7b 0d 4c 3d 6b 20 9d ba c0 c3 50 bd
       0.15629771 0.049817543 -0.0011987811 -0.05096793
0002f0 4f 3f 37 bd a7 41 a5 bb f0 4f 16 bd 21 d1 da bd
       -0.04473811 -0.0050432268 -0.036697328 -0.106844194
000300 32 3f 84 bd 72 11 6c 3d 3d 76 77 bc 5d 7d ad bc
       -0.06457366 0.057633825 -0.015103874 -0.021177942
000310 a1 90 39 3e 89 19 e5 3c ad 5b ff 3d d4 32 0b be
       0.18121578 0.027966278 0.12468658 -0.13593608
000320 cb 3f 5a 3e 27 e5 72 be cf 2b 04 bd 16 4f 55 bc
       0.21313398 -0.23720227 -0.03226834 -0.013019344
000330 97 8a 59 3e 4c e1 9f bd f2 41 f2 bd f8 e7 b3 bd
       0.21244274 -0.07806644 -0.11828984 -0.08784479
000340 20 fe 60 3d 48 64 02 3e 46 93 2d 3c a4 c7 96 3d
       0.054929852 0.12733567 0.010594195 0.07362297
000350 65 2b f5 bd 18 c1 e9 bd d1 e4 18 3d 21 a3 c8 bd
       -0.119711675 -0.11413783 0.03732759 -0.09796739
000360 21 8e 3a be 0b 63 20 be 07 4d 1a bd da 8f 54 bd
       -0.1821828 -0.15662782 -0.037671115 -0.051895
000370 d8 f3 48 3d 30 19 45 bd 4c ea 17 bd 63 66 10 bc
       0.049060673 -0.048119724 -0.037088677 -0.008813473
000380 d9 8d 93 bd 0c c2 ca bc 05 7e 5a be 02 2d 2a be
       -0.0720479 -0.024750732 -0.21337135 -0.16618732
000390 d1 fa 05 3e fe 96 86 bd d2 67 b4 3d c8 7b 3a be
       0.1308396 -0.06571768 0.08808865 -0.18211281
0003a0 b4 ed 32 be a6 59 5a bd 26 58 f2 bd b6 5b 55 be
       -0.17473489 -0.05330815 -0.11833219 -0.20835766
0003b0 76 6f 4b bd c3 50 21 be 21 3a 27 bd 1b a3 8f be
       -0.049666844 -0.15753464 -0.04082692 -0.28054127
0003c0 db ce 05 3d fb 4a a8 bd 4b 8a 35 bd 97 f7 63 be
       0.032667976 -0.082174264 -0.04432134 -0.22262417
0003d0 61 c9 7b bd 50 0e 1e bd 3a 13 60 be 2d f2 41 be
       -0.061471347 -0.03858787 -0.21882334 -0.18940039
0003e0 e7 b8 af bc 8c 78 78 3d 86 4a fd bd b7 b2 8c bd
       -0.021450473 0.060661837 -0.1236773 -0.06870025
0003f0 98 62 fc 3c 37 4f 83 bd c7 dc f4 bd 92 e1 4e 3d
       0.030808732 -0.064115934 -0.119561724 0.05050809

layers.0.fc_neigh.weight f4 [48, 500]
000000 a6 60 b8 bd 5e 40 b1 3d bf 3c 07 3d 8a aa 2b be
       -0.09002809 0.08654855 0.033016916 -0.16764274
000010 4f 80 03 bd 8a ef 3c 3c 4a 40 7f bd fc e5 81 bd
       -0.032104786 0.01153172 -0.06231717 -0.06342694
000020 64 03 5a bd a3 3e 07 be c6 a0 23 bd d8 1d dc bc
       -0.05322589 -0.13207488 -0.039948247 -0.0268697
000030 c8 d2 2e bd 76 fa 02 3e 0f 19 03 be f8 60 83 3c
       -0.042681485 0.12790856 -0.12802528 0.01603745
000040 66 66 57 be 30 ea 8e 3c ef fe 3b bd 2c d9 b4 bb
       -0.21035156 0.017445654 -0.04589742 -0.005519053
000050 dc 9a cf 3c b6 a0 0e 3e 10 42 92 3d a1 ff fd 3d
       0.025342397 0.13928494 0.07141507 0.12402273
000060 56 8c 7b 3d 12 77 cc 3d 41 0a ca 3d 9b f3 a3 bd
       0.06141313 0.09983648 0.09865237 -0.080054484
000070 4c 15 52 3d ff b2 01 3e f5 18 51 bd 7b 2d b0 3d
       0.05128984 0.12665938 -0.05104919 0.08602425
000080 e1 59 aa bd 7f ae ed 3d 66 22 ee bd 9a 7f e8 bb
       -0.08317924 0.11605548 -0.11627655 -0.0070952894
000090 7a 06 1d be 3c 02 08 3e ee c8 88 bd 65 a3 d5 3d
       -0.15334502 0.13282102 -0.06678949 0.10431556
0000a0 e5 9d a2 3b 8e 95 1d 3d ff d1 1a 3e d3 e5 b5 bd
       0.00496267 0.038472705 0.1511917 -0.08881726
0000b0 7a ae 89 3d dd d1 ec bd 90 09 1a be f7 33 32 bd
       0.06722732 -0.11563466 -0.1504271 -0.04350659
0000c0 7b d0 38 3e ce 2b 9d 3c 9e c8 49 3d fe 56 a9 bc
       0.18048279 0.019185927 0.04926359 -0.020671364
0000d0 fc b3 7d 3d a3 8c 78 bd 5c ce c0 3d f3 b9 00 bd
       0.061939225 -0.060680997 0.0941436 -0.031427335
0000e0 d7 a9 29 3e 7c 7a 83 bb 56 c6 a7 3d 80 6d 23 3e
       0.16568695 -0.004012404 0.081921265 0.1595974
0000f0 88 69 71 bd 2c e3 40 be c5 e0 9b 3d 47 07 7a 3e
       -0.058938533 -0.18836659 0.07611231 0.24416839
000100 c4 40 12 3b b0 62 ea 3c ac 2d f2 3d 3d c4 23 bc
       0.0022316435 0.028611511 0.118251175 -0.009995517
000110 b2 bc 89 bd 7c 69 80 3d 9e c7 a0 bd 25 11 d6 bd
       -0.06725444 0.062701195 -0.07850574 -0.10452489
000120 f7 87 56 bd 16 18 61 bc 07 f4 f3 bb ac 8b 00 bd
       -0.05237576 -0.013738653 -0.007444862 -0.0313832
000130 dd f5 c9 bd bb 03 dd bd 9a 27 0b be 09 31 0a 3d
       -0.09861348 -0.10791727 -0.13589326 0.03373817
000140 4a 76 e0 3d b1 af 16 3d 7a b8 f0 3c c5 d6 32 3e
       0.10960062 0.036788646 0.02938484 0.1746474
000150 55 3e f9 bd 18 7a 4d bd c0 62 62 bd 30 6b 5b 3d
       -0.12170092 -0.050165266 -0.055269957 0.05356902
000160 da b8 32 be 88 1a ac bd a7 cf 33 bd a4 f0 8e 3d
       -0.17453328 -0.08403498 -0.043899205 0.06979492
000170 df b5 05 3e 0d c7 03 bd 1f df 87 bc e6 ea a4 bd
       0.1305766 -0.03217225 -0.016585885 -0.08052616
000180 e4 5e 8e 3c 81 44 be bd 2d 18 43 bd 64 f2 b9 bd
       0.017379232 -0.0929041 -0.047630478 -0.090794355
000190 f0 8b ee 3d 6d 20 d1 bc 6d c2 93 bd 5a 54 ba 3c
       0.11647785 -0.025528157 -0.07214818 0.0227453
0001a0 0b e4 23 bd eb b2 bd bd cd 4b 08 3e 69 56 a5 3d
       -0.0400124 -0.092626415 0.13310166 0.08073122
0001b0 1b 12 1c be 95 72 1b 3e b7 58 1f bd 6b b6 89 3d
       -0.15241282 0.15180428 -0.038902964 0.067242466
0001c0 60 f2 e8 3d 09 37 a7 bd 3e d9 eb bd 26 9a 82 3d
       0.11374354 -0.08164794 -0.11516045 0.06377058
0001d0 3a d8 ae 3c 81 d2 f5 bd bf 4e 9b 3d be 34 f7 3d
       0.02134334 -0.12003041 0.07583379 0.12070607
0001e0 f3 fa 5e be dc ba 65 bd 8b 59 91 3d de be 9a 3c
       -0.21775417 -0.056086406 0.07097157 0.01888984
0001f0 f9 6a 33 bd d8 98 a1 bd f7 e1 1b be 2b d8 0c be
       -0.04380319 -0.07890481 -0.15222917 -0.13754337
000200 e1 86 b6 bc ad 5f cc bd d5 b4 cc 3d e7 71 b6 bd
       -0.022281112 -0.09979186 0.099954285 -0.08908444
000210 d4 58 0c bd a0 6a 42 bc fd c8 25 3e b3 41 4a bd
       -0.0342644 -0.011866242 0.16189952 -0.049379062
000220 c4 7f a4 3b 05 9c 62 be d4 6e a8 bd e2 ff 79 bc
       0.0050201137 -0.22129829 -0.08224264 -0.015258761
000230 13 56 f1 3d 16 aa a2 3c 89 d8 96 3d a0 ce 17 bc
       0.117839955 0.019856494 0.073655196 -0.009265572
000240 11 14 84 bc 37 7c 2d 3e 03 43 63 3d 28 fe 28 be
       -0.01612285 0.16941915 0.05548383 -0.16503203
000250 c5 87 fa 3d 11 3b 0d bd 6e b1 75 3c 81 3f 28 3d
       0.12232927 -0.03448016 0.014995916 0.041076187
000260 72 2b 24 be 4b 52 07 3e c5 37 16 be d1 46 bf 3d
       -0.16032198 0.13214986 -0.14669712 0.09339679
000270 a6 bd ce 3d 2d 54 72 bd 44 af 5a 3d cb cc cb 3d
       0.10094766 -0.059162308 0.053389803 0.099511705
000280 9c d1 0d 3e 3f eb b1 3b 4b f3 93 bd 73 e8 dd bc
       0.13849491 0.005429655 -0.07224139 -0.02708838
000290 0c 2f ad bd 9b 1c 64 bd 32 1c 3f bd 3a 7e 27 bd
       -0.08456239 -0.055691343 -0.04665775 -0.040891863
0002a0 9d ed ee 3d e1 7f de bd f6 23 92 bd 30 69 29 be
       0.11666415 -0.10864235 -0.07135765 -0.16544032
0002b0 72 eb ef 3d 12 e3 ef bd 1c c5 29 3e 0a 54 99 bd
       0.117148295 -0.11713232 0.16579098 -0.07486732
0002c0 cb 44 c4 bd 3e a7 e8 3d 69 1a 7d bc 32 7e 6a 3c
       -0.09583434 0.11360024 -0.015448191 0.014312314
0002d0 a1 f9 1e 3e 26 30 06 be b3 59 9c bd 86 fc e3 3c
       0.15524913 -0.13104305 -0.07634296 0.027830373
0002e0 d2 85 1b 3e 5d 43 e9 3d 25 40 10 bd 2e 6d 25 3e
       0.15187767 0.11389802 -0.035217423 0.1615493
0002f0 93 8b 20 3e d0 2f 10 bd f7 8b 1a bd 7c f2 9c 3d
       0.15678243 -0.035201848 -0.037731137 0.07663438
000300 cc bd 4c bc 2d b4 b2 bc 74 16 66 3d 6f 1e f6 bd
       -0.012496423 -0.02181443 0.056173757 -0.120175235
000310 48 d7 30 3e b2 55 ea 3d 58 2d b3 bc 2f 2c 08 be
       0.17269623 0.11442126 -0.021872208 -0.13298105
000320 a8 dd 98 bd 74 6b b8 3c e5 6e b7 3b b6 48 24 be
       -0.074641526 0.022512175 0.0055979365 -0.16043362
000330 5e 3e ef bd 5a 42 94 3d 0e 58 b4 3c 2d e2 78 bd
       -0.116818175 0.07239218 0.022014644 -0.060762573
000340 ad 63 bf 3d 82 bf e6 39 bf 82 80 3d df a3 f6 bd
       0.093451835 0.00044011703 0.06274938 -0.12042975
000350 da 41 5c 3d 66 3f fc bd 91 05 10 be a9 0b 9f bd
       0.05377374 -0.1231678 -0.14064623 -0.07765896
000360 c9 69 c9 3d aa 36 6d 3d 3b 69 6a 3d 30 01 95 3d
       0.0983463 0.05791346 0.05722926 0.07275617
000370 c1 fc e3 bd 5f c2 47 bd 37 23 7d ba fc 75 ee bb
       -0.11132193 -0.04876935 -0.00096564315 -0.0072772484
000380 1a a9 9a 3d 2f 35 c8 bd 6d dd 91 bc b6 3b 2f 3e
       0.07551785 -0.09775769 -0.01780578 0.17112622
000390 9f e3 9d bd 4f 3d 06 be 86 1a 81 be 4c 59 e4 bc
       -0.07709431 -0.13109325 -0.25215548 -0.027874611
0003a0 00 0f e9 bc 33 b9 b6 3d cd bd ba bd 86 af 10 be
       -0.028449535 0.08922043 -0.09118233 -0.14129457
0003b0 99 4d d8 3c 4e 98 bc 3d 29 b1 8c 3d 67 78 c8 b9
       0.026404189 0.09208737 0.06869728 -0.0003823668
0003c0 32 41 94 bd f2 67 bc 3d b8 a1 01 be 9b cb 34 3c
       -0.072389975 0.091995135 -0.12659347 0.011034871
0003d0 b4 4f 90 bd 8e 18 f1 bd a7 86 00 bb e6 03 38 bc
       -0.07046452 -0.117722616 -0.001961151 -0.011231398
0003e0 38 6b 23 3e c9 ed 1a 3e 81 04 19 be 98 fd 7e bd
       0.1595887 0.1512977 -0.14943124 -0.062253565
0003f0 23 1d 6e bb 83 b9 fa bd 95 3e 24 be 2e ab 10 be
       -0.0036333285 -0.12242415 -0.16039498 -0.141278

layers.1.bias f4 [48]
000000 3c 27 b3 3c e9 b0 21 3c dd 33 ad bb 23 6a 4b 3c
       0.021869294 0.009868839 -0.0052857236 0.012415442
000010 d5 63 9b b9 42 15 4d 3c 93 45 c1 38 35 dd 61 3b
       -0.00029638284 0.012517275 9.215916e-05 0.0034464125
000020 5e 98 89 3c 59 37 be bc c2 61 9d 3c 60 44 a8 bc
       0.016796287 -0.023219751 0.019211654 -0.020540416
000030 a3 81 c4 3c af e0 49 bb 7e 44 81 bc ff 8e d4 bc
       0.023987597 -0.0030804088 -0.01577973 -0.025947092
000040 86 ee 59 bb a1 61 9a bc af 0f 36 3b 94 5e d2 ba
       -0.0033253743 -0.018845381 0.0027780344 -0.0016049915
000050 21 4e 15 bc 9b 4f 41 bb 51 f5 0c 3c 08 a5 5a ba
       -0.009112866 -0.0029496911 0.00860341 -0.00083406316
000060 c3 34 cf bc 65 82 c3 bc 1c 93 70 bb 4f 9e ef 3c
       -0.025293713 -0.023865888 -0.0036708778 0.029250292
000070 15 9b 82 3c ea 37 ca 3b e1 58 9f 3b 59 81 83 bb
       0.01594309 0.0061712163 0.00486289 -0.004013222
000080 3f 8f 0b 3d f1 61 c0 3b 63 e9 92 bc 71 7e 3e bc
       0.034072157 0.0058710505 -0.017933553 -0.011626826
000090 1a 8b c8 bb 34 69 39 bc 66 22 05 3d c8 8e 88 bc
       -0.006120098 -0.011316586 0.032503508 -0.016669646
0000a0 f0 ba 47 bc f3 dc 7b 3a f6 0e 18 bb 3d a1 a5 3c
       -0.0121905655 0.0009607814 -0.0023202277 0.020218486
0000b0 e0 44 25 3b a2 97 aa 3c e8 6e c0 bc 7f 5f 11 ba
       0.0025218055 0.020824257 -0.023490384 -0.0005545541

layers.1.fc_self.weight f4 [48, 48]
000000 96 ec 0f be 70 e5 de 3d a3 f2 c8 bd 8e 3a 16 be
       -0.14055094 0.108836055 -0.09811904 -0.14670774
000010 ce 41 59 be cb 72 93 3d 20 ea ec 3e 43 98 3b 3e
       -0.21216509 0.071996294 0.46272373 0.18319802
000020 76 56 de be 73 9a 4d 3d 96 63 2e be 8d 4b d6 bd
       -0.4342534 0.050196122 -0.17030177 -0.10463629
000030 a8 eb d6 bd 11 11 63 bc 3f af 11 3e 4c 58 95 3e
       -0.104941666 -0.013859049 0.14227007 0.29168928
000040 e9 d1 9c be 8f b1 f0 3d ba 99 d9 3d 38 35 16 be
       -0.306289 0.117526166 0.10625024 -0.14668739
000050 5e ed d3 3e 99 c8 0e 3e e2 c2 eb 3e ce 78 df 3e
       0.41392034 0.1394371 0.4604712 0.43646854
000060 d1 22 e5 be 3b 98 a0 be 56 56 89 be b8 f0 24 bc
       -0.44753125 -0.31366143 -0.26823682 -0.010067157
000070 15 19 0b be 84 25 5a 3e 4e 5f 37 3e 52 fc be be
       -0.13583787 0.21303374 0.1790745 -0.3730188
000080 f4 e3 a2 3d d6 bf 04 3e 60 2c 24 3e 8c 17 9d be
       0.07953635 0.12963805 0.16032553 -0.30682027
000090 e8 e7 82 3e 9b 9f ee be 76 2b 29 3e b7 98 c6 3d
       0.25567555 -0.46606144 0.16520485 0.09697097
0000a0 38 21 e1 3d ca 9d cc be e3 df c6 3d 58 db 27 be
       0.10992664 -0.39964134 0.09710672 -0.16392267
0000b0 02 e1 49 be d5 c8 f0 bd 1a af dd 3e 8e 12 9c 3e
       -0.1971474 -0.11757056 0.43297654 0.30482906
0000c0 b2 f4 1a 3e 76 3e 9d 3d b0 e3 89 3e 96 7b ea be
       0.15132406 0.07677929 0.26931524 -0.45797414
0000d0 9f 02 9e be c8 4c 7d be d4 65 e4 3d d4 13 54 be
       -0.30861375 -0.24736321 0.11152235 -0.20710689
0000e0 12 24 cb 3d b5 68 a6 3d 4f 7e dc 3e c9 63 b4 3e
       0.09918989 0.0812544 0.43065116 0.3523238
0000f0 30 a6 8d bb d1 96 77 3e 0a 0d 15 be bb fc 9a 3d
       -0.0043227896 0.24178626 -0.14555755 0.07567736
000100 93 0c 33 bd bb 06 f9 be 97 69 82 3e 12 c7 e8 3e
       -0.043713164 -0.48637947 0.25471184 0.4546438
000110 f6 0a 6c be 9b 97 8d be 06 a1 52 be cf b5 60 3d
       -0.23051056 -0.27654728 -0.20569238 0.054860886
000120 4d 67 ca bd 56 31 db 3e 27 7d d9 3d ba 11 7c bd
       -0.09882984 0.42811078 0.10619574 -0.061540343
000130 99 92 07 3e b1 4c b2 3d 6f ea b0 3c f7 ab b9 be
       0.13239516 0.08706034 0.021596162 -0.3626401
000140 af 06 66 bd 23 a5 55 3e dc 3d b9 3e e2 71 05 bf
       -0.056158718 0.20863776 0.36180007 -0.52126896
000150 15 0e a4 3e 21 fc 01 bf db f3 89 3d 95 d5 10 3e
       0.32041994 -0.50775343 0.06735965 0.14143975
000160 70 cb 44 3e 92 ce 18 bd be 0b b2 bd 71 23 66 bb
       0.1921823 -0.037306376 -0.08693646 -0.003511634
000170 3c b4 1b be a9 22 8d bb ba 17 9c 3d 8f 4c 99 3d
       -0.15205473 -0.0043071103 0.07621713 0.074853055
000180 a8 f8 9e 3d be 9c 43 be b5 24 ad bd f4 c7 b7 bb
       0.07762271 -0.19102761 -0.08454267 -0.005608553
000190 b9 8a f5 bd 3b ba b8 3d a5 b2 ab be a2 cc 5e 3d
       -0.1198935 0.09019896 -0.33534732 0.05439437
0001a0 c2 33 82 bd f8 08 08 be 69 ad 61 be a7 c4 94 be
       -0.06357528 -0.13284671 -0.22038807 -0.29056284
0001b0 b6 ec e8 be 53 6b af 3e 50 7e cb bd 95 54 d9 3d
       -0.45493096 0.3426157 -0.099362016 0.10611836
0001c0 ad af ba 3c 65 cf f0 3c 4a 73 d4 3e 50 d2 aa be
       0.022788847 0.029395768 0.4149421 -0.3336358
0001d0 f5 d9 53 3e 08 7e 88 3e d1 a0 86 3e d2 fc ae 3d
       0.20688613 0.26658654 0.26294568 0.085443154
0001e0 db 0b ab be c0 dc 0b bf 88 89 de be ad 24 7a 3d
       -0.33407483 -0.5463371 -0.43464303 0.061070133
0001f0 ea c0 fb be c4 53 fd 3e 17 2d b0 3d af 83 0d be
       -0.4917062 0.4947797 0.0860235 -0.13819765
000200 77 c8 fe bd f2 a0 1e 3e 0a d3 fe 3d f7 77 06 be
       -0.124405794 0.15491083 0.12442596 -0.131317
000210 37 a3 0c bd 60 e9 6b 3d b8 ce 2d be 9c fc ce 3e
       -0.03433534 0.05759561 -0.16973388 0.404271
000220 d5 cf c9 bd ac fa 65 be 28 fd 91 bc 92 8f 0f be
       -0.09854094 -0.22458905 -0.01782091 -0.14019611
000230 37 aa bd be 19 1b a8 3e 2e 7f 8c bd 87 f2 9a bd
       -0.37043926 0.32833174 -0.06860195 -0.0756579
000240 c9 97 08 be 5e 7a fe 39 e9 e3 8b bc 60 80 47 be
       -0.13339151 0.00048537826 -0.01707645 -0.19482565
000250 b6 95 84 bd 3b 68 92 be 8c 54 51 be ea a5 5e be
       -0.064738676 -0.28595147 -0.20442408 -0.21742979
000260 9a ee fb be 2a 8d 30 3e e6 ef 14 3e 28 5c 7d 3e
       -0.49205476 0.1724135 0.14544639 0.24742186
000270 90 15 19 be 88 ef aa 3e 36 fc 5c 3e f4 2e f2 3e
       -0.14949632 0.33385873 0.21580586 0.47301447
000280 3a 9f f9 be d8 11 de be d3 a5 ff 3d e5 1a 06 3f
       -0.48754293 -0.4337299 0.124828 0.5238479
000290 e6 9f 4e 3e f5 4b 92 be 95 50 85 3e a3 73 71 bd
       0.20178184 -0.28573576 0.26038042 -0.05894817
0002a0 04 52 cf ba 01 f8 96 3e e1 b0 3f 3e 23 c9 96 3c
       -0.0015817289 0.29486087 0.18719818 0.018406456
0002b0 51 1a 2a be 2d 84 86 bc 67 a0 cf bd ef 87 c4 be
       -0.16611601 -0.016420448 -0.10138016 -0.3838496
0002c0 26 2b f1 be 11 c2 aa 3e e2 e1 50 3e 39 cb b3 bc
       -0.47103232 0.33351186 0.20398667 -0.02194749
0002d0 8d 87 e3 3e 9b 81 4f bd 14 53 b5 bd 85 45 01 be
       0.44439355 -0.05066071 -0.088537365 -0.12624176
0002e0 a2 f8 68 be e7 7b ae be 48 ea ba be ba 5b 7f bd
       -0.22751096 -0.34078905 -0.36506867 -0.062343337
0002f0 14 31 b9 bd 8c 45 fb be fd 3a d9 3e ef b1 2b 3e
       -0.09042564 -0.49076498 0.42427817 0.16767095
000300 94 95 a9 3d 9b db 3b 3e 84 ec 25 3e 37 b6 25 be
       0.08280483 0.18345492 0.16203505 -0.1618279
000310 f7 bc 07 3e 29 fe 86 bd ec 48 4b 3e c4 c8 5b bd
       0.13255678 -0.06591446 0.19852036 -0.053658262
000320 f8 a0 a3 3d c7 c2 63 3e 8c dc e6 3d 6b 88 86 be
       0.07989687 0.2224227 0.11272535 -0.26275954
000330 95 3d 04 3f e0 ac 36 be eb 64 3c be aa f7 8d be
       0.51656467 -0.17839384 -0.18397872 -0.27728015
000340 65 9c 54 3e d0 64 ac 3d 26 e0 e3 3d fc eb 98 be
       0.20762785 0.08417666 0.11126737 -0.29867542
000350 ea 9c 90 bc d3 92 a8 3e 34 de ad be b6 7d 2a be
       -0.017652947 0.32924518 -0.3395859 -0.16649517
000360 49 54 76 3e cd fe f9 3e a7 25 69 3c bc f7 5d be
       0.2405559 0.4882721 0.014230168 -0.21676534
000370 ed 6b bb 3e bc 1b c3 be 4e 39 eb 3c a0 b7 75 3d
       0.36605778 -0.38107097 0.028713848 0.05998957
000380 76 4c c2 bd e0 ca 94 bd 1e 80 b2 be 02 0f de be
       -0.0948724 -0.07265258 -0.3486337 -0.43370825
000390 22 07 c5 3d 70 52 93 3d 3c 6f 90 be b1 f4 50 be
       0.09620501 0.07193458 -0.28209865 -0.20405842
0003a0 9b 92 03 3f 45 e0 3e 3e 0e 47 a1 3c 84 2e ad be
       0.5139558 0.1864024 0.019687202 -0.3382455
0003b0 ce 5f 66 bd ac 8a c6 be 4b fe c6 be 3f bd 87 be
       -0.05624371 -0.38777673 -0.38865885 -0.2651157
0003c0 1b 36 52 3d 86 b7 bd 3e 2a 54 98 3e e7 65 d5 be
       0.05132113 0.3705408 0.29751712 -0.41679308
0003d0 2e 4e 34 3e 15 b2 e5 be 50 56 89 3d a7 4f c7 be
       0.17607948 -0.44862428 0.06705916 -0.38927957
0003e0 d0 85 a6 bd 47 1a 54 bc bb 22 b6 3e c2 9b bc 3d
       -0.081309915 -0.012945718 0.35573372 0.09209396
0003f0 cd 1f 7b 3e cf 3d 86 3e aa ce 4a be e3 23 87 3d
       0.2452385 0.2621903 -0.19805399 0.06598642

layers.1.fc_neigh.weight f4 [48, 48]
000000 dc f6 a1 be fa e4 93 be 2c 01 73 3d 71 01 21 3e
       -0.3163365 -0.28885633 0.05932729 0.15723206
000010 9f ac a6 be 7e 51 2a be 08 4a 2d 3d 84 fb 21 3a
       -0.32553574 -0.1663265 0.04230693 0.00061791413
000020 dd 8f 60 be a4 a7 ba bc ef a1 8b bd e5 b2 94 bd
       -0.2192988 -0.022785015 -0.06817996 -0.07260684
000030 09 36 6f be 06 b6 25 be 95 8b d2 bd d9 86 b3 3d
       -0.23360457 -0.16182718 -0.102805294 0.087659545
000040 19 03 f7 bd dc 9c 8e 3e 6f 91 96 3e a5 07 a0 be
       -0.12061138 0.2785405 0.29407832 -0.31255832
000050 1a 4b ad 3e 6b bb 26 3e 86 42 b5 3e d2 0d 70 3e
       0.3384636 0.16282432 0.35402316 0.23442772
000060 a7 95 f8 bd ae de 0a be 54 3c 67 3e 7a e3 4f 3e
       -0.12137919 -0.13561508 0.22581607 0.20301619
000070 7d 23 31 3e b8 d1 ac 3e 2b c3 95 bd 88 12 80 3e
       0.17298694 0.33753753 -0.07312616 0.25014138
000080 b8 46 81 be ce 0e c0 be 0b 3a d9 bd bd 5b 29 bd
       -0.25249267 -0.37511295 -0.10606774 -0.041347254
000090 9b 4e 3e be a1 b2 5a be 2e 7c 53 be a5 19 ab 3d
       -0.18584673 -0.21357204 -0.2065284 0.08354501
0000a0 76 88 84 be 16 a3 0b 3e 0b ad 62 be b8 2a 83 be
       -0.2588536 0.13636431 -0.22136323 -0.2561853
0000b0 ba 5b b3 be 12 8e 63 3e f1 f8 3b 3e 1a 4b 60 be
       -0.3503092 0.22222164 0.18356682 -0.21903649
0000c0 af 3a 83 bd 10 1f 80 3e 8f 46 d0 be 87 27 68 bd
       -0.064076774 0.250237 -0.40678832 -0.05667832
0000d0 30 17 ba be 6e 14 67 be a6 1e 2c 3d 1b c6 8b 3e
       -0.36345816 -0.22566387 0.042021416 0.2729958
0000e0 11 8d 4e 3e 21 f0 7d 3e ea 3e 61 bd 3a 3c a6 bd
       0.20171 0.24798633 -0.05499164 -0.08116956
0000f0 e5 66 10 3b 02 95 91 be 5e 59 ef bd 92 6c 30 3c
       0.0022033986 -0.28433996 -0.11686967 0.010768073
000100 0e d5 9c 3e d8 b3 a9 3e 1a c5 be 3e a5 5f 15 be
       0.30631298 0.33145022 0.37259752 -0.14587267
000110 0a f3 b7 3e 2e f0 e5 bd 4b e5 8b 3e 16 31 7b 3e
       0.35927612 -0.11227451 0.27323374 0.24530444
000120 82 89 c0 3e 51 00 68 3d f9 bb 71 be 91 80 cd 3e
       0.3760491 0.056640927 -0.23606862 0.4013715
000130 26 28 0c be d7 fe 0a be 64 e5 86 be e0 49 77 be
       -0.1368719 -0.13573776 -0.26346886 -0.24149275
000140 48 97 78 be a7 8c 92 be da 12 9f bd 4f 65 d4 3d
       -0.24276459 -0.28622934 -0.077672675 0.103708856
000150 49 ae af be e7 51 9d be a7 96 e9 bd d4 5f 93 bd
       -0.34312657 -0.3072655 -0.11405688 -0.07196012
000160 6f c5 62 be dd b4 6c 3e 60 83 50 be ff 03 e8 bd
       -0.22145627 0.23115869 -0.20362616 -0.11328887
000170 2d bd 78 3e 1f 30 89 3e 10 c0 1e 3e ad db 72 be
       0.24290915 0.26794526 0.15502954 -0.23716612
000180 74 61 a3 3e e7 70 69 3d 43 70 b3 3e 9f 2c e6 3e
       0.31910288 0.056992438 0.35046586 0.44955918
000190 5d 33 09 bd 82 68 d7 bd a1 8a 14 be ff 43 94 3e
       -0.03349625 -0.1051798 -0.14506008 0.28958127
0001a0 4a eb 43 3d 97 68 80 3e 41 54 1d 3e e4 9b cf 3d
       0.04783181 0.25079796 0.15364172 0.10137156
0001b0 3c 48 b6 3b d2 5c c2 bd 0c 6e a3 bd 3f 2a 05 3e
       0.00556281 -0.0949036 -0.07979974 0.13004397
0001c0 0a 60 90 3e 63 f2 a4 3e 7e 16 1a bd 36 8e 1e 3b
       0.28198272 0.32216176 -0.037619106 0.002419365
0001d0 f1 86 18 be 6b 89 5d 3e 59 eb 5f be f1 f9 0d 3d
       -0.14895226 0.21634452 -0.21867122 0.03466219
0001e0 0a 74 54 3e fa e3 b4 3c d5 ee 4f be ad 3d b4 3d
       0.2074739 0.022081364 -0.20305951 0.08800826
0001f0 9f f5 2c 3c 0f 14 09 be 2d 15 07 be 67 bc 95 be
       0.0105566075 -0.13386558 -0.13191672 -0.29245302
000200 0f 52 1f be c4 ed ab be df 30 ae 3d 2a 5a d0 3e
       -0.15558647 -0.33579838 0.08505415 0.4069379
000210 7c 21 53 be 98 81 82 3e d2 1a c3 bd dd bc 83 3d
       -0.20618242 0.25489497 -0.095266 0.06432507
000220 60 f3 5d be 42 2f 75 be 74 4c 14 3e 23 46 23 be
       -0.21674871 -0.23943809 0.1448229 -0.15944724
000230 fc e0 b1 3e 56 79 83 be ba dc 3e 3d b8 41 9c be
       0.34741962 -0.2567851 0.04659722 -0.3051889
000240 ef d3 7d bd 20 c7 9c 3e 13 95 3d 3e 99 47 4a 3e
       -0.061969694 0.3062067 0.18513899 0.19753875
000250 42 cf 5b 3e de 27 b0 be 0a 63 ca 3d 83 29 e5 3d
       0.21465781 -0.34405416 0.098821715 0.11189558
000260 54 fc 03 be 91 92 92 be d2 1f 5e 3e 4d 65 ae 3e
       -0.12889224 -0.28627446 0.21691826 0.3406166
000270 e0 28 c5 bd cc 4f 33 3e 6c 19 a2 be 30 28 e8 bc
       -0.09626937 0.17510909 -0.3166002 -0.028339475
000280 36 97 1a be 34 4f 13 be 9b 86 5b 3e bd 7c 58 be
       -0.15096745 -0.14385682 0.21438067 -0.21141334
000290 d6 0f 9e 3e 2c 28 16 3e 9c a6 26 be 09 fc a2 3e
       0.30871457 0.14663762 -0.16274494 0.31832913
0002a0 ae eb 2d 3d b7 49 cb bc e0 6a 35 3d 32 96 ab bd
       0.04246109 -0.024815423 0.044291377 -0.08378257
0002b0 91 dd ae be da 52 92 be 6c 8d 05 3e 52 a7 a1 3e
       -0.34153417 -0.28578836 0.1304223 0.31572968
0002c0 00 5d 5f 3e 59 37 a7 be 62 f9 51 be 16 3a 27 bd
       0.2181282 -0.32659414 -0.20505288 -0.04082688
0002d0 bc f0 a7 3e b0 33 43 3c 4b d3 83 bc c8 8f 3e bc
       0.32800853 0.011914179 -0.016091963 -0.01163096
0002e0 23 c5 ab 3e ea 9e a7 bd 13 ca 06 be d8 33 a8 bc
       0.3354884 -0.08184607 -0.13163023 -0.020532534
0002f0 af d0 70 3d 71 e7 b8 3c 9f 6f 82 3e 47 23 8f be
       0.058792766 0.022571297 0.25475785 -0.27956602
000300 56 62 16 be a4 9a 46 3e bf 8f 09 be 1e 42 9d bd
       -0.1468595 0.19394928 -0.13433741 -0.076786265
000310 e6 0e f3 bc be dd ab 3d c5 95 d0 be fd b0 7e 3e
       -0.02967019 0.08391903 -0.40739265 0.24872203
000320 4b 55 05 bd d7 8a 41 bd dd 2c 79 3e 04 86 a0 be
       -0.032552045 -0.04725155 0.2433352 -0.31352246
000330 e1 0d 75 3e e8 0c 62 be cd 4d 34 be 86 60 c0 3d
       0.23931076 -0.22075236 -0.17607804 0.093934104
000340 53 3c 15 3e 12 17 c1 be c2 95 bb 3e 2f fc b5 bd
       0.14573793 -0.37712914 0.36637694 -0.08885991
000350 90 62 d4 bd 56 50 75 be 15 1b ca be 97 c5 51 3e
       -0.10370362 -0.23956427 -0.39473787 0.20485531
000360 0f 63 97 3e 89 ae 82 3e c2 7e 4a 3e 19 1f 28 3e
       0.29567763 0.25523785 0.19774917 0.16418113
000370 03 11 93 3b 15 0c b4 be 6e 7f 1f 3e 6b 57 77 bc
       0.004488112 -0.35165468 0.15575954 -0.015096526
000380 03 f7 b4 3d 30 c5 fb bd 51 5e 53 3e ce 96 c2 bd
       0.08836176 -0.1229347 0.20641448 -0.0950142
000390 a7 16 06 3e 58 d5 97 3c 15 3c 2b 3e b3 5a da be
       0.13094579 0.018534347 0.16722138 -0.42647323
0003a0 f8 37 9e be 4a f5 dc bb c3 41 68 3d ea fa 8a 3e
       -0.30902076 -0.006743108 0.05670334 0.27144557
0003b0 9f 7b c4 3e e6 b7 9a be d3 68 53 be f8 38 86 be
       0.38375565 -0.30218428 -0.20645456 -0.2621534
0003c0 6f 15 a9 3e a7 c6 22 3e a1 13 38 be e0 d7 c5 be
       0.33024165 0.15896092 -0.17976238 -0.38641262
0003d0 6d 65 93 3e 65 b7 46 3c 8d e1 bb 3e 07 ee 36 be
       0.2878832 0.012128686 0.3669552 -0.17864238
0003e0 c1 55 d1 be dc 6d b9 3e fe 2f 2d 3e 3a 22 83 be
       -0.40885738 0.3621663 0.16912839 -0.2561205
0003f0 a7 db fa 3c ab eb f3 bc de 1a a9 3e 08 15 02 3d
       0.030622317 -0.029775461 0.3302831 0.03175834

fc1.weight f4 [3, 48]
000000 a0 81 80 be ff 73 7d be e7 ea d3 bd 36 81 00 be
       -0.25098896 -0.2475128 -0.103475384 -0.1254929
000010 d0 44 4d 3e a6 2b 8d be cf 6b 94 bd 22 94 10 3e
       0.20045781 -0.27572364 -0.07247125 0.14119008
000020 cd 24 5e be ee d8 55 3e 4f 60 52 be 80 dd 87 3e
       -0.21693726 0.20883533 -0.20544551 0.2653618
000030 bd af 20 be e9 20 6f 3e e8 d0 62 3d e2 25 99 3e
       -0.15692039 0.23352398 0.05537501 0.29911715
000040 33 a4 7a 3e 78 29 5b 3e e5 85 51 be 60 76 7d be
       0.244767 0.21402538 -0.20461233 -0.24752188
000050 b0 35 84 3e f0 52 1c be 7a f7 1c be 94 c7 ce 3d
       0.2582221 -0.15266013 -0.1532878 0.1009666
000060 f6 8d 57 3e 83 26 5c 3e 1f c9 14 3e c2 c0 07 be
       0.21050248 0.21499066 0.14529847 -0.13257125
000070 bd fd 51 be 2c a6 3f be 3a 69 71 be 22 d9 35 be
       -0.2050695 -0.18715733 -0.23575297 -0.17758611
000080 42 08 8e be 3f 4d 7b be 3b 28 81 3e 8e fd 05 3e
       -0.27740675 -0.24541186 0.25226006 0.13085005
000090 de 95 0c 3e 88 c4 c0 3d 2b d7 22 be 8c 2c 87 3e
       0.13729045 0.09412485 -0.15902393 0.26401174
0000a0 12 fd c1 3c fc 9b f9 bd 6f 31 11 3e 30 92 7f be
       0.023680244 -0.12187955 0.14179014 -0.2495811
0000b0 89 db 19 be bd 17 46 be ad dd 9f 3e 4c 5f 05 be
       -0.15025152 -0.19344993 0.31223813 -0.13024634
0000c0 0e f3 ae 3d 32 1b 95 3e 6c e1 51 be 76 7e 82 3e
       0.08542453 0.2912231 -0.20496148 0.25487107
0000d0 18 7b e3 3b ae 19 94 3d ba 23 53 3e d1 07 7a 3e
       0.006942164 0.072314605 0.20619097 0.24417044
0000e0 3e d0 37 3e e1 56 08 be 44 ca 16 3c 0d 53 79 be
       0.17950532 -0.13314392 0.009203497 -0.24348088
0000f0 7b ab 4e 3e ba 7c 8b 3d da b4 8d be 8e d4 61 bd
       0.20182602 0.06810899 -0.2767704 -0.05513435
000100 cd 5e 0c 3e 21 d0 50 be 67 31 4f be 7b 97 d5 bd
       0.13708039 -0.20391895 -0.20233689 -0.10429283
000110 7c 37 6e be 1b 84 07 3e fe 49 87 3e 55 03 13 3e
       -0.23263353 0.13233988 0.2642364 0.1435674
000120 46 27 82 be 3a e8 8e be f5 9a 67 be 23 cf 3d 3c
       -0.25420588 -0.2791155 -0.22617705 0.01158503
000130 7b 40 6b 3e ed 97 a2 3e 77 bd 99 3e 25 93 48 be
       0.22973816 0.31756535 0.30027363 -0.19587381
000140 f0 08 d7 3d 6b 5d 6d be 1c d5 05 be 56 95 88 be
       0.104997516 -0.23180167 -0.13069576 -0.26676434
000150 18 95 64 be e8 28 9e 3e 5a 82 47 3e db 62 86 be
       -0.223225 0.30890584 0.19483319 -0.26247296
000160 90 7b 18 3c 11 af 7b be bc db fa 3d 5e 33 83 3e
       0.009306803 -0.24578501 0.12248942 0.25625128
000170 a5 8e 8a 3e 65 fd 89 3e f0 e1 91 bc 6c bf 82 be
       0.27061954 0.26951137 -0.01780793 -0.25536668
000180 fd d6 9f 3d 4c b6 0c be 54 a2 4c 3e 9f 5c 82 3d
       0.07804678 -0.13741416 0.19983798 0.06365322
000190 48 d5 88 be ed d7 9e bd 2e 14 87 be 10 4e a4 be
       -0.2672522 -0.07756028 -0.26382583 -0.32090807
0001a0 b5 42 72 3e 2d 99 ec bd c8 a6 1d 3e b0 16 83 be
       0.23658259 -0.115526535 0.15395653 -0.25603247
0001b0 c2 6e 11 3e 9c ff 94 be 4b 94 95 bd 6a 75 16 bb
       0.14202407 -0.29101264 -0.07303675 -0.0022958168
0001c0 91 55 9e be 44 fd 1c be 87 f5 20 3e 12 2b 98 3e
       -0.30924657 -0.15330988 0.15718661 0.2972036
0001d0 50 e6 9d 3e f0 0a e1 bd 7b 64 75 3b 52 9f 86 be
       0.30839777 -0.10988414 0.0037443924 -0.26293427
0001e0 27 d9 d7 bd a1 6d e7 bd 8e 2d 03 3e 35 bf 8b 3e
       -0.105394654 -0.11300207 0.12810346 0.27294317
0001f0 cf ee 18 3e 19 ab 9f be a2 e1 8e be a2 f5 84 3e
       0.14934848 -0.31185225 -0.2790652 0.25968653
000200 cf 0c fb 3d 97 4f 64 3e 0f ab 69 be 97 8d 2d 3e
       0.122583024 0.22295986 -0.2281916 0.16948543
000210 ff 64 4f 3e 4d 77 92 be 9a 46 3a 3e 92 03 d8 bd
       0.2025337 -0.28606644 0.18190995 -0.10547556
000220 40 40 a5 be d1 87 a8 3e 38 dd 8d be ed ff 5a 3e
       -0.3227558 0.3291612 -0.2770784 0.2138669
000230 0c aa 0a be c6 c0 6d 3e 89 a7 29 be 1e 1b 9b 3e
       -0.1354143 0.23218068 -0.16567816 0.30294126

fc1.bias f4 [3]
000000 bf f1 39 bd 62 28 b2 bd 15 ce 3a 3c
       -0.045396563 -0.08699109 0.011401673
